staticfiles/place_weights/lstm_state.pt (torch, 12875 bytes, 14 tensors)

cnn.weight f4 [5, 5, 2]
0	0xbeec489a	-0.4614914
1	0x3ff7f440	1.9371414
2	0x3c902d38	0.017599687
3	0x3fbd209f	1.477558
4	0xbf975b18	-1.1824675
5	0xbee41e21	-0.44554237
6	0xbf93ba2c	-1.154119
7	0x3f661179	0.8987041
8	0xbeb28ba9	-0.34872177
9	0x3fabb95e	1.3415945
10	0x40043384	2.0656443
11	0x3d9e7f9a	0.07739182
12	0xbe0a12e3	-0.13483767
13	0x3f887608	1.066102
14	0x3fa81a57	1.3133038
15	0x3f3312ef	0.69950765
16	0x3efc0b51	0.49227384
17	0xc0332a13	-2.799443
18	0xbfae30f6	-1.3608692
19	0xbfd99cdb	-1.7000993
20	0xbf832885	-1.024674
21	0x3de6dc60	0.11272502
22	0xbf06fa1c	-0.52725387
23	0xbfe168af	-1.7610072
24	0x3d2bb81a	0.04192362
25	0x40668a74	3.6022005
26	0xbfbacd64	-1.459393
27	0xbf50af9c	-0.8151796
28	0x4004332e	2.0656238
29	0xbfb16c6d	-1.3861214
30	0x3f953e6b	1.1659673
31	0xbf6fe5a3	-0.9370977
32	0x3d7ee8c6	0.06223371
33	0x3fddfd01	1.7342836
34	0xc0286305	-2.6310437
35	0x3f119f49	0.56883675
36	0xbf3ee3f8	-0.745666
37	0xbd7c6cf1	-0.061627332
38	0xbd144c27	-0.036205437
39	0xbf0e3efa	-0.55564845
40	0x3fbd0c3f	1.4769362
41	0xbf8fd1b0	-1.1235867
42	0x3e168b31	0.14701535
43	0xbf92f8c8	-1.1482172
44	0xbf5717ec	-0.84020877
45	0xbf833a7e	-1.0252225
46	0xbf176a51	-0.591466
47	0x3ee777bd	0.4520854
48	0x4093d706	4.619998
49	0x40168a9e	2.3522105

cnn.bias f4 [5]
0	0xc08d10f9	-4.408322
1	0xc03fa7af	-2.9946096
2	0xbf989e9d	-1.1923405
3	0x3faac7c8	1.3342218
4	0xbf918ec7	-1.1371697

lstm.weight_ih_l0 f4 [40, 5]
0	0xbf442021	-0.76611525
1	0x3dc73122	0.09726168
2	0x3f247432	0.642398
3	0xc081ebcc	-4.060034
4	0x3ff70f60	1.9301567
5	0xbf8ce855	-1.1008402
6	0x3efb7cc0	0.49118614
7	0x3ee2f4a7	0.4432728
8	0xbf6da406	-0.92828405
9	0x3f45b001	0.77221686
10	0xc035b7ef	-2.8393514
11	0xbf383d16	-0.7196821
12	0x3f1e38f4	0.61805654
13	0xbf69ee7e	-0.91379535
14	0x3f0fed3f	0.56221384
15	0x3f050bd4	0.51971173
16	0xbfb09928	-1.379674
17	0x4016f297	2.3585565
18	0xbe12dae9	-0.1434132
19	0xbf3e05d5	-0.7422765
20	0xbf948f98	-1.1606321
21	0xbfe1cf1a	-1.7641327
22	0xbfb74e79	-1.4320823
23	0xbf9d233d	-1.2276379
24	0xbf230c2f	-0.63690466
25	0xbef70ae5	-0.482505
26	0xbdfaefd8	-0.12252778
27	0xbf9ebcdd	-1.2401386
28	0x3f95e84c	1.1711516
29	0x3fb12594	1.3839593
30	0xbf600cea	-0.87519705
31	0xbf8647a9	-1.0490619
32	0xbfc04593	-1.5021232
33	0x3fa9cb5f	1.3265189
34	0x40491b24	3.1422815
35	0x3f496da8	0.7868295
36	0xbee320a5	-0.44360843
37	0xbfb1675c	-1.3859668
38	0xc08e1966	-4.4406004
39	0x3e8a95d6	0.2706744
40	0xbe0e3679	-0.13887967
41	0xbfebbcc7	-1.8416985
42	0x3f9017e7	1.1257294
43	0x3f6de1eb	0.9292285
44	0x3f48c625	0.78427345
45	0x404be05a	3.1855683
46	0x3f8ad83d	1.0847241
47	0xbf0fca8a	-0.56168425
48	0xc0244107	-2.566469
49	0xbedfd71d	-0.43718806
50	0xbe32428c	-0.17408198
51	0xbf4c9d19	-0.7992721
52	0xc068a8aa	-3.6352944
53	0xbf872929	-1.0559436
54	0xbffcd976	-1.9753864
55	0xbf981eab	-1.1884359
56	0x3eefc957	0.46833298
57	0xbecab9d7	-0.3959491
58	0xbfd49ffc	-1.6611323
59	0xbe99abb1	-0.30013803
60	0x3e8558ad	0.26044217
61	0x401fe8f8	2.4985943
62	0x3fba1e78	1.4540548
63	0xbf8ac491	-1.0841237
64	0xbfa9b3a9	-1.3257953
65	0x40113885	2.2690747
66	0x3f9e9044	1.2387776
67	0xc00098bd	-2.0093224
68	0xbfda9488	-1.7076578
69	0x3e805017	0.25061104
70	0xbf54e1b9	-0.83156925
71	0x3e33fb79	0.17576398
72	0x405f8214	3.4923143
73	0xc02460ef	-2.5684164
74	0x3ef8b284	0.48573697
75	0x3f935420	1.1510048
76	0xbf533e8b	-0.8251731
77	0xbea98ded	-0.33116093
78	0xc08ff21b	-4.498304
79	0xc00fce2d	-2.246959
80	0xbfa54724	-1.2912335
81	0x3f5bf4f3	0.8592064
82	0x3f1aaea8	0.60422754
83	0x3f12560f	0.57162565
84	0x3e3bc936	0.18338475
85	0x40114f1a	2.270453
86	0xbe8810c7	-0.265753
87	0x404b1e96	3.1737418
88	0x3f3605c4	0.7110255
89	0xbf901bca	-1.125848
90	0x3f465bac	0.7748363
91	0xbf872b26	-1.0560043
92	0xbf1305c5	-0.5743068
93	0x3ffde8bc	1.983665
94	0x3ff9239f	1.9463996
95	0x3f4f8f06	0.8107761
96	0x3f132026	0.5747093
97	0x3e1374de	0.1440005
98	0xbea738d7	-0.32660553
99	0xbde56552	-0.11200966
100	0x3e84c8cd	0.2593445
101	0xc006f10d	-2.1084626
102	0xbfcfb3c7	-1.6226739
103	0x3f241994	0.6410153
104	0xbfb23950	-1.392374
105	0x3f8b33ca	1.087518
106	0x3fc09495	1.5045344
107	0x3febfd4d	1.8436676
108	0x3dde3b2c	0.1085113
109	0x3ec34ab7	0.3814294
110	0xbe803064	-0.2503692
111	0x3e56ae26	0.2096487
112	0xc09f807a	-4.984433
113	0x3eeb524f	0.45961234
114	0x3f2f7a26	0.6854576
115	0xbeec0eca	-0.46105033
116	0xc019576d	-2.395961
117	0xbfc961ab	-1.5732931
118	0x3f914e48	1.1352015
119	0xbe606047	-0.21911727
120	0xbf8564c6	-1.0421379
121	0xbf57259d	-0.8404177
122	0x3f90af55	1.1303507
123	0x3fd05794	1.6276727
124	0x4016225f	2.3458478
125	0xbf816184	-1.0107884
126	0x3df44692	0.11927523
127	0x40057cf3	2.0857513
128	0xc0149371	-2.321499
129	0x3edaa10f	0.42701003
130	0x3c41a5a2	0.011819275
131	0x3f1f7e97	0.62302536
132	0xc0669dd9	-3.6033843
133	0x3fd8b644	1.6930623
134	0xbe3b722e	-0.18305275
135	0x3f19c8f6	0.6007227
136	0x3ffe9ea9	1.9892169
137	0xbeb47fe8	-0.35253835
138	0xbed8b9dd	-0.42329302
139	0xbe4ef5cf	-0.20210956
140	0x402605ca	2.5941033
141	0xbeaec356	-0.34133404
142	0x3e0919a8	0.13388693
143	0xbfbe6860	-1.4875603
144	0xc052b113	-3.2920578
145	0x40165db1	2.3494685
146	0xbeb75394	-0.35805953
147	0xbfb91c61	-1.4461786
148	0xbf1477e7	-0.57995456
149	0x3fc9bf33	1.5761474
150	0x3fa0874d	1.254129
151	0xbee0134c	-0.43764722
152	0xc01b8994	-2.430272
153	0x3f211cf7	0.6293482
154	0x4068c5d7	3.6370752
155	0x3f21c073	0.6318428
156	0x3e1d2431	0.15345837
157	0x3f94b760	1.1618462
158	0x3f68dd3b	0.9096257
159	0x404b8742	3.1801305
160	0xbfc3a419	-1.5284454
161	0x4084b2ac	4.1468105
162	0xbefdcee9	-0.49571922
163	0x3e8d8907	0.27643606
164	0x3f0e752a	0.5564753
165	0xbf48222e	-0.78177154
166	0x40061120	2.0947952
167	0xbfc5138c	-1.539659
168	0xbd9474a7	-0.07248812
169	0x3fd52275	1.665114
170	0xc00e8421	-2.2268145
171	0x4010e931	2.2642329
172	0x3fd5bdbf	1.6698531
173	0x3bf0724c	0.007337844
174	0x3fe77f72	1.8085768
175	0x3fee1ac2	1.8601916
176	0x3f9b37cb	1.2126402
177	0xbfb932dd	-1.4468647
178	0xc02b9a09	-2.6812766
179	0x3f894a27	1.0725754
180	0x401e12c6	2.4698958
181	0x3ffc4e90	1.9711475
182	0xbf93d741	-1.1550065
183	0xc00c3a4d	-2.1910584
184	0xbf2daa4e	-0.6783799
185	0xbee2a0f5	-0.44263425
186	0x3f73a4fe	0.95173633
187	0xbf5485d3	-0.830167
188	0xbf9263ce	-1.1436708
189	0x3eed52d0	0.46352243
190	0x4021de7a	2.529204
191	0xbf98a3df	-1.192501
192	0x3f07e508	0.5308385
193	0xbf5a619a	-0.8530518
194	0xbe8e79eb	-0.2782739
195	0x3f680d6b	0.90645474
196	0x3f7bf9ef	0.98428243
197	0x3f8911a1	1.0708505
198	0x3fc8f6ef	1.5700358
199	0xbfbdbf76	-1.4824054

lstm.weight_hh_l0 f4 [40, 10]
0	0xbefd5d14	-0.49485075
1	0x40d1ce50	6.5564346
2	0xbfb15663	-1.3854488
3	0x3eb732d1	0.35780957
4	0xbe237272	-0.15961626
5	0x408fea0a	4.497319
6	0xc04442f7	-3.0665872
7	0x3eb26ebb	0.34850106
8	0xbfe51444	-1.789681
9	0x3d8f15b7	0.06986564
10	0xbee5e961	-0.44904616
11	0x410e0c2e	8.877974
12	0x41283814	10.513691
13	0x401ba579	2.4319746
14	0x40829b7d	4.0814805
15	0x414bc8ff	12.736571
16	0x40b29bb1	5.5815053
17	0xbf9684f9	-1.175933
18	0xbd199bd3	-0.03750212
19	0x405f6a4e	3.4908633
20	0xc03f335a	-2.9875093
21	0x3f2b6fc2	0.66967404
22	0x3fe59137	1.7934941
23	0xc117f82b	-9.498088
24	0x3f584809	0.84484917
25	0x40696a67	3.6471193
26	0xc0289f21	-2.6347125
27	0x40e8fde4	7.2809925
28	0x402a1735	2.6576664
29	0xc0b0fd75	-5.5309396
30	0x4056c538	3.3557873
31	0xbfa36584	-1.2765355
32	0x3f1955d6	0.598966
33	0xbef0f3be	-0.4706096
34	0xbfa8d180	-1.3188934
35	0x40024359	2.0353606
36	0xc13b6c46	-11.713934
37	0xc08644df	-4.195907
38	0x40f32823	7.5986495
39	0xc11a1873	-9.630969
40	0xc0db2187	-6.8478427
41	0x3f9b59ac	1.2136741
42	0x4060007e	3.50003
43	0xc0e04b5f	-7.0092006
44	0xc08c5b00	-4.3861084
45	0x3f34ab8e	0.7057427
46	0x4083fa5d	4.124312
47	0x4092147c	4.5650005
48	0x40e11a7d	7.0344834
49	0x3f440902	0.76576245
50	0xc094df9a	-4.652295
51	0x410e896f	8.908553
52	0xc0a4e8f3	-5.153436
53	0x3fb2551f	1.3932227
54	0xc039b741	-2.90181
55	0xc07870d5	-3.8818867
56	0x40266f13	2.6005294
57	0x40a5614a	5.168126
58	0x3f3e6cb5	0.74384624
59	0xc0b9a119	-5.8009152
60	0xbfc6df74	-1.5536942
61	0x3f5a5906	0.8529209
62	0x4019fb29	2.4059546
63	0xbfa9ea7b	-1.3274683
64	0xbff4ea1a	-1.9133942
65	0xc01da824	-2.4633875
66	0xbd602e7c	-0.05473183
67	0x3dc90d7b	0.09817024
68	0xbf4d6f22	-0.802477
69	0x3fba1fc2	1.4540942
70	0x405f5590	3.4895973
71	0xc05903e9	-3.3908637
72	0x3e890623	0.26762494
73	0xc00e41ca	-2.2227654
74	0x4089624b	4.2932487
75	0xc0a1ef56	-5.060466
76	0x40515d8c	3.2713346
77	0x3e58d7fd	0.21176143
78	0xbf27c0af	-0.65528387
79	0xbcac1f55	-0.021011034
80	0xbe714ea9	-0.23565163
81	0xc0eb197d	-7.3468614
82	0x40e2b0ae	7.0840673
83	0x3f6ce8e8	0.92542887
84	0x40de7799	6.9520993
85	0xc04c70be	-3.1943812
86	0x3f064bc3	0.52459353
87	0xc0256d34	-2.5847902
88	0x408a2172	4.3165827
89	0x3ecad349	0.39614323
90	0xc0ba93b4	-5.83053
91	0x3f6b0776	0.9180826
92	0xc0c153f0	-6.0414963
93	0xc0cbf0b4	-6.3731327
94	0xc0bb7aa0	-5.858719
95	0xbfb0ec85	-1.382218
96	0xbedfa410	-0.43679857
97	0x4061cd5e	3.5281596
98	0x40e76fb5	7.232386
99	0xc07d0bb1	-3.9538386
100	0x4023eaba	2.5612016
101	0x40839c1f	4.1128078
102	0xc00d010b	-2.2031887
103	0x40477486	3.116487
104	0x40019248	2.0245533
105	0x40b985c6	5.79758
106	0x3f78fbb5	0.97259074
107	0xc02a115d	-2.6573098
108	0xbfba6ac8	-1.4563837
109	0x3dac8bfb	0.08425137
110	0xc0715894	-3.7710314
111	0x40a6d3a0	5.213333
112	0xbff3483a	-1.9006417
113	0xc0dc7fad	-6.8905854
114	0xc0e0eabc	-7.028654
115	0x40c68e39	6.204861
116	0x40828ae8	4.0794563
117	0x40834baa	4.1029863
118	0xc059c48c	-3.4026213
119	0x3f542ede	0.82884014
120	0xbf778d0a	-0.96699584
121	0xbfdcca6e	-1.7249277
122	0xbe29099d	-0.16507573
123	0x4097bcc1	4.7417912
124	0x406e9293	3.7276962
125	0x40d12f0f	6.5369945
126	0xbf2bb983	-0.67079943
127	0xbf55354e	-0.8328446
128	0xc108a7ff	-8.541015
129	0x4088c5c6	4.2741423
130	0xbf810e81	-1.0082551
131	0xc087a84b	-4.2392936
132	0xc0a6055e	-5.188155
133	0x4055740c	3.335208
134	0xc06a6cf6	-3.6629004
135	0xc0596739	-3.3969252
136	0xbfd80f94	-1.6879754
137	0x404407d7	3.0629785
138	0x3febb1d6	1.8413646
139	0xc08170bd	-4.045012
140	0x3ea0fc6e	0.3144259
141	0x3fb0d327	1.3814439
142	0xc0855f45	-4.1678796
143	0x40cb9d35	6.3629403
144	0xc0d0836a	-6.5160418
145	0x3cdf92d8	0.0272917
146	0x3f5c8628	0.86142206
147	0x402e66d2	2.7250257
148	0x3fc6182a	1.5476124
149	0x40202b15	2.5026295
150	0x40388ed4	2.8837175
151	0xc0b6a371	-5.7074513
152	0xbfb19a1c	-1.3875155
153	0x3fa64ac2	1.2991564
154	0x40b0d520	5.526016
155	0x400b2f98	2.17478
156	0xc0af28da	-5.473737
157	0x3ef499e1	0.4777365
158	0x40076b85	2.1159375
159	0xbf95e152	-1.1709387
160	0xc0f8bb6e	-7.7728796
161	0xbeb95706	-0.36199206
162	0x40d3da18	6.620373
163	0xc060c7b2	-3.5121884
164	0xc0079f4b	-2.1190975
165	0xbffd8470	-1.9806042
166	0x4105d856	8.365316
167	0x40b1eb3b	5.5599647
168	0x403ca982	2.947846
169	0x40c25ac6	6.0735807
170	0x3f398f68	0.72484446
171	0xc0208b09	-2.508486
172	0xc0493741	-3.1439974
173	0x3e8d226c	0.27565324
174	0xc046a60c	-3.1038847
175	0xbf38f3db	-0.72247094
176	0x4045ec9e	3.092567
177	0x40c3c337	6.11758
178	0xbf679f75	-0.9047769
179	0x3f58a5a2	0.84627736
180	0x40696877	3.647001
181	0x3ee4c729	0.44683197
182	0xbf10069c	-0.56260085
183	0x40b45e20	5.63649
184	0xbf32aa91	-0.69791514
185	0x408f0790	4.469673
186	0xc0ff7cd8	-7.9839897
187	0x4042218f	3.0332983
188	0xc0038187	-2.0547807
189	0xbf1bc8fb	-0.60853547
190	0xbf19c01d	-0.60058767
191	0xbe7258f0	-0.2366674
192	0xc04a1cb5	-3.1580021
193	0xc12051af	-10.019942
194	0xc0e6f98e	-7.217963
195	0xc014997a	-2.3218675
196	0x40aa9403	5.330568
197	0x4095b08b	4.6778007
198	0x3f3bdd74	0.73384786
199	0x3e0d7fa6	0.13818225
200	0xbfb45232	-1.4087584
201	0x3cc42687	0.023944153
202	0x4017fdfe	2.3748775
203	0xbf5ef03e	-0.8708533
204	0x3f068739	0.52550083
205	0x3f8daa8e	1.1067674
206	0xc01cc8e2	-2.449761
207	0xc082a863	-4.083055
208	0xc0072979	-2.1119063
209	0x400c1704	2.1889048
210	0x406c2453	3.689717
211	0x409927d6	4.786113
212	0xc030b4c3	-2.7610328
213	0x3f7489c0	0.9552269
214	0xc0e6b56b	-7.2096457
215	0x409075b0	4.514366
216	0xc0da0954	-6.8136387
217	0x3cacdb3a	0.02110063
218	0xbff395af	-1.9030055
219	0xc0777738	-3.8666515
220	0x40348168	2.8203983
221	0xc0af2df1	-5.474358
222	0x40d0a9d9	6.5207334
223	0xbeb943c7	-0.36184523
224	0x4075e23f	3.841934
225	0xc05730d8	-3.3623562
226	0xc00976f1	-2.1478846
227	0xc06ca045	-3.697282
228	0x3e7f0b8c	0.24906749
229	0x3fd4c6e4	1.6623197
230	0x4065f5ff	3.5931394
231	0xbffd2181	-1.977585
232	0xbf667ea3	-0.9003698
233	0xc065e8b0	-3.592327
234	0x4043d0d4	3.0596209
235	0x40249875	2.5718052
236	0xc0adacb7	-5.4273334
237	0xbfe34e8d	-1.7758347
238	0xc0572126	-3.3613982
239	0xbf283b70	-0.65715694
240	0x3f90d966	1.1316345
241	0xc0539638	-3.3060436
242	0x3fa55ef4	1.2919602
243	0x3f7727d5	0.96545154
244	0x3f970853	1.1799415
245	0xc0a6bbc8	-5.2104225
246	0x4010a97e	2.260345
247	0xc02fe9d3	-2.7486465
248	0xbf971890	-1.1804371
249	0x3f9dc96a	1.2327092
250	0x409caf47	4.896396
251	0xc07381ba	-3.804793
252	0x408b1dde	4.347396
253	0xbf3d65d5	-0.7398351
254	0x40a3834a	5.1097765
255	0xc0956e8f	-4.669746

lstm.bias_ih_l0 f4 [40]
0	0x404b2496	3.174108
1	0x404e0ea3	3.2196434
2	0xc02b2a19	-2.6744444
3	0xc09df581	-4.9362187
4	0x403f789d	2.9917367
5	0x4105c63b	8.360896
6	0x3ff658e5	1.9245878
7	0xbfe60732	-1.7970946
8	0xc0be80dd	-5.9532304
9	0x3fabf424	1.3433881
10	0xc0438f4e	-3.0556216
11	0x40ad65c7	5.418674
12	0x3f60cf6e	0.8781651
13	0x400fc888	2.2466145
14	0x4037a878	2.8696575
15	0xbfab5ea1	-1.3388253
16	0x40ce6845	6.450228
17	0x40067b75	2.1012852
18	0xbf7e5420	-0.99347115
19	0x40f6b5ea	7.7097063
20	0xc00ddd11	-2.2166178
21	0x3f1cd2cc	0.6125915
22	0xbf169a46	-0.5882915
23	0xc075ef13	-3.842717
24	0xc0588d84	-3.3836374
25	0xbf4b7704	-0.7947848
26	0xbfced91b	-1.6160005
27	0x40af1ced	5.472281
28	0x3e224e6e	0.15850231
29	0xc04971e6	-3.1475768
30	0x40155597	2.333349
31	0x4039a085	2.9004223
32	0xc0792b64	-3.8932734
33	0x402aba72	2.6676297
34	0x3f95132f	1.1646479
35	0x409ddc25	4.933123
36	0x3fc39140	1.5278702
37	0x40b256a6	5.573077
38	0x3f0e8dc7	0.55685085
39	0x40c78d6d	6.236014

lstm.bias_hh_l0 f4 [40]
0	0x40433e60	3.050682
1	0x40461820	3.0952225
2	0xc034e391	-2.8263896
3	0xc0a3077b	-5.094663
4	0x403eb5f3	2.9798553
5	0x4102c27d	8.1724825
6	0x40096a18	2.1471004
7	0xbfb8856a	-1.4415715
8	0xc0c703a5	-6.219195
9	0x3fed6c27	1.854863
10	0xc024ad9b	-2.573096
11	0x40a420d2	5.1290064
12	0x3f579705	0.8421481
13	0x400f4699	2.238684
14	0x403a81c4	2.9141703
15	0xbfa2bd02	-1.2713931
16	0x40c09390	6.018013
17	0x3ffa0e4e	1.9535615
18	0xbf1fff3b	-0.62498826
19	0x40f15b79	7.542416
20	0xbff8b83c	-1.9431224
21	0x3f983c02	1.1893313
22	0xbef85768	-0.48504186
23	0xc0757a95	-3.8356068
24	0xc065ee32	-3.5926633
25	0xbecd49fc	-0.40095508
26	0xbfdf32e3	-1.7437404
27	0x40bb8dc2	5.8610544
28	0xbe00ea40	-0.1258936
29	0xc055b090	-3.3389015
30	0x40294106	2.6445937
31	0x4017bebc	2.3710165
32	0xc0640f71	-3.5634425
33	0x4045cb10	3.090519
34	0x3fa350f9	1.2759086
35	0x40a9e9a8	5.3097725
36	0x3fef6482	1.8702548
37	0x40a4239c	5.129347
38	0x3e5fbb22	0.21848729
39	0x40cd9515	6.4244485

lstm.weight_ih_l0_reverse f4 [40, 5]
0	0x3fca292f	1.5793818
1	0x3f9e1c29	1.2352344
2	0x3fe1ba9b	1.7635072
3	0x3f384136	0.71974504
4	0x3fb0cbd8	1.3812208
5	0xbe9d41b8	-0.30714202
6	0xbf43bab9	-0.7645679
7	0xbefc4a2f	-0.49275348
8	0xbdea5bff	-0.11443328
9	0x4088e4c7	4.277927
10	0xc01f9367	-2.4933717
11	0xbfa35eeb	-1.2763342
12	0xc00ff625	-2.2493985
13	0xbf22afd1	-0.63549525
14	0x3fa9f827	1.3278855
15	0xbf2f3571	-0.6844092
16	0x3effa2ec	0.49928987
17	0x3ffc39bb	1.9705118
18	0xc031c2bd	-2.777511
19	0xbe47a960	-0.19498205
20	0xc03c3ac4	-2.9410868
21	0x3f606c46	0.8766521
22	0x404c9048	3.1963062
23	0x400171a4	2.022561
24	0xc00f2621	-2.2367022
25	0x4017ef33	2.3739746
26	0x3ff413c2	1.906853
27	0xbfae124a	-1.3599331
28	0xbf154346	-0.58305776
29	0x3f0fcc0c	0.56170726
30	0xbede65bf	-0.43437
31	0x3f30c12e	0.6904477
32	0xc091c93a	-4.555814
33	0x3e452a75	0.19254477
34	0x3ef26d7b	0.47349152
35	0xbee75503	-0.45182046
36	0xbe993e3c	-0.29930294
37	0x3fbbec69	1.4681522
38	0xbfbf8b16	-1.4964321
39	0xc007f047	-2.1240404
40	0x3fa8f300	1.3199158
41	0x3f0e91d1	0.5569125
42	0x3f1e55be	0.6184958
43	0x3fb0e2d9	1.3819228
44	0xc0033186	-2.0498977
45	0xbf4e6220	-0.80618477
46	0x401c936b	2.4464977
47	0xbf0af7e6	-0.54284513
48	0xbf62d0af	-0.88599676
49	0xbf08c5de	-0.5342692
50	0x3f4f9387	0.81084484
51	0xbfb537e9	-1.4157687
52	0xbeb73f27	-0.3579037
53	0xc01ed606	-2.481813
54	0x3fbfa6b8	1.4972754
55	0xbebf7a3d	-0.37397948
56	0x40009b69	2.0094855
57	0xbf5a7c99	-0.8534637
58	0x3f423b24	0.7587149
59	0x40180ac5	2.3756573
60	0x4017ea42	2.373673
61	0xbe2297bd	-0.15878196
62	0xbc587b9f	-0.013213067
63	0x3fc10ae1	1.5081445
64	0x3f85831d	1.0430638
65	0xbeae0fd3	-0.33996448
66	0x3fbb80ec	1.4648719
67	0x3f298a43	0.66226596
68	0x4015d3d3	2.3410537
69	0xbf1e68e8	-0.61878824
70	0x3ef22f14	0.47301543
71	0xbfa6cf62	-1.3032038
72	0xbef7af41	-0.48375896
73	0xc0380099	-2.8750365
74	0x3f811dda	1.0087235
75	0x401f1158	2.4854336
76	0xc0462100	-3.0957642
77	0xbd1e408d	-0.03863578
78	0xbf742c03	-0.95379657
79	0x3e6626f5	0.22475798
80	0x40178968	2.3677616
81	0x3f9f26fa	1.243377
82	0xbfa45beb	-1.2840551
83	0xbf406d25	-0.7516654
84	0xbea8bea6	-0.32957953
85	0x3f16e882	0.5894853
86	0x4040f826	3.0151458
87	0xbf4f2e6f	-0.8093023
88	0xbff552cf	-1.9165896
89	0x3eab098a	0.33405715
90	0xbfa3ed2b	-1.2806753
91	0x3fce4da0	1.6117439
92	0xc0308054	-2.7578325
93	0xbf5274a8	-0.82209253
94	0x3cda725f	0.026665865
95	0xbf35c966	-0.71010435
96	0xbf984db7	-1.1898717
97	0x3d445187	0.047929313
98	0x401a39ef	2.409786
99	0x3e0b0abd	0.13578315
100	0x3e06c146	0.13159665
101	0x40602cc1	3.5027316
102	0x3e2d28e3	0.16910128
103	0xbf9d828f	-1.2305468
104	0x3fd80b31	1.6878415
105	0x3e2a47a8	0.16628897
106	0x40220e8d	2.532138
107	0x3c57e4c4	0.013177101
108	0xbd121a99	-0.035669897
109	0xbfc7523d	-1.5571972
110	0xbed60193	-0.41798076
111	0x3f46da0e	0.77676475
112	0x3f8ffa34	1.1248231
113	0xbf90caf0	-1.1311932
114	0xbf191622	-0.59799397
115	0xbf93deb9	-1.1552345
116	0xc0040a2b	-2.0631206
117	0x3eb737a1	0.3578463
118	0x4001fcac	2.0310469
119	0x3e848ae7	0.25887224
120	0x3f59019f	0.847681
121	0xbf91a6be	-1.1379011
122	0xbfbbf2ee	-1.4683511
123	0xbed0f9ce	-0.40815586
124	0x3ef80953	0.48444614
125	0x3fa8c0e4	1.3183866
126	0xbeb36620	-0.35038853
127	0x402c7316	2.6945243
128	0xbf004ad4	-0.5011418
129	0x3ff3ddf9	1.9052116
130	0xbe9f2ba4	-0.31087983
131	0x401baec3	2.4325416
132	0xbe8b5c6f	-0.2721896
133	0x3f1c9b34	0.6117432
134	0x3da628a2	0.08113219
135	0xbe1c18a1	-0.1524377
136	0xc0010301	-2.0158083
137	0xbe842f78	-0.25817466
138	0xbf044092	-0.51661026
139	0x3fd9ae71	1.700636
140	0xbfab2501	-1.3370668
141	0xbf274e6b	-0.6535403
142	0xbf3b4248	-0.7314801
143	0x3f0b2aed	0.54362375
144	0xbf2dffd8	-0.6796851
145	0xbf4b14ea	-0.7932879
146	0xbf9404ef	-1.1564006
147	0xc0034a9a	-2.0514283
148	0x3f99dd29	1.2020618
149	0x40233759	2.5502532
150	0x3fdd1dd0	1.7274723
151	0xbe201325	-0.15632303
152	0x3eb3a621	0.35087684
153	0x3ff3bc1b	1.904178
154	0x3ff5d35f	1.920513
155	0xbea17092	-0.31531197
156	0x4022297e	2.5337825
157	0x3fea2eae	1.8295496
158	0x3f3e1217	0.7424635
159	0x3eaa2c63	0.3323699
160	0x3f125770	0.5716467
161	0x3f8a7f1d	1.0820042
162	0x400a1356	2.1574302
163	0xbfa51ba1	-1.2899057
164	0xbfb4878e	-1.4103868
165	0x3f9c456b	1.2208685
166	0xbf25d98e	-0.6478509
167	0xc012424b	-2.2852962
168	0xbfe23c54	-1.7674661
169	0x3fef513e	1.8696668
170	0xc0074606	-2.113649
171	0x401d6a75	2.4596226
172	0x3f04f4b3	0.5193588
173	0x3ed32162	0.41236407
174	0x3fe1ab16	1.7630336
175	0xbf98908e	-1.1919115
176	0x407c05d2	3.9378552
177	0x3e935ad4	0.28780234
178	0xbda3e830	-0.080032706
179	0x3ebe6003	0.37182626
180	0x3fa0201d	1.25098
181	0xc0062bef	-2.0964315
182	0x3fd2f14a	1.6479886
183	0x3fbca9a1	1.4739267
184	0x3fae9457	1.363902
185	0xbec885a6	-0.39164466
186	0x3f636312	0.88823044
187	0xbf668b5a	-0.90056384
188	0x3fe4199c	1.7820315
189	0x40622cd0	3.5339851
190	0xbec4e114	-0.3845297
191	0x40050fd4	2.079091
192	0x3f113004	0.5671389
193	0x3e62e746	0.22158536
194	0x3f823451	1.0172216
195	0x3f39ba8a	0.7255026
196	0x3ff4397e	1.9080045
197	0xbf69e15a	-0.91359484
198	0xbfe4529e	-1.7837713
199	0x3eb9c319	0.3628166

lstm.weight_hh_l0_reverse f4 [40, 10]
0	0x4099a8a3	4.8018355
1	0x401139e6	2.2691588
2	0x3e9c4af0	0.30525923
3	0xc066addf	-3.6043622
4	0xc112dd0c	-9.1789665
5	0x3d9f88ba	0.077897504
6	0x3f9e1154	1.2349038
7	0xbf3878d6	-0.7205938
8	0xbfa15395	-1.2603632
9	0x40206f58	2.506796
10	0x4006d443	2.1067054
11	0xc15172f9	-13.0905695
12	0x3fdd7f1c	1.7304416
13	0x3fad421e	1.3535802
14	0x40888724	4.2664967
15	0x404076a1	3.0072405
16	0x40034a84	2.051423
17	0x40c4f441	6.154816
18	0xc092e658	-4.590618
19	0xc0016a96	-2.0221305
20	0xbfaf3abe	-1.3689802
21	0x40a6f56c	5.2174587
22	0xbeb153ef	-0.3463435
23	0x403170cf	2.7725103
24	0xc08b3812	-4.3505945
25	0xc00f0abe	-2.2350307
26	0xbfe5717f	-1.7925261
27	0xbf9e3cf3	-1.236235
28	0xc075f446	-3.8430343
29	0x3ff176b9	1.8864356
30	0xbfeb8d97	-1.8402585
31	0x40be056c	5.938162
32	0x3ea4f844	0.32220662
33	0x4077a44a	3.8694024
34	0xc0c0716d	-6.013846
35	0x3ee32218	0.4436195
36	0x408003a7	4.000446
37	0xc0844796	-4.1337385
38	0x3fe4458f	1.7833728
39	0x40e89ec9	7.269383
40	0xbf2f0fde	-0.68383586
41	0xbf0855ac	-0.53255725
42	0xc05215dc	-3.2825842
43	0x3f90e9be	1.1321332
44	0x40b1bea9	5.554524
45	0xbf6abaa9	-0.9169107
46	0xbfe44aa3	-1.7835277
47	0x401e5501	2.4739382
48	0x3ece35c1	0.40275386
49	0xc003ad0b	-2.0574367
50	0xbf548eb0	-0.83030224
51	0x40ae2862	5.4424295
52	0x406e7a09	3.7261984
53	0xbf78a19f	-0.97121614
54	0xc031dbfd	-2.779052
55	0xbf2d5ff2	-0.67724526
56	0xbfd9e335	-1.7022463
57	0xc08bd0cd	-4.3692384
58	0x40200073	2.5000274
59	0x40cb3453	6.350137
60	0xbe80267f	-0.2502937
61	0xc0765b23	-3.8493125
62	0xc0615529	-3.5208228
63	0x3f9377c3	1.1520923
64	0xc0826599	-4.074902
65	0x40ba9b04	5.831423
66	0x4031291c	2.768134
67	0x3fb97149	1.4487697
68	0x3dd99ed3	0.106259964
69	0xc027f067	-2.624048
70	0xc0ae79ee	-5.452384
71	0x40e1e39a	7.0590334
72	0x406c35d2	3.690785
73	0xbf7f8841	-0.9981728
74	0xc04fdffb	-3.2480457
75	0xc013bedc	-2.3085241
76	0xc030ca8c	-2.7623625
77	0x403c3298	2.940588
78	0x406011e9	3.5010931
79	0x3fd078de	1.6286886
80	0xc0007df9	-2.0076888
81	0x411bc5f9	9.735833
82	0xc101b85b	-8.107509
83	0xbf807fc9	-1.0038997
84	0xc0b06c53	-5.513223
85	0xbee48098	-0.4462936
86	0xbf8e26a4	-1.1105542
87	0xc09f5ff2	-4.980462
88	0x3fdb06d1	1.7111455
89	0x3e6c4971	0.2307489
90	0x3e55e6b5	0.20888789
91	0xbf66e223	-0.9018881
92	0x403cdbb2	2.9509091
93	0x4070afb9	3.7607253
94	0xc08f9f1d	-4.488173
95	0xbf97c19b	-1.1855959
96	0x3fa3e0f4	1.2803025
97	0xbf5dfc6e	-0.867133
98	0xc0d2094f	-6.5636363
99	0x40963cdd	4.6949296
100	0x3feff51c	1.8746676
101	0xbf0ed5f1	-0.557952
102	0x3dc2c48c	0.095101446
103	0xbeafc0af	-0.34326693
104	0x407f18c2	3.985886
105	0xbfa4d332	-1.2876952
106	0x408b0762	4.344651
107	0x3ebb98e4	0.36640084
108	0xc0836c01	-4.106934
109	0x40a720d6	5.2227583
110	0xbf42726b	-0.7595584
111	0x3fe29ea4	1.7704663
112	0xc0363a01	-2.8472903
113	0x3f99a4b3	1.2003387
114	0x403ed135	2.981519
115	0xbfd758c2	-1.6823962
116	0x40356232	2.8341184
117	0xc0b45257	-5.6350513
118	0x3ff114da	1.8834488
119	0x40d36ed0	6.607277
120	0x3fc16d37	1.5111455
121	0xc0a525d2	-5.1608667
122	0xc0384844	-2.8794107
123	0xbd3f9397	-0.046771612
124	0xc033a410	-2.8068886
125	0x3f7d93d5	0.990537
126	0xc0ac537b	-5.3851905
127	0xc082c50a	-4.0865526
128	0x3e124452	0.14283875
129	0x4086f8ae	4.2178564
130	0xc0046971	-2.0689356
131	0xc0de0aac	-6.9388027
132	0xbe773145	-0.24139889
133	0xbf32de2d	-0.69870263
134	0x4033cb64	2.809289
135	0x4089ae57	4.3025317
136	0x4032b552	2.792317
137	0x40e409c8	7.126194
138	0x402bc521	2.6839068
139	0x410c1b1e	8.75662
140	0xc030df4d	-2.7636292
141	0x3f9c96cb	1.2233518
142	0x4082b769	4.084889
143	0x40018343	2.0236366
144	0xc04c0089	-3.1875327
145	0xc0cfae6a	-6.490041
146	0x3e31ba19	0.17356147
147	0xc100f109	-8.058846
148	0xc0d5b228	-6.6779976
149	0xc0203062	-2.502953
150	0xc0531ca4	-3.298623
151	0x3fa3b35a	1.2789109
152	0x3f2e4a84	0.6808245
153	0x3d41ceb4	0.047316268
154	0x4015e5d0	2.3421516
155	0xc0436d41	-3.0535433
156	0xc0322d39	-2.7840102
157	0xc09b7e01	-4.8591313
158	0x404056ba	3.0052934
159	0x40cf89a7	6.4855533
160	0x40c9c4f2	6.305291
161	0x4023aee0	2.5575485
162	0x40226f61	2.538048
163	0x403a8c58	2.914816
164	0xbecb0acc	-0.39656675
165	0xc047833d	-3.1173851
166	0xc03c39d6	-2.94103
167	0xc0e4a384	-7.1449604
168	0xbf04b854	-0.5184376
169	0x40ab28bf	5.348724
170	0x3e78b2b7	0.24286924
171	0x40804725	4.0086846
172	0x4000fd03	2.0154426
173	0xc028e9e7	-2.6392763
174	0x3fa6e16c	1.3037543
175	0x403b183c	2.9233541
176	0x40371359	2.860556
177	0x3f3e9270	0.74442196
178	0xc0943252	-4.6311426
179	0xc0230b21	-2.5475543
180	0xc08065fb	-4.012449
181	0xbfbcddf2	-1.4755232
182	0x3f056746	0.5211071
183	0x3fe16fb6	1.7612216
184	0xc04dbd61	-3.2146838
185	0xc0d75208	-6.7287636
186	0xc0461bfb	-3.0954578
187	0xc14234fb	-12.137935
188	0x3f9dd3e0	1.2330284
189	0x40b89815	5.7685647
190	0x3fd2ac0b	1.6458753
191	0xc0a586f3	-5.1727233
192	0xc0da425b	-6.8206
193	0xc08c305c	-4.3809032
194	0x410653ce	8.39546
195	0xc00f8ff5	-2.2431614
196	0xbff35620	-1.9010658
197	0x40cb8f4e	6.3612432
198	0x41172219	9.445825
199	0xbfa104b2	-1.2579558
200	0x3f3d5693	0.73960227
201	0xbea55a85	-0.32295623
202	0xc0a6c911	-5.2120442
203	0x40021bed	2.0329545
204	0xbf8b3290	-1.0874805
205	0xbf85e09d	-1.0459172
206	0xbf4af92b	-0.7928645
207	0x402d163c	2.704482
208	0x3f98ba6a	1.1931889
209	0x3fd4316e	1.6577585
210	0x4069ec03	3.65503
211	0xc0cf9648	-6.487095
212	0x40291714	2.6420336
213	0xc0701fc6	-3.7519393
214	0x40a1432a	5.0394487
215	0x3dea5588	0.11442095
216	0x405bec2d	3.43629
217	0xbe01cecd	-0.12676544
218	0x3e4a5f84	0.19762999
219	0x3f801e8b	1.0009321
220	0x3ea47f63	0.32128438
221	0xc026eb5b	-2.608115
222	0xc0960df2	-4.6892023
223	0xc08c963f	-4.3933406
224	0x4026503d	2.5986474
225	0xc0a3f54e	-5.1236944
226	0xbf9bf9e3	-1.2185634
227	0xbfb7a5bc	-1.4347453
228	0x40875c3d	4.2300096
229	0x40b52f13	5.6619964
230	0xbf592730	-0.8482542
231	0xbe7ead3d	-0.24870773
232	0xbf412a6d	-0.7545536
233	0x405946b1	3.3949397
234	0x407e62c5	3.9747784
235	0xc0aaa098	-5.3321037
236	0x4003c4c4	2.0588846
237	0x3ccde31f	0.025132714
238	0x3f6cca62	0.9249631
239	0x402a44f8	2.6604595
240	0xc0bbd0fc	-5.869261
241	0xc003ec64	-2.0613031
242	0xbf0875c6	-0.5330471
243	0x402aa360	2.6662216
244	0x407ed039	3.981459
245	0xbf10f1b9	-0.5661884
246	0xbfdc3059	-1.7202255
247	0x406e6c53	3.7253616
248	0x40aaede9	5.341542
249	0xbfd99393	-1.6998161
250	0x3fb737fc	1.431396
251	0x3f2c60ba	0.67335093
252	0xc0e49611	-7.1433187
253	0xbf95b2eb	-1.1695226
254	0xc024ad75	-2.573087
255	0xbf9b53dc	-1.2134967

lstm.bias_ih_l0_reverse f4 [40]
0	0x40d0fb3c	6.5306683
1	0x4074ea49	3.8267996
2	0x404cc131	3.1992915
3	0xbfc326c8	-1.524621
4	0xbfc72555	-1.5558268
5	0x405d615f	3.459068
6	0x4059d729	3.4037573
7	0xc086d9aa	-4.2140703
8	0x40a46ceb	5.1382957
9	0x40ee749b	7.451734
10	0x408f5db7	4.48019
11	0xc0665e34	-3.5994997
12	0xbfea5862	-1.8308222
13	0x3eafe2c2	0.3435269
14	0x407c1a2c	3.9390974
15	0xc053f17b	-3.3116138
16	0x3fd49d42	1.6610491
17	0x400cd8e3	2.2007377
18	0x404e2fe2	3.2216725
19	0xc0a365a1	-5.106156
20	0x3f2a376e	0.6649083
21	0xbe9ff2a9	-0.31239823
22	0xc05ddd40	-3.466629
23	0xbf59b67b	-0.8504407
24	0xc05bdab0	-3.4352226
25	0x40070ca8	2.1101475
26	0xbffcf777	-1.976302
27	0xc046b9ee	-3.1050982
28	0xc093879b	-4.6103034
29	0xbc831a5c	-0.01600378
30	0x408665c4	4.1999226
31	0x408ebf61	4.4608617
32	0x3f9d7ffe	1.2304685
33	0xc058403c	-3.3789206
34	0xbfa50dfc	-1.2894893
35	0x409b5445	4.854037
36	0xc015fb49	-2.3434622
37	0x400c6b19	2.1940367
38	0xc035dbfd	-2.841552
39	0x40e426e1	7.129746

lstm.bias_hh_l0_reverse f4 [40]
0	0x40d61f1a	6.6912966
1	0x4069e0ed	3.6543534
2	0x403fb2dc	2.9952917
3	0xbfb754de	-1.4322774
4	0xbfbbf467	-1.4683961
5	0x404f6734	3.240674
6	0x40583450	3.378193
7	0xc086c651	-4.2117085
8	0x40aa3341	5.3187566
9	0x40e3bfe4	7.117174
10	0x4086acb9	4.2085843
11	0xc05da002	-3.462891
12	0xbfefcaf1	-1.8733808
13	0x3e8aa372	0.27077824
14	0x40581603	3.3763435
15	0xc04ff0ec	-3.2490797
16	0x3fbad475	1.4596087
17	0x4019adc1	2.40123
18	0x40353bb2	2.8317685
19	0xc0a82625	-5.2546563
20	0x3f302b1e	0.6881579
21	0xbdd508ce	-0.1040207
22	0xc07ba725	-3.9320767
23	0xbf8d2c1a	-1.1029084
24	0xc0531a37	-3.298475
25	0x400cc33d	2.1994164
26	0xc00090ea	-2.0088449
27	0xc0443dda	-3.0662751
28	0xc0961a9a	-4.6907473
29	0xbea4dce2	-0.3219977
30	0x4077e80a	3.8735375
31	0x408ff84c	4.4990597
32	0x3f99e358	1.2022505
33	0xc053cc35	-3.3093388
34	0xbfc7f85f	-1.5622672
35	0x409d5a6a	4.917287
36	0xbff18c03	-1.8870853
37	0x3ff6ba6c	1.9275641
38	0xc043a846	-3.0571456
39	0x40e6803d	7.203154

fc1.weight f4 [64, 10]
0	0xbb3f90a7	-0.0029230507
1	0x3df4fdda	0.11962481
2	0xbdf67a1f	-0.120350115
3	0x3b96c315	0.0046008923
4	0x3d5be20b	0.05368237
5	0x3c76f8c1	0.015073956
6	0x3caf60e2	0.021408502
7	0x3c74101e	0.014896421
8	0xbdea1427	-0.11429625
9	0xbc72e866	-0.014825916
10	0x3decd517	0.11564081
11	0x3d345dc6	0.04403474
12	0x3da3cfa8	0.07998592
13	0xbd917161	-0.071017034
14	0xbd98b99b	-0.074572764
15	0x3dc36506	0.09540753
16	0x3e212ec8	0.15740502
17	0x3d84a139	0.06476063
18	0xbe848a51	-0.25886777
19	0xbdce8835	-0.10084573
20	0x3db7aaa3	0.08968093
21	0xbcc06006	-0.023483288
22	0x3dce68d6	0.100785896
23	0xbd557b94	-0.052119806
24	0xbbebeba7	-0.007199723
25	0x3d9c3104	0.076265365
26	0x3e0d9995	0.13828118
27	0x3d902c49	0.07039697
28	0xbe715549	-0.2356769
29	0xbdd5bad5	-0.10436026
30	0xbee9fc4c	-0.457003
31	0x3e77c07c	0.2419452
32	0x3fb0d518	1.3815031
33	0xbf27e67b	-0.6558606
34	0xbf7ce045	-0.9877971
35	0x3d4369c0	0.047708273
36	0x4012514c	2.286212
37	0x3eed03cf	0.46291968
38	0x3e993c8e	0.29929012
39	0x3f19fe3c	0.60153556
40	0x3da12ba2	0.078696504
41	0x3dc5fe3c	0.09667632
42	0xbd5d0332	-0.053958125
43	0xba9de235	-0.0012045564
44	0xbd3309fa	-0.043710686
45	0x3cca4f9f	0.02469617
46	0x3e076724	0.13222939
47	0x3cbd9790	0.02314356
48	0xbd5ad6b0	-0.0534274
49	0xbc907fc0	-0.017639041
50	0x3d209758	0.039206833
51	0xbb0e620a	-0.0021725916
52	0x3d51da86	0.05123379
53	0x3c2f4a7a	0.010698909
54	0xbc5d9a38	-0.013525538
55	0x3cc035db	0.02346318
56	0x3dad27c4	0.0845485
57	0x3d698521	0.057011727
58	0x3bf9002a	0.0075988965
59	0xbd9c81e3	-0.076419614
60	0x3d8a292b	0.067461334
61	0xbc7e7a9f	-0.015532165
62	0x3db46f88	0.088103354
63	0xbc86eff5	-0.016471842
64	0xbdd5eb79	-0.104453035
65	0x3d9573d8	0.07297486
66	0x3dc75c1c	0.09734365
67	0x3c7cac4d	0.015421939
68	0xbe23a23f	-0.1597986
69	0xbd91e250	-0.07123244
70	0x3d7729ee	0.06034272
71	0x3d4c17ed	0.049827505
72	0xbd2f9f75	-0.04287668
73	0xbc6bedac	-0.014399927
74	0xbd96fbde	-0.073722586
75	0x3c4ba043	0.012428346
76	0x3d88d983	0.06682112
77	0xbd17ee15	-0.037092287
78	0xbc98ceed	-0.018653357
79	0x3d04442b	0.032291573
80	0x3d9f440f	0.07776653
81	0x3d408a56	0.047006927
82	0xbcafe8ad	-0.021473253
83	0x3d3b711d	0.04576217
84	0x3bb14051	0.0054092784
85	0xbc0259c5	-0.007955973
86	0x3e06ece0	0.13176298
87	0x3d6b1764	0.057395354
88	0x3c575471	0.013142691
89	0xbcf4ccea	-0.029882867
90	0x3d28fdc5	0.04125764
91	0x3e10e6af	0.14150499
92	0xbdb768d6	-0.08955543
93	0xbd4758a6	-0.048668526
94	0xbbacd26a	-0.0052741067
95	0x3d1e827f	0.03869867
96	0x3d9f4627	0.077770524
97	0x3d31f6ed	0.043448377
98	0xbdcbf72e	-0.09959255
99	0xbd3a3dca	-0.045469083
100	0x3d272d6d	0.040814806
101	0xbd1ef7ed	-0.03881066
102	0x3d01de75	0.031706292
103	0x3d2658e5	0.04061212
104	0xbca247e3	-0.019809669
105	0x3c35f374	0.011105407
106	0x3d95d5f2	0.073161975
107	0x3b39c466	0.0028345822
108	0x3d93f464	0.07224348
109	0xbcd2859a	-0.025698472
110	0x3c8b6c29	0.017019348
111	0xbe0a45fa	-0.13503256
112	0x3e28f790	0.16500688
113	0xbd35f0b8	-0.04441902
114	0xbd825e79	-0.063656755
115	0x3b2dba71	0.0026508833
116	0xbc78d2b2	-0.015186952
117	0x3c931f72	0.01795933
118	0x3de76d4b	0.11300143
119	0xbbb15d42	-0.0054127285
120	0x3f78eae2	0.972334
121	0x3fdc2c22	1.7200968
122	0x3f0004ec	0.5000751
123	0x3fba729d	1.4566227
124	0xbf5057e1	-0.8138409
125	0xbf30f3fa	-0.6912228
126	0x3e263b0a	0.16233459
127	0x406390d0	3.5557137
128	0x3fba1ad7	1.4539441
129	0x3f287c33	0.6581451
130	0xbd8d6bdc	-0.06905338
131	0xbe1ae581	-0.15126611
132	0x3daa1a70	0.08305824
133	0x3d6fa221	0.058504228
134	0x3c3d0c46	0.011538571
135	0xbd7f0eb2	-0.062269874
136	0xbdf33405	-0.11875156
137	0xbd5c542f	-0.05379122
138	0x3e17f84f	0.14840816
139	0x3d70d048	0.058792382
140	0xbd4da274	-0.050203755
141	0x3dec0b21	0.1152556
142	0xbe0de34f	-0.13856243
143	0x3d4b4554	0.049626663
144	0xbd07cb4a	-0.033152856
145	0xbd5f463b	-0.054510336
146	0xbd845ca1	-0.0646298
147	0xbdb42152	-0.08795418
148	0x3da9f2e9	0.082982846
149	0x3dc36e57	0.0954253
150	0x3d7f3c12	0.062313147
151	0x3e14ad0c	0.14519137
152	0xbd9ee2b6	-0.077580854
153	0xbd5266a9	-0.051367436
154	0x3b9df85b	0.004820866
155	0x3d1c16db	0.038107734
156	0x3e057097	0.13031231
157	0x3d98277a	0.074294046
158	0xbd9cdd07	-0.07659345
159	0xbd7c9879	-0.061668847
160	0x3c911791	0.017711433
161	0xbe08db31	-0.13364865
162	0x3e001f83	0.12512021
163	0x3be1c096	0.006889413
164	0x3c024c08	0.007952698
165	0xbce072b1	-0.02739844
166	0xbcb46cd5	-0.022024551
167	0x39da4c7a	0.0004163718
168	0x3d7c78b6	0.061638556
169	0x3bfd0f3c	0.0077227633
170	0xbd587ea9	-0.052855168
171	0x3deb0012	0.11474623
172	0xbe166967	-0.14688645
173	0x3d8519ed	0.064990856
174	0xbcd8e0d8	-0.026474401
175	0xbd5f788c	-0.05455832
176	0xbd82eda6	-0.06392984
177	0xbdc1870a	-0.09449585
178	0x3d9337cd	0.071883775
179	0x3dc9823c	0.09839293
180	0x3d5f4781	0.05451155
181	0xbd4ee35d	-0.0505098
182	0x3d9bd2b7	0.0760855
183	0xbc000174	-0.007812846
184	0xbde7d6b9	-0.11320252
185	0x3d9c38b6	0.07628004
186	0x3d961649	0.07328469
187	0xbd0cab6a	-0.03434316
188	0xbdc4936c	-0.09598431
189	0xbd36f66c	-0.0446686
190	0x3de52138	0.111879766
191	0x3e11ee06	0.14250955
192	0xbd0ac0b2	-0.033875175
193	0xbd6d5a6d	-0.057947565
194	0xbd9a329e	-0.07529186
195	0x3d959cbe	0.07305287
196	0x3e399b3f	0.18125628
197	0x3d9a3b52	0.07530846
198	0xbe2bc466	-0.16774139
199	0xbd831835	-0.064011015
200	0x3d9426d2	0.07233967
201	0x3e17ade3	0.14812426
202	0xbdad7cf9	-0.08471102
203	0xbd74dffd	-0.059783924
204	0xbd1ce447	-0.03830364
205	0x3d7d2659	0.06180415
206	0x3dd15463	0.102211736
207	0x3d09d301	0.033648495
208	0xbe0bb2d0	-0.1364243
209	0xbd3497b2	-0.04408998
210	0xbc53db72	-0.012930738
211	0xbd4c6e6e	-0.04991
212	0x3d8005c3	0.06251099
213	0xbd04561a	-0.032308675
214	0x3c3fe7b5	0.011712958
215	0x3cabaa3e	0.020955201
216	0xbd83960a	-0.06425102
217	0xbcb662c5	-0.022263894
218	0x3d1b9fb8	0.037994117
219	0xbd2e5072	-0.042557187
220	0xbbc0a3c1	-0.005878896
221	0xbc5b8ad4	-0.013399798
222	0x3d747b9d	0.0596882
223	0xbd1006bd	-0.035162676
224	0xbca1288a	-0.01967265
225	0x3cf2c068	0.029632762
226	0xbc6b79e8	-0.014372326
227	0x3c2939ff	0.010328769
228	0x3cc0efa0	0.023551762
229	0xbd80598a	-0.06267078
230	0xbdaefde7	-0.08544522
231	0xbdb6cdf5	-0.08926002
232	0xbca4d83e	-0.020122644
233	0x3da0a5da	0.07844134
234	0x3e085675	0.1331423
235	0xbdd0c32f	-0.10193478
236	0xbe43625b	-0.19080488
237	0xbd952fff	-0.07284545
238	0x3dad9b80	0.08476925
239	0x3ddff2a7	0.10934954
240	0x3d2aba1b	0.04168139
241	0xbdec67b8	-0.1154322
242	0x3e052643	0.13002877
243	0xbd179e7e	-0.037016384
244	0x3d6bf00e	0.05760198
245	0x3cef3584	0.029200323
246	0x3d1a1a85	0.037622947
247	0x3dac2f27	0.08407431
248	0xbd1e1e93	-0.038603377
249	0xbd919300	-0.07108116
250	0x3d5af694	0.05345781
251	0xbde2f40d	-0.11081705
252	0x3e0549e9	0.13016476
253	0xbd53db98	-0.051723093
254	0x3d690f02	0.05689908
255	0x3d1a38ad	0.037651706

fc1.bias f4 [64]
0	0xbdb2845a	-0.0871665
1	0x3e0e9393	0.13923483
2	0x3d93da91	0.072194226
3	0xbe982994	-0.29719222
4	0x3d0494f2	0.032368608
5	0x3da5876b	0.080824696
6	0x3e0d5a5a	0.13803998
7	0x3d15a578	0.036534756
8	0x3d13a4b0	0.03604573
9	0xbd595317	-0.053057756
10	0x3db8ac44	0.09017232
11	0x3d93d1c5	0.07217745
12	0xbe9bf67f	-0.304615
13	0x3c96fb9d	0.018430525
14	0xbd373b80	-0.044734478
15	0xbc66524a	-0.014057705
16	0x3dc554bb	0.09635302
17	0xbd2c145a	-0.042011596
18	0x3e0653f8	0.13117969
19	0x3d5afda2	0.05346454
20	0xbbdeda93	-0.0068009584
21	0x3d12577a	0.035727955
22	0x3d5ff783	0.054679405
23	0xbdd95b36	-0.106131
24	0x3cf20483	0.029543167
25	0x3ca1e043	0.019760257
26	0xbb11043d	-0.002212777
27	0xbd96f36c	-0.07370648
28	0x3da29059	0.079376884
29	0x3c881602	0.016612057
30	0xbd64a775	-0.055823762
31	0x3dc77605	0.09739307
32	0xbd14a973	-0.036294412
33	0xbd877771	-0.066145785
34	0x3d45caa4	0.048288956
35	0xbdc89d4f	-0.09795629
36	0xbe49f9e9	-0.1972424
37	0x3e03203b	0.12805264
38	0x3d4c7244	0.04991366
39	0xbd841eee	-0.06451212
40	0xbcfd7050	-0.030937344
41	0x3dee96ff	0.11649894
42	0xbd801d86	-0.06255631
43	0xbd903431	-0.07041205
44	0xbdc6b4f8	-0.09702486
45	0xbdef1353	-0.11673608
46	0x3cd0fbe8	0.025510743
47	0xbd409407	-0.04701617
48	0x3d5b8a01	0.053598408
49	0xbd9215c8	-0.07133061
50	0xbc2d4188	-0.010574706
51	0x3d2fbc29	0.042904053
52	0x3ce9fdf9	0.028563486
53	0x3f7abce3	0.9794447
54	0x3dd7a632	0.10529746
55	0x3dc630b4	0.09677258
56	0x3d47ec7d	0.048809517
57	0x3c0255f6	0.007955065
58	0x3dd351da	0.10318346
59	0x3d1b5c3f	0.03792977
60	0xbd7fc1f7	-0.06244084
61	0xbc43773c	-0.011930283
62	0x3d34e232	0.04416103
63	0x3db4f30e	0.088354215

fc.weight f4 [5, 64]
0	0xbd5ad07a	-0.053421475
1	0x3db92b9e	0.090415224
2	0x3ccb6676	0.02482913
3	0xbe0acd31	-0.13554837
4	0x3c76214b	0.015022586
5	0x3c2ad5b9	0.010426932
6	0x3db67d92	0.089106694
7	0x3d19a465	0.037510294
8	0x3ae0caa7	0.0017150239
9	0xbc5b5e67	-0.0133892065
10	0x3c2edc38	0.010672621
11	0x3d7e9f5d	0.0621637
12	0xbf8e15a8	-1.1100359
13	0x3b02157c	0.0019849231
14	0xbca42278	-0.020035967
15	0x3afd8200	0.0019341111
16	0x3d1d663a	0.03842757
17	0xbcd1578c	-0.02555444
18	0x3daa91cf	0.08328592
19	0x3d57fc0c	0.052730605
20	0x3c819e21	0.015822472
21	0xbad37df6	-0.0016135562
22	0x3c5ebf15	0.013595362
23	0xbdb36720	-0.08759904
24	0x3c74191d	0.014898566
25	0x3c734fea	0.014850596
26	0xbc9faccc	-0.019491576
27	0x3eaa7545	0.33292595
28	0x3ca88b42	0.020574216
29	0x3c210df9	0.0098299915
30	0xbcd8471b	-0.026401093
31	0x3d05ab28	0.03263393
32	0xbca74c9a	-0.020422269
33	0xbd13f346	-0.036120676
34	0xbc3927be	-0.011300979
35	0xbd1cbca4	-0.03826584
36	0xbf822c31	-1.0169736
37	0x3d929d3f	0.071588986
38	0x3d22acd5	0.039715607
39	0xbd830c63	-0.06398847
40	0x3c5d57b8	0.013509683
41	0x3d7d1c90	0.061794817
42	0xbd8956a6	-0.0670598
43	0xbd34bc0a	-0.04412464
44	0xbd8520dc	-0.06500408
45	0xbd8d8471	-0.06910027
46	0xbba35785	-0.0049847984
47	0xbc842b2e	-0.01613387
48	0x3c9d27f9	0.0191841
49	0xbb43c28b	-0.0029870595
50	0xbb1e3c90	-0.0024144985
51	0x3d09d94e	0.033654504
52	0x3cf59f33	0.029983139
53	0x3f96a848	1.1770105
54	0x3d608b33	0.05482025
55	0x3d83f110	0.064424634
56	0x3d3dff27	0.04638591
57	0x3cf19136	0.029488187
58	0x3d6edf16	0.05831822
59	0x3bc102c4	0.0058902223
60	0xbd7a431c	-0.061099157
61	0x3c7b599c	0.015341189
62	0xba8d0640	-0.0010759309
63	0x3d213446	0.039356492
64	0x3cde7119	0.027153539
65	0x3d2da719	0.042395685
66	0x3d240eb6	0.040053092
67	0xbeb3a253	-0.3508478
68	0x3cf1454b	0.029451987
69	0x3cc7e042	0.024398927
70	0x3d0098db	0.031395774
71	0x3c1352f6	0.008991947
72	0x3cc8d520	0.024515688
73	0x3cd28e47	0.025702609
74	0x3c9cc5b5	0.019137243
75	0xbd21f8ad	-0.039543796
76	0x3ed11b93	0.4084135
77	0xbd15d847	-0.03658321
78	0xbb988598	-0.0046545975
79	0x3d01a3bc	0.03165029
80	0xbca76aab	-0.020436605
81	0xb9359d46	-0.00017320094
82	0x3ce80a23	0.028325146
83	0x3d20901f	0.039199945
84	0x3cfa368e	0.030543592
85	0xbbe1cbea	-0.0068907635
86	0x3bc155f1	0.0059001376
87	0xbd339062	-0.043838866
88	0xbbc9c948	-0.006158028
89	0xbbc1615e	-0.0059014997
90	0xbc5ab585	-0.013348942
91	0xbeb5ec64	-0.35531914
92	0x3c1ca17b	0.009559984
93	0x3bc9f575	0.006163294
94	0xbc06ad58	-0.008220039
95	0x3c8f9154	0.017525353
96	0x3c490bde	0.012270896
97	0x3d4222fa	0.047396637
98	0x3b6b83e3	0.0035936765
99	0xbc92aa5d	-0.017903501
100	0xbe9d4905	-0.30719772
101	0x3d2036b9	0.039114688
102	0xbbc4d62e	-0.0060069775
103	0xbd2b21a2	-0.04178012
104	0xbc554137	-0.013016037
105	0x3d3157b1	0.04329652
106	0x3d2dcc5d	0.042431224
107	0x3d4841ea	0.048890986
108	0xbcdd62d0	-0.027024657
109	0xbd2c5115	-0.042069513
110	0x3c54e1fd	0.012993333
111	0x3c0352b9	0.008015328
112	0x3cdcdaca	0.026959796
113	0xbc4f7623	-0.012662443
114	0x3c8e2b57	0.01735465
115	0xbcf011b9	-0.029305326
116	0xb8a81494	-8.014697e-05
117	0x3f0b7b38	0.5448489
118	0x3cdf9ff2	0.027297948
119	0xbc6de517	-0.014519951
120	0x3ce3642e	0.02775773
121	0x3cdc7d51	0.026915224
122	0x3d1f2bef	0.038860258
123	0xbc3395e8	-0.010961033
124	0xbd32621f	-0.043550607
125	0x3b292532	0.0025809524
126	0x3d1d4d92	0.038404055
127	0x3d1c76d5	0.038199265
128	0xbca58403	-0.02020455
129	0xbd9c0df2	-0.07619847
130	0xbd8af73e	-0.06785439
131	0x3ed8ffeb	0.4238275
132	0xbcf0759a	-0.029352952
133	0xbd4963dd	-0.049167503
134	0xbd8358c7	-0.06413417
135	0xb9881f32	-0.00025963184
136	0xbcc4b62e	-0.024012651
137	0xbcfdbd64	-0.030974098
138	0xbcbf7fbe	-0.023376342
139	0x3ca2a7c6	0.019855391
140	0x3efd674a	0.49492866
141	0x3d3d62da	0.04623685
142	0x3d150c08	0.036388427
143	0xbd32825b	-0.043581348
144	0x3bbef0bf	0.005827039
145	0x3d13ad4b	0.036053937
146	0xbd2e8954	-0.042611435
147	0xbd7d8a8e	-0.061899714
148	0xbd1f33ea	-0.03886787
149	0xbc8e065a	-0.017337013
150	0xbd0d3256	-0.034471832
151	0x3da3a9ce	0.07991372
152	0xbcae2ecc	-0.021262549
153	0xbcc7bf12	-0.024383102
154	0x3b8cb36a	0.0042938488
155	0xbe9b01e3	-0.30274877
156	0xbd4af5c5	-0.04955079
157	0xbd274311	-0.040835444
158	0x3d30a860	0.043129325
159	0xbd550a1a	-0.052011587
160	0xbc877a3c	-0.016537778
161	0xbd3d5c5e	-0.046230666
162	0xbcab43ec	-0.020906411
163	0x3d676185	0.056489486
164	0xc0051086	-2.0791335
165	0xbda7907e	-0.081818566
166	0xbd059f1b	-0.032622438
167	0x3d754b04	0.059885994
168	0x3d24431c	0.040103063
169	0xbd946ddc	-0.072475165
170	0xbcbdaa5e	-0.023152526
171	0xbd2a321b	-0.04155169
172	0x3d97dc55	0.07415072
173	0x3d9c1794	0.07621685
174	0xbc2b9211	-0.010471837
175	0x3c8a1155	0.016853968
176	0xbd732614	-0.059362486
177	0x3ca8d5a6	0.020609688
178	0xbba99093	-0.0051747053
179	0x3b6868e4	0.003546291
180	0xbc46622c	-0.012108367
181	0xbf30e90f	-0.6910562
182	0xbd3d79e4	-0.046258822
183	0xbbc3b57a	-0.0059725614
184	0xbd353b70	-0.044246137
185	0xbd16a7a8	-0.036780983
186	0xbda405b1	-0.08008898
187	0x3c421de3	0.011847946
188	0x3d7dca76	0.06196066
189	0x3ca1dcf7	0.019758685
190	0xbcfc1a37	-0.030774219
191	0xbd937569	-0.072001286
192	0x3ac30a6b	0.0014880424
193	0x3dc0410e	0.09387408
194	0x3d4c16fc	0.049826607
195	0xbf4a635f	-0.7905788
196	0x3d1d2cb6	0.038372718
197	0x3c9dc567	0.019259168
198	0x3d91941e	0.07108329
199	0x3d4557d1	0.04817945
200	0x3c057202	0.008144857
201	0x3cb12849	0.021625655
202	0x3cb63e40	0.02224648
203	0xbbfb4278	-0.007667836
204	0xbebfc09a	-0.3745163
205	0xbd0c224c	-0.034212396
206	0x3c8eab0c	0.017415546
207	0x3c97017d	0.018433327
208	0xbc801a72	-0.01563761
209	0x3c8fe147	0.017563475
210	0x3d9e2ae0	0.077230215
211	0x3d58ff3b	0.05297778
212	0x3d3cd84f	0.046104725
213	0x3c3020b5	0.010749985
214	0x3ca9d724	0.02073247
215	0xbd9e0402	-0.07715608
216	0xbd22a00e	-0.03970342
217	0xbd1e5efb	-0.0386648
218	0xbc5a6510	-0.013329759
219	0x3dcff79f	0.10154652
220	0xbc5ebfbb	-0.013595517
221	0xbc2a538c	-0.010395896
222	0x3c39fa95	0.011351247
223	0x3cf4fa10	0.029904395
224	0xbd0a03ce	-0.033695035
225	0xbb62f4a8	-0.003463069
226	0x3b8d636d	0.004314831
227	0xbccbe8b3	-0.024891233
228	0xbe4dd9b4	-0.20102578
229	0x3db3f25d	0.087864615
230	0xbccc8d96	-0.024969857
231	0xbd8f9cf6	-0.0701236
232	0x3d0a3e60	0.03375089
233	0x3d9a6ec8	0.07540661
234	0x3c98ea3f	0.018666385
235	0xbbdd4f8e	-0.0067538684
236	0xbd656bda	-0.05601106
237	0xbd9e87ff	-0.07740783
238	0x3cafb0a1	0.021446528
239	0x3d1b727c	0.037950978
240	0x3ceeb1d7	0.029137535
241	0xbc34aac1	-0.011027039
242	0x3c1ab217	0.009441874
243	0xbd0d1676	-0.03444525
244	0x3c0b6583	0.008508089
245	0xbef17df9	-0.47166422
246	0x3d5b3d0c	0.053525016
247	0x3d409642	0.047018297
248	0x3d2f56dd	0.04280745
249	0x3d4975aa	0.04918448
250	0x3d6f9d07	0.058499362
251	0xbc93000f	-0.017944364
252	0xbd8edcc9	-0.06975705
253	0x3ccd5a06	0.02506734
254	0x3d254e61	0.04035795
255	0x3d743523	0.059620988

fc.bias f4 [5]
0	0x40216f83	2.5224311
1	0x3fece451	1.8507177
2	0x405f0554	3.4847002
3	0x3fe054b1	1.7525846
4	0x3fbcb38a	1.4742291
