staticfiles/equi_weights/lstm_surgery.pt (torch, 21584 bytes, 20 tensors)

cnn.weight f4 [1, 1, 2]
-1.2266183 0.78647316
00000000: d401 9dbf 4e56 493f

lstm.weight_ih_l0 f4 [40, 1]
0.3661622 -0.23207428 -0.8305119 1.0600526 0.9628858 1.6315283 1.1623214 0.20455
-2.357416 0.38585937 -2.078372 -1.1811016 1.40585 -0.33345568 -1.0823326 -1.4352788
0.405731 -1.6446053 -0.05548288 -0.49942657 -0.72876024 1.8530706 1.5562046 4.031792
-1.4021837 -0.4448809 -2.4001522 -0.53082806 -0.7345842 -0.9064828 1.0261356 -2.7764006
-0.9082493 1.6229057 -0.40722603 0.6028232 0.104403265 2.1004884 -1.9834034 -0.39579913
00000000: 9d79 bb3e e1a4 6dbe 6e9c 54bf ceaf 873f
00000010: af7f 763f ebd5 d03f f3c6 943f 8e75 513e
00000020: e7df 16c0 5c8f c53e 0c04 05c0 562e 97bf
00000030: e5f2 b33f b4ba aabe e089 8abf 37b7 b7bf
00000040: f9bb cf3e 6d82 d2bf 0442 63bd d7b4 ffbe
00000050: 0890 3abf 6b31 ed3f b631 c73f 7104 8140
00000060: c17a b3bf 6ec7 e3be 189c 19c0 59e4 07bf
00000070: b60d 3cbf 420f 68bf 6958 833f 8cb0 31c0
00000080: 0783 68bf 60bb cf3f ee7f d0be 9f52 1a3f
00000090: 61d1 d53d 676e 0640 2ae0 fdbf 2fa6 cabe

lstm.weight_hh_l0 f4 [40, 10]
-0.84636146 1.9601256 1.8464408 1.6384577 -0.6214111 0.044851407 -1.9828318 0.22273234
0.24474074 -1.1691579 0.19251585 -1.4372693 -0.20703991 0.042149745 0.33080378 -1.3628527
1.0692985 -0.78489065 1.5786592 0.13366412 -0.21326141 -0.27902347 -2.2152505 -1.4162937
2.4325233 -0.4307584 -1.1220028 -1.7891695 2.06767 0.9016042 -0.075379476 2.424917
2.086022 2.4297037 -1.0562981 3.297667 -1.6625695 -0.27319568 -0.16455151 -1.0736276
1.6455784 -0.9292667 -0.71830815 0.84863055 -0.4563302 -2.575442 -2.108201 -0.92224866
-0.8703351 -0.47811157 0.54515266 0.4359547 -1.8402889 1.7794663 -0.44136935 -1.572998
-0.405733 -0.21914288 0.6463478 -3.3293724 -0.59492236 0.9191245 0.8686856 0.68114
-0.95345676 0.79142714 -0.8963593 1.5415013 0.43391493 -0.46981886 -0.2096748 4.1301208
0.9376434 2.574243 -0.190056 -2.553687 -1.2260114 -1.9476742 -2.2640996 1.1884708
-0.7777786 -1.900142 -1.4065747 -0.5811942 0.6545618 0.4120499 0.35757163 1.323625
0.30746585 0.9457605 1.1713781 0.11739122 -0.80336773 -0.42480364 1.7587987 -0.57954293
-0.00761504 -2.1676698 -4.0338683 2.4208198 -0.019368991 0.05864523 2.0959244 -0.113062
0.88816774 1.6707503 -1.0729803 -0.58981 -1.0143865 -0.6432234 -3.582335 1.5473076
2.2567391 1.5897659 -2.163531 0.21818607 -2.199948 -0.3605076 0.74306476 -1.6149067
-0.17870055 -1.5478714 -0.78918606 0.24268422 -1.0542428 0.12805188 0.40199402 2.340824
1.4791468 -2.4067996 -0.87709075 -4.728103 -0.74857223 -1.1953903 0.5893457 -0.7198005
-1.2396603 -2.7367554 1.4448547 0.5362264 0.058302537 0.49028108 -0.6909614 -0.33563915
-0.011510493 0.33697402 0.2508259 0.70262724 2.102363 -2.6948059 0.6881207 1.8333174
-0.23131673 -0.18252118 0.92434597 1.4347994 1.560011 2.229994 -2.328212 -1.4179119
-1.3751401 0.75247246 2.678315 2.8664007 -1.4646498 -0.33247826 -1.3281368 -3.8763313
-1.7452254 -0.19387177 0.18130696 0.5926227 -0.42064413 3.0800595 1.9509588 -0.060664833
2.748472 1.708497 -0.682765 2.0375214 -0.419704 -0.42301905 0.94914293 -2.5772946
1.8162123 1.5566505 0.53194666 -2.824245 -2.047133 0.2095104 -4.6451654 -0.26241532
-2.1152632 1.1451291 -1.3556345 1.0313959 -3.75754 0.5549311 -0.41792962 -0.031123439
-2.159022 0.09421082 0.80403376 0.8419027 0.14551133 0.16421321 -0.40414643 2.657361
0.57403904 -2.6695633 -1.8815022 -2.1310315 -2.331797 -0.51087517 -0.15024045 1.6313431
1.6531037 -0.09243009 -1.7993287 1.6582731 -1.4759002 -1.1574169 -1.69007 0.8965721
-0.3673786 -0.90429664 -1.8446596 -0.4574302 -1.3540331 -0.68225014 -0.9567708 1.5131484
-0.8028646 -1.1726788 1.0584024 1.5713058 -1.2664164 2.533026 0.46079502 0.64165354
-1.2616078 -1.6522039 -0.30237526 4.5344315 0.020690434 -0.55849814 0.028495181 2.6498234
-2.2434402 -0.7573569 0.8574068 -2.1099267 -1.2568903 -1.5307609 3.2046604 -0.47752017
00000000: 25ab 58bf 65e5 fa3f 2c58 ec3f fbb8 d13f
00000010: cc14 1fbf 1cb6 373d 6fcd fdbf f213 643e
00000020: 519d 7a3e f7a6 95bf e022 453e 71f8 b7bf
00000030: 4502 54be 36a5 2c3d 1d5f a93e f571 aebf
00000040: c6de 883f 98ee 48bf 8111 ca3f 3fdf 083e
00000050: 3361 5abe 2adc 8ebe aac6 0dc0 1d49 b5bf
00000060: 76ae 1b40 5d8c dcbe ca9d 8fbf 8203 e5bf
00000070: b554 0440 88cf 663f 8e60 9abd d731 1b40
00000080: 6281 0540 4480 1b40 c734 87bf fa0c 5340
00000090: 14cf d4bf 4ee0 8bbe 3180 28be a16c 89bf
000000a0: 50a2 d23f 6ce4 6dbf 0be3 37bf da3f 593f
000000b0: 1da4 e9be 0bd4 24c0 c4ec 06c0 7d18 6cbf
000000c0: 48ce 5ebf 0acb f4be 208f 0b3f 7435 df3e
000000d0: 968e ebbf 8dc5 e33f 2afb e1be 0058 c9bf
000000e0: 3cbc cfbe fe66 60be 0d77 253f 7014 55c0
000000f0: d54c 18bf be4b 6b3f 2e62 5e3f 315f 2e3f
00000100: be15 74bf f89a 4a3f ce77 65bf ea4f c53f
00000110: 192a de3e 198c f0be feb4 56be f329 8440
00000120: 6609 703f 66c0 2440 0a9e 42be 9c6f 23c0
00000130: f1ed 9cbf 634d f9bf 02e7 10c0 d01f 983f
00000140: 801c 47bf da37 f3bf a40a b4bf 25c9 14bf
00000150: 5d91 273f 34f8 d23e a113 b73e 8b6c a93f
00000160: 2a6c 9d3e 5c1d 723f b8ef 953f cf6a f03d
00000170: 82a9 4dbf dd7f d9be 5120 e13f ed5c 14bf
00000180: 9687 f9bb 1abb 0ac0 7315 81c0 b6ee 1a40
00000190: b8ab 9ebc fb35 703d a023 0640 0d8d e7bd
000001a0: f65e 633f 25db d53f 6b57 89bf cafd 16bf
000001b0: 6bd7 81bf 4aaa 24bf fa44 65c0 2d0e c63f
000001c0: 6a6e 1040 737d cb3f 4b77 0ac0 2b6c 5f3e
000001d0: f3cb 0cc0 7494 b8be 7e39 3e3f 43b5 cebf
000001e0: 47fd 36be a620 c6bf 1908 4abf 3682 783e
000001f0: 6ef1 86bf 0820 033e 29d2 cd3e 0fd0 1540
00000200: af54 bd3f 0109 1ac0 0589 60bf 9f4c 97c0
00000210: 6ea2 3fbf 8d02 99bf 5cdf 163f d844 38bf
00000220: 30ad 9ebf 0027 2fc0 00f1 b83f 2246 093f
00000230: a4ce 6e3d 1f06 fb3e d9e2 30bf e5d8 abbe
00000240: 8296 3cbc dc87 ac3e 416c 803e 61df 333f
00000250: 1e8d 0640 b377 2cc0 ae28 303f 25aa ea3f
00000260: 4bde 6cbe d5e6 3abe f0a1 6c3f 82a7 b73f
00000270: 71ae c73f 39b8 0e40 6d01 15c0 237e b5bf
00000280: 9704 b0bf 09a2 403f 8369 2b40 1c73 3740
00000290: a579 bbbf 973a aabe 6300 aabf d015 78c0
000002a0: 8c63 dfbf 5286 46be 88a8 393e 1fb6 173f
000002b0: ab5e d7be b21f 4540 05b9 f93f b07b 78bd
000002c0: f7e6 2f40 08b0 da3f b0c9 2ebf c066 0240
000002d0: 71e3 d6be f495 d8be 08fb 723f 65f2 24c0
000002e0: a579 e83f 5340 c73f a82d 083f 6ec0 34c0
000002f0: 3a04 03c0 e589 563e 32a5 94c0 4d5b 86be
00000300: 7960 07c0 9793 923f 6e85 adbf c804 843f
00000310: 897b 70c0 f70f 0e3f dffa d5be 95f6 febc
00000320: 6b2d 0ac0 9af1 c03d 28d5 4d3f ef86 573f
00000330: ec00 153e 8227 283e 48ec cebe 3412 2a40
00000340: 39f4 123f 20da 2ac0 10d5 f0bf d262 08c0
00000350: 293c 15c0 b7c8 02bf a2d8 19be dacf d03f
00000360: e798 d33f fd4b bdbd 6750 e6bf 4b42 d43f
00000370: 4cea bcbf 3d26 94bf 3754 d8bf c085 653f
00000380: 0c19 bcbe fc7f 67bf ce1d ecbf 4b34 eabe
00000390: f550 adbf f2a7 2ebf eeee 74bf d9ae c13f
000003a0: 8988 4dbf 571a 96bf bb79 873f 8c20 c93f
000003b0: ef19 a2bf 191d 2240 53ed eb3e 6843 243f
000003c0: 5d7c a1bf 6b7b d3bf eed0 9abe 101a 9140
000003d0: fc7e a93c bcf9 0ebf ba6e e93c b596 2940
000003e0: 8694 0fc0 24e2 41bf 037f 5b3f 0a09 07c0
000003f0: c8e1 a0bf f9ef c3bf 2819 4d40 867d f4be

lstm.bias_ih_l0 f4 [40]
-0.31666282 2.8495848 1.539401 0.17754595 -0.035796423 -0.44623524 1.1125828 -0.37742326
-0.5801183 -0.6593835 -1.5346256 -1.3369879 0.041536197 1.1087135 -0.362075 -0.40456828
1.2066015 1.4536129 -0.61386395 0.06624564 0.723508 0.07009563 0.7357875 0.6079937
0.26826555 -0.977805 0.48968342 0.41983947 -1.5005181 0.9234691 -0.053840168 0.563291
1.4825382 0.70280266 0.04988992 -0.15756738 0.10140273 1.6206135 -0.79650253 0.8848427
00000000: a121 a2be 995f 3640 180b c53f 9bce 353e
00000010: 459f 12bd f278 e4be 1d69 8e3f 9f3d c1be
00000020: a282 14bf 5bcd 28bf 9d6e c4bf 6b22 abbf
00000030: dc21 2a3d 53ea 8d3f e561 b9be 9323 cfbe
00000040: eb71 9a3f fd0f ba3f 3026 1dbf cbab 873d
00000050: d237 393f 4c8e 8f3d 925c 3c3f 7aa5 1b3f
00000060: 1a5a 893e 6e51 7abf c9b7 fa3e 33f5 d63e
00000070: fa10 c0bf 7968 6c3f 8287 5cbd d733 103f
00000080: d0c3 bd3f e0ea 333f 5f59 4c3d 5859 21be
00000090: 3cac cf3d 4370 cf3f 97e7 4bbf 0d85 623f

lstm.bias_hh_l0 f4 [40]
-0.47358233 2.821853 1.596719 0.13476212 -0.035531998 -0.46371865 1.3684524 -0.3781702
-0.36127034 -0.560743 -1.7895567 -0.73280805 -0.36351612 0.99065 -0.25741914 -0.33847198
1.7065982 1.3169773 -0.025406996 0.2587961 0.34391618 -0.051381595 1.0716516 0.84389645
0.13663684 -1.2907307 0.24457674 0.46172473 -1.6195472 0.9925178 -0.1237893 0.890867
1.6766872 0.76747805 0.06713175 -0.23721129 0.045269974 1.4192934 -0.554761 0.6867492
00000000: 6279 f2be 3d99 3440 4a61 cc3f 15ff 093e
00000010: 008a 11bd 886c edbe 7329 af3f 869f c1be
00000020: 6df8 b8be da8c 0fbf 3210 e5bf 4f99 3bbf
00000030: c91e babe 3d9b 7d3f 71cc 83be 334c adbe
00000040: cf71 da3f b692 a83f 5522 d0bc ec80 843e
00000050: c815 b03e 8275 52bd e12b 893f 9909 583f
00000060: 87ea 0b3e aa36 a5bf 5372 7a3e 2f67 ec3e
00000070: 534d cfbf a615 7e3f 3f85 fdbd dc0f 643f
00000080: b09d d63f 7179 443f 5f7c 893d 84e7 72be
00000090: 026d 393d 68ab b53f d104 0ebf ccce 2f3f

lstm.weight_ih_l0_reverse f4 [40, 1]
-0.7021775 1.8863279 -0.18668684 1.2304777 -0.72134537 0.46483943 -0.0047654165 -2.042503
0.90044945 0.49347353 1.8043694 1.3522424 1.4887732 -0.9874773 1.7506925 0.9645026
-0.04203886 1.3120459 -1.8340256 -1.1137897 0.45953977 -0.94045275 -2.0681207 -1.3287752
-1.0716145 -1.0410198 1.5529995 1.0786732 -1.3227993 -0.5472745 0.8519984 0.51925826
0.34389636 -1.2930628 1.3635283 0.7992308 -0.6174166 0.26381764 -0.20491597 -1.34805
00000000: e8c1 33bf 3173 f13f d62a 3fbe 4b80 9d3f
00000010: 17aa 38bf 6fff ed3e 3627 9cbb 5fb8 02c0
00000020: db83 663f 90a8 fc3e 94f5 e63f 4716 ad3f
00000030: 1f90 be3f 50cb 7cbf b116 e03f a4e9 763f
00000040: f130 2cbd 1ff1 a73f 5ac1 eabf a990 8ebf
00000050: cc48 eb3e 83c1 70bf 175c 04c0 4e15 aabf
00000060: aa2a 89bf 2340 85bf b0c8 c63f f711 8a3f
00000070: 7d51 a9bf 2e1a 0cbf 911c 5a3f 1cee 043f
00000080: 2f13 b03e 1583 a5bf 1888 ae3f 649a 4c3f
00000090: 040f 1ebf 1b13 873e 7ed5 51be e78c acbf

lstm.weight_hh_l0_reverse f4 [40, 10]
-0.8094434 0.6141288 -0.83150357 -1.9754237 2.3025873 -0.7571775 1.7540367 2.639316
-1.0696558 -1.0737387 2.139689 0.0058486485 0.084533826 0.898467 -1.205075 -2.1049104
-0.39332378 -0.9536876 -0.9510144 -0.7745666 -0.23122478 0.24592976 0.44767582 -1.137786
-1.5350223 -1.6321067 1.3321116 -0.39060682 -1.1266652 1.576477 0.70748866 -2.8548093
0.7877371 0.0442462 -1.202937 0.0344376 -0.05286233 -2.3556342 1.1646714 -1.130153
-2.1354282 2.4672763 0.35235715 -1.0182073 0.35328025 0.57882583 1.631152 1.5870639
-1.6438588 1.0107534 2.1182983 0.02668264 -0.6207641 -2.3833945 -3.9221144 -2.7967691
-0.4604928 0.33968496 0.48475116 0.16289815 -0.97872895 0.41659528 1.7620921 -1.1514719
-0.031349022 -0.8168872 0.28138027 0.2252372 -1.2108983 1.7073925 -0.5991461 1.0270241
-0.9930018 -0.0021192573 -2.3971465 -1.3499708 0.44020477 -1.1384084 1.4139556 1.1881148
0.29001322 -1.8673093 1.1743345 1.4112189 0.29818448 1.6168183 -0.03374625 2.5505598
0.70135856 -0.10505117 -1.9850521 -1.5227504 -0.39054364 0.06890445 3.0447536 -2.8857675
2.1470964 3.1118767 0.55248797 -0.5903539 -0.16834877 -2.5415235 -0.9317282 0.9920132
1.9805934 -1.8266312 0.9235193 0.9554612 -0.32224303 -0.0875342 -0.1623282 0.017169667
1.8381513 4.477451 1.5428948 0.41148558 -0.6472278 1.1023284 4.0357876 1.8125633
0.6721643 -0.6683422 -1.2156392 1.4194726 0.4168123 -0.14912465 -1.1425519 -0.15173836
0.39546594 -2.5275664 -3.2288432 1.0380814 0.3869705 -0.97095966 2.6875808 -0.14943579
0.58419824 -2.0247617 -1.1540992 -1.9774342 0.9403876 1.609872 -0.821127 -1.34258
0.31403175 0.44044507 0.5285539 0.65065676 -1.8106034 2.4133227 1.7142725 -0.3989681
-1.8340183 -0.993812 -1.4767638 -1.5124842 1.4414427 1.3250936 1.394888 2.605724
-2.2307146 2.5204766 -0.23504718 -0.4049597 2.4107034 0.3150744 -0.89756733 -0.39893946
-3.4248292 -3.9647384 -0.7235209 -0.27099085 -0.08378525 5.4277935 2.729942 -0.544571
-0.0867586 -0.8024809 1.1065961 -2.135449 0.04720022 -0.5816281 1.6546094 0.98263943
1.1055945 -2.2689116 -1.5118686 -0.48330715 -0.6412356 -1.2285525 1.9548788 -0.24895506
-2.4087846 1.0111158 -1.2443281 -0.2997797 0.6396211 -2.1200745 0.25507048 0.14578952
-1.4027097 1.2721621 -0.13111866 -2.8753357 0.9816789 -0.5195224 2.4049764 -0.06992123
-3.5921123 -0.41910517 -1.0205544 0.2937218 3.9728243 0.67820513 3.1593513 0.9789395
-1.4396118 0.8809509 1.0034951 2.9171162 1.0669438 -0.98945284 -1.4714792 0.0049561923
-1.1522034 -1.9124408 1.3046039 1.039527 1.0791445 -1.9253285 1.6898246 -0.13972525
-0.19673148 -1.0767142 -0.8066694 -1.7017959 1.0151746 3.7818427 0.458889 0.3821216
-0.5041638 -0.8784018 -0.9917802 -2.2959065 -0.8202168 0.08283486 -0.20720723 0.0075236843
1.3682023 -1.0163584 -2.2713263 -1.0066435 0.896029 0.366411 2.0537694 0.31317955
00000000: af37 4fbf 8c37 1d3f 6bdd 54bf afda fcbf
00000010: 975d 1340 62d6 41bf 4684 e03f 8eea 2840
00000020: 7bea 88bf 4570 89bf aaf0 0840 05a6 bf3b
00000030: 1220 ad3d ef01 663f e63f 9abf dab6 06c0
00000040: bc61 c9be df24 74bf ae75 73bf ff49 46bf
00000050: 30c6 6cbe 03d5 7b3e c435 e53e f9a2 91bf
00000060: 9c7b c4bf dfe8 d0bf a282 aa3f 9efd c7be
00000070: 9136 90bf 00ca c93f fa1d 353f 32b5 36c0
00000080: 23a9 493f 813b 353d d7f9 99bf 710e 0d3d
00000090: 2c86 58bd b6c2 16c0 f413 953f daa8 90bf
000000a0: dbaa 08c0 dbe7 1d40 2868 b43e 9e54 82bf
000000b0: 26e1 b43e ee2d 143f 97c9 d03f e924 cb3f
000000c0: f769 d2bf 5e60 813f 3392 0740 8d95 da3c
000000d0: 65ea 1ebf 8989 18c0 ec03 7bc0 44fe 32c0
000000e0: b6c5 ebbe 30eb ad3e 4e31 f83e c6ce 263e
000000f0: fb8d 7abf fa4b d53e 3c8c e13f 6e63 93bf
00000100: d567 00bd 851f 51bf 1311 903e 95a4 663e
00000110: b7fe 9abf d68b da3f a461 19bf 8775 833f
00000120: 5e35 7ebf 3de3 0abb d96a 19c0 d8cb acbf
00000130: 8562 e13e 5eb7 91bf 7ffc b43f 2514 983f
00000140: 9d7c 943e fe03 efbf 9850 963f d2a2 b43f
00000150: a3ab 983e e7f3 ce3f 8239 0abd 5f3c 2340
00000160: 3c8c 333f 1125 d7bd 3016 febf 7ce9 c2bf
00000170: 56f5 c7be c71d 8d3d 3edd 4240 6ab0 38c0
00000180: 076a 0940 fd28 4740 da6f 0d3f 6f21 17bf
00000190: 9f63 2cbe 52a8 22c0 bd85 6ebf 94f4 7d3f
000001a0: 1684 fd3f 0dcf e9bf c36b 6c3f 1b99 743f
000001b0: 0afd a4be 2145 b3bd 5d39 26be 67a7 8c3c
000001c0: 8b48 eb3f 4747 8f40 947d c53f 3dae d23e
000001d0: b9b0 25bf 1919 8d3f 2c25 8140 1302 e83f
000001e0: f612 2c3f 7918 2bbf 119a 9bbf 47b1 b53f
000001f0: 6c68 d53e 22b4 18be 243f 92bf 4d61 1bbe
00000200: 837a ca3e a6c3 21c0 5ea5 4ec0 dadf 843f
00000210: ff20 c63e d090 78bf 5301 2c40 b205 19be
00000220: 048e 153f b295 01c0 86b9 93bf 901c fdbf
00000230: 3ebd 703f 4910 ce3f 6135 52bf a9d9 abbf
00000240: c5c8 a03e 0482 e13e 4f4f 073f 7191 263f
00000250: dac1 e7bf e173 1a40 486d db3f 8c45 ccbe
00000260: 1dc1 eabf 776a 7ebf 9906 bdbf 1599 c1bf
00000270: 3281 b83f ab9c a93f b18b b23f 2fc4 2640
00000280: 07c4 0ec0 7d4f 2140 35b0 70be e156 cfbe
00000290: f748 1a40 6f51 a13e f9c6 65bf cb41 ccbe
000002a0: 6730 5bc0 46be 7dc0 aa38 39bf 50bf 8abe
000002b0: 9a97 abbd 7cb0 ad40 5fb7 2e40 0169 0bbf
000002c0: 7eae b1bd 636f 4dbf f1a4 8d3f 32ab 08c0
000002d0: 0555 413d 94e5 14bf 3eca d33f 428e 7b3f
000002e0: 1f84 8d3f d935 11c0 e984 c1bf 0974 f7be
000002f0: 0428 24bf 3541 9dbf 7839 fa3f 13ee 7ebe
00000300: 8729 1ac0 3e6c 813f 2546 9fbf ba7c 99be
00000310: 35be 233f 4daf 07c0 9998 823e d949 153e
00000320: fe8b b3bf 35d6 a23f f843 06be 8005 38c0
00000330: 4f4f 7b3f 6cff 04bf 22eb 1940 dd32 8fbd
00000340: 2be5 65c0 f494 d6be 87a1 82bf b462 963e
00000350: c142 7e40 da9e 2d3f d032 4a40 c79b 7a3f
00000360: 3345 b8bf 0086 613f 8772 803f 08b2 3a40
00000370: 9d91 883f c84c 7dbf 6e59 bcbf 8e67 a23b
00000380: 677b 93bf dcca f4bf 43fd a63f 390f 853f
00000390: 6821 8a3f 2a71 f6bf 2c4c d83f 2314 0fbe
000003a0: fa73 49be c5d1 89bf e381 4ebf 73d4 d9bf
000003b0: 3ef1 813f b609 7240 80f3 ea3e 71a5 c33e
000003c0: e110 01bf f1de 60bf 4fe5 7dbf 22f0 12c0
000003d0: baf9 51bf 53a5 a93d 222e 54be 3d89 f63b
000003e0: 4121 af3f 0818 82bf 695d 11c0 b2d9 80bf
000003f0: 2862 653f 399a bb3e f570 0340 1259 a03e

lstm.bias_ih_l0_reverse f4 [40]
1.5411617 0.9810794 2.1206856 1.0864857 -0.47107688 2.6259525 2.437665 0.07066475
0.99515957 0.6151526 -1.6282299 -1.348644 -1.8472263 -1.2015066 -1.1401185 1.4484763
-0.2551399 -1.1836268 -0.9375295 -0.3573775 0.6259994 0.8895729 -0.5463846 -0.1596922
-1.5448452 -1.6733876 1.2760074 -0.19444224 -0.13161375 1.8082356 -0.31349117 -0.05480212
0.7090955 -0.27047643 -0.6262156 1.1642014 2.2765186 0.5122191 1.5105401 1.2316521
00000000: c944 c53f 0528 7b3f 50b9 0740 f711 8b3f
00000010: fd30 f1be 9b0f 2840 b402 1c40 aeb8 903d
00000020: c7c2 7e3f a47a 1d3f d669 d0bf 5ea0 acbf
00000030: e971 ecbf f8ca 99bf 67ef 91bf ac67 b93f
00000040: b2a1 82be 1581 97bf ef01 70bf 2ffa b6be
00000050: 7f41 203f 0dbb 633f dcdf 0bbf 5a86 23be
00000060: 7dbd c5bf 9131 d6bf 3654 a33f de1b 47be
00000070: c1c5 06be 4474 e73f ea81 a0be 3078 60bd
00000080: 4887 353f e37b 8abe aa4f 20bf 8d04 953f
00000090: 7bb2 1140 ca20 033f 6159 c13f c7a6 9d3f

lstm.bias_hh_l0_reverse f4 [40]
1.2216986 1.4373206 2.097437 1.4188353 -0.7367825 2.5610638 2.7007957 -0.2340877
0.94467616 0.60940766 -1.2710434 -1.3520194 -1.6293267 -1.4141223 -1.0777755 1.3081021
0.0012868094 -0.76934385 -1.1296722 -0.5888309 0.5157105 0.86450154 -0.47419477 0.003672875
-1.4094181 -1.4385188 1.2212199 -0.32821083 0.3379509 1.5153275 -0.6239274 0.026755923
0.3338014 -0.025607156 -0.48456877 1.2209172 2.0308516 -0.014386506 1.3658732 0.9643624
00000000: 9f60 9c3f 1ffa b73f 683c 0640 659c b53f
00000010: c79d 3cbf 78e8 2340 d6d9 2c40 b0b4 6fbe
00000020: 4cd6 713f 2402 1c3f 8db1 a2bf f90e adbf
00000030: c78d d0bf f601 b5bf 8cf4 89bf e46f a73f
00000040: 29aa a83a b8f3 44bf 1999 90bf 9fbd 16bf
00000050: 9a05 043f f94f 5d3f a8c9 f2be 9eb4 703b
00000060: d067 b4bf 6221 b8bf ef50 9c3f 400b a8be
00000070: e607 ad3e 40f6 c13f b5b9 1fbf 3d2f db3c
00000080: 04e8 aa3e 19c6 d1bc 6619 f8be 0447 9c3f
00000090: 79f9 0140 61b5 6bbc efd4 ae3f 74e0 763f

lstm.weight_ih_l1 f4 [40, 20]
2.0602326 2.9449024 0.98517716 0.7514376 -0.4620339 -3.2271917 -1.162006 -1.7011552
-0.81510377 1.4890971 1.1051269 1.0528768 -1.1516759 1.0629711 -3.2415898 -0.6048496
0.500747 -1.0568964 -0.4853235 -1.6063627 -1.7547119 2.010566 -1.2006936 -0.66738826
0.50546485 0.53626704 1.8180691 2.0792797 -2.8970013 2.1863327 1.6922994 1.8628938
-1.2217897 0.028043546 -1.8809258 -1.4106221 0.57263285 -0.10409654 -2.1533575 0.8127329
-0.85634726 -0.8509725 1.0907125 1.1560954 -1.8634236 0.06820998 -0.32329407 1.8248721
-1.3939308 -1.5535693 -0.6692159 -0.14681795 -0.89094365 2.2278147 -0.82073903 -1.4316009
-0.118533105 -0.56016344 2.020798 0.18080784 -0.7320205 2.7672946 -1.4589082 1.779456
0.053529285 1.825218 0.88718575 2.5055406 0.69424725 -1.3637099 -2.7251782 2.128393
-1.6974764 -2.073331 -0.43382388 2.8449223 0.5047941 -0.7580567 -2.984178 -0.6572795
-2.5830393 0.77758723 1.4552379 1.7471033 -3.3638616 -1.8099556 -1.6378359 1.077235
-0.2016137 -1.9079869 -0.48973134 -0.83809316 -1.0104481 0.44395387 0.8897841 -1.6216261
-1.4667367 -0.431764 -3.312654 -2.5402176 -2.1655972 2.3064456 -1.3274871 1.5439471
-1.74816 1.0036285 0.6642068 -1.1590644 -4.1800694 1.7946545 -0.34896386 -0.98701733
-2.325585 -0.3566421 0.9186312 -0.9909309 2.3212147 1.026396 -1.5874046 -3.42012
-0.66061956 -1.2342877 1.8528168 2.8011928 -1.6914355 -1.0538449 -2.8767405 -2.4020522
1.8759139 -2.1833224 -0.6936831 0.5435844 -2.253282 -1.2077163 -0.14440285 0.75224376
1.1138096 0.82663095 -1.1487918 1.1787261 -0.49618062 0.48600984 1.2215191 0.85150814
1.3568543 -2.199711 0.37560824 1.3462621 -0.41626722 -3.4187667 2.5499277 0.68910754
-0.3534104 -0.71132404 -0.62507164 0.08093461 -0.77721643 2.277969 0.39166033 -0.37953305
1.422347 1.4783113 -0.42153665 1.0344459 0.6899617 -0.8344761 1.069197 3.9383264
1.5324483 -4.402627 -0.12878732 -1.2479862 0.1099738 -0.37099728 0.52760273 -0.38977203
0.4475709 2.7413776 0.13013943 -1.5617591 2.5985663 0.22653733 0.31334993 1.6712767
-0.3315134 -2.9935596 -1.0806206 -0.32953364 0.96084726 -2.6743639 0.16303408 -0.40820616
-0.96125084 0.5152936 -1.7039987 -0.8393114 -0.6296164 2.335853 0.2771985 -1.4111996
1.8620079 -0.10629388 -1.4556539 0.2754487 0.45531937 -2.6633162 1.314045 2.563143
-2.2551937 2.776648 -0.90317166 0.2603112 -0.64656013 1.5449489 -2.9178638 -0.048547223
2.5487132 -0.80439645 2.4578342 0.5917716 -1.5113829 -0.33388302 -1.688007 -2.9346418
0.97572017 0.825267 1.0944408 -1.68779 -1.246858 0.45544294 -1.3753833 3.6391037
2.2114403 0.59035665 -0.44706553 -0.012952253 -0.83545953 -0.21734132 0.23901701 1.7609267
0.4632775 0.80647206 -2.729789 0.041898426 -2.0287027 -0.81646234 3.6099877 2.5228405
0.18744136 -0.74348825 2.9489775 2.1076908 -0.11413681 0.8116398 0.062273737 -0.88337463
00000000: dada 0340 4879 3c40 9234 7c3f 375e 403f
00000010: b58f ecbe 4f8a 4ec0 9dbc 94bf 74bf d9bf
00000020: a4aa 50bf bc9a be3f cc74 8d3f abc4 863f
00000030: 1e6a 93bf 700f 883f 3576 4fc0 6cd7 1abf
00000040: f530 003f 6248 87bf 527c f8be 4b9d cdbf
00000050: 669a e0bf 1dad 0040 54b0 99bf f5d9 2abf
00000060: 2566 013f cc48 093f 7db6 e83f eb12 0540
00000070: 7868 39c0 e0ec 0b40 449d d83f 4e73 ee3f
00000080: 9b63 9cbf 94bb e53c 2dc2 f0bf 448f b4bf
00000090: 1198 123f 9130 d5bd 9cd0 09c0 430f 503f
000000a0: 9339 5bbf 55d9 59bf 789c 8b3f effa 933f
000000b0: aa84 eebf adb1 8b3d cd86 a5be 6995 e93f
000000c0: 536c b2bf 5cdb c6bf bc51 2bbf 7257 16be
000000d0: e214 64bf 8494 0e40 f41b 52bf b33e b7bf
000000e0: 7cc1 f2bd df66 0fbf c154 0140 b125 393e
000000f0: b265 3bbf 5b1b 3140 81bd babf 37c5 e33f
00000100: 8641 5b3d bea0 e93f 9b1e 633f c75a 2040
00000110: 30ba 313f 0c8e aebf 5269 2ec0 9737 0840
00000120: e846 d9bf 75b1 04c0 2a1e debe 3513 3640
00000130: 303a 013f 0110 42bf c6fc 3ec0 7843 28bf
00000140: 8450 25c0 f50f 473f 3c45 ba3f 15a1 df3f
00000150: 8249 57c0 a0ac e7bf 9ba4 d1bf d6e2 893f
00000160: d273 4ebe ea38 f4bf 11be fabe 468d 56bf
00000170: 5d56 81bf ec4d e33e e4c8 633f 7291 cfbf
00000180: 07be bbbf 2c10 ddbe 8602 54c0 ed92 22c0
00000190: 2599 0ac0 ce9c 1340 19eb a9bf 0fa0 c53f
000001a0: b5c3 dfbf e676 803f 7509 2a3f 395c 94bf
000001b0: 21c3 85c0 3db7 e53f 64ab b2be 2bad 7cbf
000001c0: 62d6 14c0 cb99 b6be 6a2b 6b3f a6ad 7dbf
000001d0: c88e 1440 f260 833f 1330 cbbf 3fe3 5ac0
000001e0: 5d1e 29bf 24fd 9dbf 1a29 ed3f be46 3340
000001f0: f580 d8bf 64e4 86bf 841c 38c0 39bb 19c0
00000200: f21d f03f 8ebb 0bc0 3795 31bf 5928 0b3f
00000210: c635 10c0 7396 9abf 57de 13be 0c93 403f
00000220: 5091 8e3f 169e 533f 9c0b 93bf 7fe0 963f
00000230: 630b febe 48d6 f83e bd5a 9c3f 70fc 593f
00000240: 67ad ad3f 11c8 0cc0 b94f c03e 5152 ac3f
00000250: fa20 d5be 13cd 5ac0 0432 2340 5a69 303f
00000260: 35f2 b4be 5519 36bf b204 20bf 0bc1 a53d
00000270: a8f7 46bf 3eca 1140 b487 c83e 2852 c2be
00000280: 770f b63f 4e39 bd3f a7d3 d7be b968 843f
00000290: 54a1 303f 3aa0 55bf 73db 883f 8a0d 7c40
000002a0: 4427 c43f 52e2 8cc0 d3e0 03be 03be 9fbf
000002b0: f239 e13d 5bf3 bdbe f910 073f 3390 c7be
000002c0: 0328 e53e bb72 2f40 4543 053e b9e7 c7bf
000002d0: e94e 2640 67f9 673e 676f a03e 65ec d53f
000002e0: 20bc a9be 7b96 3fc0 c751 8abf a2b8 a8be
000002f0: 16fa 753f c728 2bc0 68f2 263e 6600 d1be
00000300: 8914 76bf 48ea 033f a11c dabf 1ddd 56bf
00000310: 8a2e 21bf 9e7e 1540 f6ec 8d3e 30a2 b4bf
00000320: 4656 ee3f 9bb0 d9bd de52 babf 9d07 8d3e
00000330: 9f1f e93e c673 2ac0 a032 a83f 890a 2440
00000340: 1855 10c0 9ab4 3140 4236 67bf 8247 853e
00000350: f784 25bf e3c0 c53f 48be 3ac0 74d9 46bd
00000360: 1e1e 2340 edec 4dbf 284d 1d40 587e 173f
00000370: ff74 c1bf b7f2 aabe 9d10 d8bf 2cd1 3bc0
00000380: ccc8 793f b344 533f a316 8c3f 8109 d8bf
00000390: 0b99 9fbf d12f e93e 8f0c b0bf 13e7 6840
000003a0: 3d88 0d40 9d21 173f c6e5 e4be b035 54bc
000003b0: ade0 55bf b98e 5ebe e0c0 743e 0c66 e13f
000003c0: b532 ed3e f474 4e3f ddb4 2ec0 af9d 2b3d
000003d0: 44d6 01c0 ad03 51bf 0a0a 6740 3876 2140
000003e0: a1f0 3f3e 3f55 3ebf 0cbc 3c40 68e4 0640
000003f0: 8fc0 e9bd a0c7 4f3f bf12 7f3d d724 62bf

lstm.weight_hh_l1 f4 [40, 10]
1.0663258 2.1519718 0.1678418 -1.3941197 1.2953225 -2.5432785 -1.4704587 1.950955
4.097569 0.087532885 2.3125348 2.0836458 -0.5666317 -1.0630662 -1.426601 7.285821e-05
0.86899114 3.7793033 -2.6266804 -1.6845309 0.9386373 1.1700773 -0.29832163 0.27238786
-1.6320703 -3.9115992 3.3905365 -1.3080555 -0.42465025 -2.3924642 1.1802378 -1.1922094
1.0497854 1.5621767 -0.058453027 -1.1959218 -2.9521046 1.9705781 1.8266077 -0.7507308
2.1005151 -1.0336753 -1.5204836 1.0872433 -0.47893313 -0.30977854 0.32823813 2.9280002
-1.3654107 -1.916138 0.62981164 2.3831403 1.5852501 -0.33694693 -2.1734204 0.4457471
0.92169416 2.2919636 -1.7811571 0.7642636 -0.15779382 -1.4918633 0.6919646 0.4658425
-1.8976393 -0.28938493 -0.65490276 1.9417032 2.6146555 0.34044468 1.4385847 0.082355365
-1.380105 -0.99349445 -2.41568 2.100128 1.7252297 4.405226 -1.7913293 -3.268924
0.9852145 -3.2128816 1.1497738 -0.88991857 -2.6288204 1.3751005 1.0039601 0.62812066
-2.03523 -1.7670752 1.7786404 -0.0076780594 -0.55221546 0.4852921 -0.8805911 2.5495722
-0.8695644 0.73808396 0.15075403 1.9931327 -0.094463974 0.1240848 -0.62352324 1.2670029
-0.08851907 -2.2308943 -1.2300746 0.10892233 2.434526 0.45400438 -1.118154 -1.1120449
0.00944576 -2.1013603 -2.0092058 -2.1133564 1.9652609 -0.5856952 -0.5967241 2.186629
0.9264114 0.084822595 -0.7433844 -0.4529982 2.0091946 1.7379854 -0.6617887 -3.204408
0.39893296 -0.93948156 0.9101792 1.5064468 -0.18579125 1.6154822 -0.8219258 -1.2570125
0.15679236 2.375283 -2.782372 -1.7155719 -2.4211152 0.9886917 -1.4341063 -0.053824697
0.20080124 1.2723042 0.65296775 -0.9884771 1.719643 0.51229364 2.856372 0.048831876
0.4965863 0.48562527 -0.2111866 1.1306099 1.8037959 0.38823086 0.92071795 0.84911966
0.14418323 -0.684419 -1.4293308 -0.7999035 -3.4039054 -1.345583 0.13406262 2.5977252
0.11516458 -0.27984604 1.1912246 -0.73131126 -0.52451736 0.29649013 1.943641 -0.30923763
-1.6310219 -1.870674 1.9657496 0.9390795 0.6973394 1.6521171 0.40811133 -1.4288965
1.8105018 -1.4795762 2.17941 -1.3777722 0.46041128 -0.5961384 -2.4501872 -0.081796415
-0.7590797 0.5524016 -0.0693312 -2.7568111 0.97703344 1.0134486 3.7771063 1.1165756
0.17871313 -0.87498534 0.258654 -0.35791105 -1.177025 -0.76049286 -0.49564144 1.7578013
-1.4273945 -1.5830464 -0.036403757 0.08713371 -1.0113251 -1.5397593 -3.1070044 -2.698449
0.05588419 3.0391238 -0.28684455 -0.33465567 0.23046787 -0.8903627 -1.4170101 -0.82886773
0.7961246 -1.7962437 0.25929138 1.9422619 0.45036322 -0.97173077 2.9533877 0.46516195
0.39824295 -1.599047 -1.9838179 -0.1590684 1.6499277 -0.56658083 -0.53539485 -2.169381
-1.9991255 2.1339777 -0.3352495 -1.8023549 1.4073311 0.34663397 0.42415392 -1.3741486
1.364482 0.26026613 2.085878 2.160119 -2.4205256 1.29759 -0.7226578 1.5683022
00000000: 5d7d 883f e8b9 0940 b9de 2b3e 8472 b2bf
00000010: 21cd a53f 13c5 22c0 fe37 bcbf e5b8 f93f
00000020: 491f 8340 7144 b33d 9200 1440 745a 0540
00000030: c60e 11bf 8e12 88bf dd9a b6bf 74cb 9838
00000040: 3476 5e3f 1be0 7140 881b 28c0 b59e d7bf
00000050: 894a 703f 18c5 953f 9dbd 98be 6c76 8b3e
00000060: aee7 d0bf a457 7ac0 8dfe 5840 5d6e a7bf
00000070: c26b d9be 221e 19c0 0812 973f 519a 98bf
00000080: 5e5f 863f 68f5 c73f 716c 6fbd f713 99bf
00000090: 48ef 3cc0 e73b fc3f 48ce e93f e52f 40bf
000000a0: d76e 0640 794f 84bf 359f c2bf ca2a 8b3f
000000b0: b936 f5be 4b9b 9ebe d40e a83e 5b64 3b40
000000c0: c7c5 aebf 0344 f5bf 563b 213f 5f85 1840
000000d0: 7ae9 ca3f 4f84 acbe 5219 0bc0 f738 e43e
000000e0: 26f4 6b3f 88af 1240 f5fc e3bf c7a6 433f
000000f0: b494 21be 60f5 bebf 9824 313f e882 ee3e
00000100: d8e5 f2bf 432a 94be b5a7 27bf bb89 f83f
00000110: 8456 2740 c44e ae3e 8b23 b83f eea9 a83d
00000120: 48a7 b0bf a755 7ebf 809a 1ac0 7f68 0640
00000130: 54d4 dc3f 9df7 8c40 474a e5bf 0d36 51c0
00000140: 0437 7c3f da9f 4dc0 ca2b 933f b4d1 63bf
00000150: 983e 28c0 4b03 b03f c481 803f 84cc 203f
00000160: 3541 02c0 852f e2bf 7daa e33f 3b98 fbbb
00000170: fe5d 0dbf 3578 f83e 6b6e 61bf 312c 2340
00000180: c69b 5ebf 12f3 3c3f 445f 1a3e f91e ff3f
00000190: 5476 c1bd 2c20 fe3d 389f 1fbf 272d a23f
000001a0: 7c49 b5bd f9c6 0ec0 1673 9dbf ac12 df3d
000001b0: 46cf 1b40 4373 e83e ac1f 8fbf 7d57 8ebf
000001c0: 64c2 1a3c b07c 06c0 d496 00c0 3b41 07c0
000001d0: ab8d fb3f 1ff0 15bf e9c2 18bf bbf1 0b40
000001e0: 4c29 6d3f 78b7 ad3d 714e 3ebf 61ef e7be
000001f0: a596 0040 4e76 de3f fc6a 29bf 0515 4dc0
00000200: f140 cc3e dd81 70bf 8101 693f 40d3 c03f
00000210: 1040 3ebe 1fc8 ce3f bb69 52bf c9e5 a0bf
00000220: 2d8e 203e a304 1840 6212 32c0 dc97 dbbf
00000230: 8df3 1ac0 e61a 7d3f cc90 b7bf 4977 5cbd
00000240: d79e 4d3e ddda a23f e528 273f d60c 7dbf
00000250: 431d dc3f ad25 033f cdce 3640 ef03 483d
00000260: 8f40 fe3e e0a3 f83e 4d41 58be d3b7 903f
00000270: c9e2 e63f 32c6 c63e 2cb4 6b3f e85f 593f
00000280: c5a4 133e 1536 2fbf 50f4 b6bf 7ac6 4cbf
00000290: 96d9 59c0 103c acbf b647 093e 2141 2640
000002a0: 68db eb3d fb47 8fbe 0c7a 983f 3737 3bbf
000002b0: c546 06bf 8ecd 973e 3ac9 f83f 6554 9ebe
000002c0: 53c5 d0bf 3f72 efbf af9d fb3f 8467 703f
000002d0: d684 323f 9378 d33f f8f3 d03e 15e6 b6bf
000002e0: 86be e73f c162 bdbf 747b 0b40 d75a b0bf
000002f0: 07bb eb3e 879c 18bf decf 1cc0 e184 a7bd
00000300: 0c53 42bf 316a 0d3f 84fd 8dbd 986f 30c0
00000310: dd1e 7a3f afb8 813f 1cbc 7140 f3eb 8e3f
00000320: 9300 373e 0aff 5fbf 4c6e 843e 1e40 b7be
00000330: c1a8 96bf a9af 42bf b7c4 fdbe a2ff e03f
00000340: ddb4 b6bf 44a1 cabf 1b1c 15bd 2973 b23d
00000350: 1a73 81bf d516 c5bf 29d9 46c0 63b3 2cc0
00000360: d2e6 643d 0181 4240 4add 92be fd57 abbe
00000370: c5ff 6b3e cfee 63bf 9660 b5bf ad30 54bf
00000380: d2ce 4b3f 50eb e5bf d7c1 843e 0a9c f83f
00000390: 0296 e63e 59c3 78bf 4e04 3d40 b529 ee3e
000003a0: 80e6 cb3e 92ad ccbf bfed fdbf d4e2 22be
000003b0: d530 d33f 710b 11bf a30f 09bf 23d7 0ac0
000003c0: 58e3 ffbf 1793 0840 d3a5 abbe 91b3 e6bf
000003d0: 6d23 b43f 027a b13e b42a d93e 1ae4 afbf
000003e0: 59a7 ae3f 9a41 853e 067f 0540 643f 0a40
000003f0: e4e9 1ac0 6e17 a63f 1a00 39bf 20be c83f

lstm.bias_ih_l1 f4 [40]
-0.9111254 0.27873853 1.0487795 0.24741475 -0.44687515 0.5546376 0.3883393 -1.107654
0.55074096 -1.7071754 1.1862888 0.69251025 1.0039306 -2.2706208 -0.39286152 -0.34873056
-2.204819 1.3335444 0.8994364 2.203791 -0.2535015 -0.6264453 -1.2290518 0.38057756
1.32708 0.07802295 -0.3714364 0.17422935 0.10479999 0.31264976 1.365805 1.3442059
0.23274982 1.8693123 -0.40509373 -0.46253422 -0.25253552 0.40640047 -1.30276 0.8665509
00000000: 843f 69bf d1b6 8e3e 683e 863f 4b5a 7d3e
00000010: d2cc e4be bbfc 0d3f 69d4 c63e 9bc7 8dbf
00000020: 5cfd 0c3f b984 dabf 50d8 973f 5a48 313f
00000030: cc80 803f da51 11c0 2525 c9be d08c b2be
00000040: c11b 0dc0 95b1 aa3f 7741 663f e90a 0d40
00000050: f3ca 81be b85e 20bf 9251 9dbf 10db c23e
00000060: c2dd a93f 7fca 9f3d e92c bebe 2e69 323e
00000070: 61a1 d63d a113 a03e b3d2 ae3f f00e ac3f
00000080: f855 6e3e a045 ef3f 7268 cfbe 49d1 ecbe
00000090: 564c 81be b913 d03e d7c0 a6bf 48d6 5d3f

lstm.bias_hh_l1 f4 [40]
-0.82816374 0.08592097 0.70923823 0.09738316 -0.7547992 0.4696826 0.37115172 -1.3604069
0.57939243 -1.896696 0.7262087 1.1539503 0.636818 -2.4820306 -0.6812353 -0.18788686
-2.1290467 1.6520689 0.40664268 1.7912709 -0.27270654 -0.9219302 -0.98447573 -0.038172517
1.2393943 0.20228563 0.029593889 0.008929628 -0.04641163 0.06382037 1.3022554 1.2597666
0.17706144 1.688393 -0.25211048 -0.49136013 -0.20543116 0.3692383 -0.97403544 0.5046833
00000000: 8a02 54bf 55f7 af3d a390 353f d270 c73d
00000010: 853a 41bf 3d7a f03e 9907 be3e d021 aebf
00000020: 1053 143f efc6 f2bf d0e8 393f a5b4 933f
00000030: 8106 233f 97d9 1ec0 7065 2ebf 6a65 40be
00000040: 4d42 08c0 fe76 d33f 7833 d03e 5d48 e53f
00000050: 31a0 8bbe 9e03 6cbf 9a06 7cbf c95a 1cbd
00000060: 79a4 9e3f f723 4f3e e26e f23c 934d 123c
00000070: 1f1a 3ebd 41b4 823d 4eb0 a63f 0840 a13f
00000080: 984f 353e 431d d83f a014 81be 8e93 fbbe
00000090: 8c5c 52be cd0c bd3e 635a 79bf ed32 013f

lstm.weight_ih_l1_reverse f4 [40, 20]
-0.26470095 -0.0037192982 -1.0819639 0.39523524 1.8041056 -0.5652119 0.7853932 0.6392308
-2.1966887 0.345212 1.3785467 0.25437206 -1.6563028 1.1256974 0.79352206 -2.9109004
0.99841815 -0.26230535 -1.2558242 -0.95342076 -1.8051192 1.7280849 -0.56677336 1.2503939
-1.3702486 -0.9928708 -3.546504 -0.09451644 4.095871 -1.2925475 1.5536562 -0.47111112
-0.03217436 0.66043055 -1.7714338 0.8320716 1.3960296 -1.0102582 1.0232897 0.032685112
-0.06933072 -0.6636609 -0.88636404 0.2517211 -2.7103388 -0.79499733 -1.882495 -0.922178
2.0722122 -0.07514694 1.779792 -2.5451453 0.74522334 1.4679878 -1.9326655 -0.42464453
0.0031428165 0.9909083 2.1030684 -0.44529805 2.5086954 -0.14852697 -0.66964805 -0.43880764
-0.075778976 -0.33758923 -1.1765707 0.85177904 3.2287402 -2.5776803 -0.011312649 0.9433645
2.0775375 2.5822723 -2.3810222 0.41368097 -1.1826314 0.7049023 0.61906576 1.9383
-0.23596178 -0.67505866 0.6840022 2.4316862 0.49787098 -0.71349925 -3.192758 -0.39699572
1.6204402 -1.7543325 -1.5886649 0.26466247 3.7457447 1.5168327 2.7146132 2.2991369
-0.27348164 1.2707664 0.086448215 -0.07580054 -0.13584158 -0.007957703 -0.17166744 1.6289213
-0.4235726 -1.3958848 -1.613864 0.7895049 1.5266593 -0.61674064 -1.0467515 0.73406255
1.6389188 0.45199934 -1.6796203 -2.053408 0.2871068 1.0031837 -0.62571514 -1.2160997
0.45225808 -0.20377287 -0.7660331 -0.19263522 0.14048454 1.0579771 -0.046705853 2.18742
-0.52767456 0.028745992 1.5213279 1.8620596 -0.5088201 -1.9946966 -1.6857207 -1.2638
-0.75008845 1.4637876 3.5084965 -1.0436457 -1.0875611 -1.1599748 1.3583537 0.35240898
2.0131528 -1.0412291 -2.6616054 -0.7179381 -0.61108947 1.4457114 -0.27339968 -0.13487768
-2.541415 -1.2626431 2.1274273 -0.9849058 1.5676757 0.3802287 0.48543707 0.14808661
0.619844 0.31583735 0.307834 -3.1355708 1.979755 -0.8831204 1.8548794 -0.41908062
0.38229716 -1.3201602 -0.44618362 0.3089506 0.72266036 1.0402527 2.6731997 0.78232753
-0.49480447 -1.9329221 0.26022732 -0.5325121 0.7394555 -0.08314468 2.4363039 0.6054359
-0.06954585 0.15186459 -0.27890918 -0.6844156 0.6969848 -1.0751102 -0.18545264 -1.599802
-0.7224029 -1.3579912 0.9353331 -1.6202158 1.2200944 -0.53000873 0.19263448 2.1129506e-05
-0.5395779 1.5623351 -0.63560605 -0.80430424 -2.3065119 2.2744453 0.76925546 4.2139816
5.4959702 -0.87202024 1.3933673 0.8463364 1.501439 0.09874631 0.105963744 2.156113
0.7949004 -0.7235328 1.0672705 2.2654834 0.07226267 0.5055015 1.2337134 -0.8726552
-0.53317064 1.6854028 3.7831023 2.1755974 -0.89214855 -0.7489502 -0.5996916 1.8888913
-2.0976849 0.45547518 0.61309105 -1.0240641 1.3940084 2.4535215 -0.86009943 -1.26178
1.7342892 1.1442543 0.5529395 -1.0537804 1.3494124 2.2906282 2.1642787 4.5406966
2.139302 -1.7269592 -1.2328684 0.30427003 1.7609547 0.35305855 -0.396673 1.4687293
00000000: e286 87be 78bf 73bb cb7d 8abf 465c ca3e
00000010: efec e63f bab1 10bf 870f 493f a1a4 233f
00000020: 8c96 0cc0 a1bf b03e 3874 b03f 0e3d 823e
00000030: bb01 d4bf da16 903f 4324 4b3f 314c 3ac0
00000040: 5598 7f3f e34c 86be d9be a0bf 6213 74bf
00000050: 250e e7bf e331 dd3f 0f18 11bf e80c a03f
00000060: 4e64 afbf c82c 7ebf ecf9 62c0 d691 c1bd
00000070: 6011 8340 3272 a5bf 35de c63f 7a35 f1be
00000080: 43c9 03bd fa11 293f 58be e2bf a502 553f
00000090: 19b1 b23f 2450 81bf 28fb 823f d3e0 053d
000000a0: 44fd 8dbd aee5 29bf c1e8 62bf 97e1 803e
000000b0: 3176 2dc0 f284 4bbf 99f5 f0bf db13 6cbf
000000c0: 209f 0440 a4e6 99bd 39d0 e33f a9e3 22c0
000000d0: f5c6 3e3f 06e7 bb3f 9561 f7bf 026b d9be
000000e0: b6f7 4d3b 2bac 7d3f ac98 0640 1bfe e3be
000000f0: 778e 2040 7417 18be 0e6e 2bbf 65ab e0be
00000100: 0232 9bbd 7fd8 acbe de99 96bf 310e 5a3f
00000110: aea3 4e40 b7f8 24c0 b058 39bc 5680 713f
00000120: 60f6 0440 f343 2540 ab62 18c0 fecd d33e
00000130: 7760 97bf 7a74 343f 187b 1e3f 371a f83f
00000140: f79f 71be a5d0 2cbf c51a 2f3f bfa0 1b40
00000150: f2e8 fe3e e3a7 36bf 2656 4cc0 0643 cbbe
00000160: 966a cf3f f88d e0bf 5f59 cbbf d781 873e
00000170: 48ba 6f40 9327 c23f 39bc 2d40 0f25 1340
00000180: c905 8cbe 79a8 a23f c30b b13d 503d 9bbd
00000190: 0e1a 0bbe 0761 02bc 97c9 2fbe 7e80 d03f
000001a0: 82de d8be 5aac b2bf 1893 cebf fe1c 4a3f
000001b0: 9269 c33f b7e2 1dbf f4fb 85bf 86eb 3b3f
000001c0: 17c8 d13f 756c e73e ccfd d6bf 096b 03c0
000001d0: aaff 923e 5368 803f de2e 20bf 28a9 9bbf
000001e0: 5f8e e73e d6a9 50be bf1a 44bf 2b42 45be
000001f0: 2edb 0f3e cb6b 873f a34e 3fbd b0fe 0b40
00000200: ae15 07bf b77c eb3c dfba c23f f857 ee3f
00000210: 0942 02bf 3852 ffbf b2c5 d7bf 33c4 a1bf
00000220: cc05 40bf 645d bb3f 358b 6040 2f96 85bf
00000230: 3435 8bbf 0e7a 94bf 89de ad3f f36e b43e
00000240: 7fd7 0040 ff46 85bf be57 2ac0 cbca 37bf
00000250: 5c70 1cbf 120d b93f 0bfb 8bbe 601d 0abe
00000260: 8ba6 22c0 4a9e a1bf c527 0840 c922 7cbf
00000270: 99a9 c83f 56ad c23e 358b f83e 04a4 173e
00000280: 19ae 1e3f 6fb5 a13e 6b9c 9d3e 31ad 48c0
00000290: 9d68 fd3f 2e14 62bf b06c ed3f bc91 d6be
000002a0: 74bc c33e 02fb a8bf 2e72 e4be c62e 9e3e
000002b0: 4500 393f 0027 853f b415 2b40 9e46 483f
000002c0: 0357 fdbe fe69 f7bf 843c 853e b752 08bf
000002d0: f54c 3d3f c247 aabd 67ec 1b40 d9fd 1a3f
000002e0: 0e6e 8ebd 6482 1b3e 2fcd 8ebe dc35 2fbf
000002f0: 996d 323f 369d 89bf 4ce7 3dbe 50c6 ccbf
00000300: 65ef 38bf a8d2 adbf fd71 6f3f 3b63 cfbf
00000310: 0e2c 9c3f a7ae 07bf f941 453e 453f b137
00000320: c721 0abf 99fa c73f 14b7 22bf e2e6 4dbf
00000330: e49d 13c0 8390 1140 eded 443f f0d8 8640
00000340: fdde af40 b83c 5fbf dc59 b23f 81a9 583f
00000350: 272f c03f 813b ca3d 8503 d93d c1fd 0940
00000360: 987e 4b3f 7239 39bf 529c 883f aefd 1040
00000370: 73fe 933d 8c68 013f 52ea 9d3f 5566 5fbf
00000380: df7d 08bf 47bb d73f 591e 7240 fd3c 0b40
00000390: d963 64bf 33bb 3fbf 6485 19bf 31c7 f13f
000003a0: 7840 06c0 0b34 e93e 89f3 1c3f 8814 83bf
000003b0: de6e b23f 7f06 1d40 7a2f 5cbf 0282 a1bf
000003c0: 30fd dd3f ed76 923f 718d 0d3f 47e2 86bf
000003d0: 8cb9 ac3f a799 1240 8b83 0a40 634d 9140
000003e0: 53ea 0840 000d ddbf a2ce 9dbf 48c9 9b3e
000003f0: f766 e13f 17c4 b43e b918 cbbe 52ff bb3f

lstm.weight_hh_l1_reverse f4 [40, 10]
0.26097748 0.25081408 2.271873 0.52282 1.7265109 -0.55496347 0.5032328 -1.3766336
0.5527638 2.3239522 -1.6370375 -0.346819 -0.16189937 1.5215994 -0.5249825 -0.982516
-2.3988507 0.17626058 1.3023207 -1.0114892 0.8962881 2.5142817 0.66019505 2.5647602
-0.95552796 -0.2633221 -0.96786463 -0.3337945 -0.093377106 -2.3151183 -0.41023767 -1.359633
-0.67105067 1.9029167 -0.7407965 1.5910372 -0.89460856 1.1492581 -1.8122212 -0.0587993
-0.46475598 0.12044464 -0.27539748 -0.02812434 1.0185037 -1.4050425 2.7069662 2.464784
-1.6827121 0.31577706 -0.9155753 0.48547184 0.47249496 1.8308549 -0.78520584 -0.32238194
-0.5556449 2.1881957 -1.2388427 0.4708159 1.2894852 -1.7021717 -0.15375593 1.4721142
2.4801483 0.26787338 -1.9468721 0.9764782 -0.5231252 -2.9831045 -0.37721178 0.67994094
2.351568 -0.58126587 1.2015007 -3.8888469 -0.0670454 0.30820033 -0.18221924 3.5662758
-0.7250343 -0.064700015 1.4568009 0.63391614 -1.4302422 2.6135166 -1.5815629 0.67774713
1.56497 0.12809289 1.7406096 -2.552638 3.8060238 1.4098523 -1.5771997 0.054997467
-0.9395762 -1.1239355 1.5200534 -0.26138142 1.9859074 -1.8168522 -0.5153144 -1.2683226
-0.24341063 0.9466234 -0.49572188 0.61844075 -1.0036939 -0.7933773 0.32365042 -1.5864577
0.5293235 -0.2537743 0.059934422 0.83500916 1.0206244 2.0897937 2.4161012 -0.65201205
-3.1422408 0.22144902 -0.16428505 -0.54672015 1.173448 0.35155293 2.8866744 -1.0946304
-0.95829564 0.62211084 1.9084761 3.2621574 -0.037500203 -1.0503519 -0.7290756 -2.696422
-0.5510876 -1.7876915 0.7188826 0.7110006 -0.5346148 -0.0065926304 -1.1905463 0.29181045
-0.35534254 0.63004637 4.3389196 1.0380294 0.7307373 -2.6743557 -0.9938814 -1.3202183
-0.8197339 -0.16463283 0.4447744 -1.1326205 0.68554467 -0.6336689 -0.007891493 0.49265414
1.2558216 -0.8160283 -0.008830686 1.6763059 0.3300197 -1.6792054 0.19617388 0.83012956
1.532031 1.0460799 0.31542212 0.37547752 -1.346676 0.9677345 0.36980394 2.436137
-0.4708686 -1.6467948 -0.79071337 -2.1909764 -1.4430779 1.8872058 -1.2933333 0.20031367
0.21026899 1.5674832 1.2701416 -3.8650374 -0.69697475 -0.7857155 -0.44078475 0.5796843
0.4583629 0.3923576 -0.6158407 1.1714708 1.7432753 0.9285335 -0.08436583 1.77015
-1.6997801 1.6131312 1.3015352 -1.3256102 0.6394583 2.4259 1.8901625 -1.2142123
0.28698638 0.7226991 2.612608 -2.0010664 -0.71895045 0.9492694 -1.8125101 -3.3230913
-2.3032753 0.75742775 0.957883 -0.52528965 1.1965047 -1.1617035 -0.08870393 0.17826112
-0.5610602 -1.1331576 2.3823318 2.3115747 0.1436227 -0.5366962 0.62013066 -1.2554907
3.4973028 0.14641745 -0.764077 -2.2334158 -0.4405889 0.3656441 0.4981588 1.1917546
-0.6148169 0.035014655 0.09493052 1.9390789 -0.7100759 0.94726 -0.16238104 1.6958381
0.8524119 -1.5646238 0.3922018 -0.21661024 -0.74884605 -2.246669 -2.5636892 -3.0554075
00000000: d79e 853e b46a 803e 5e66 1140 88d7 053f
00000010: 4ffe dc3f 1612 0ebf ddd3 003f 8835 b0bf
00000020: ee81 0d3f a2bb 1440 728a d1bf 4392 b1be
00000030: f3c8 25be c5c3 c23f 4165 06bf 2b86 7bbf
00000040: c586 19c0 a77d 343e 72b2 a63f 7a78 81bf
00000050: 2373 653f fee9 2040 8b02 293f 0825 2440
00000060: 7b9d 74bf 27d2 86be fac5 77bf 1de7 aabe
00000070: 7f3c bfbd e62a 14c0 ac0a d2be 7408 aebf
00000080: fac9 2bbf c692 f33f d7a4 3dbf 1ba7 cb3f
00000090: 1105 65bf e41a 933f ddf6 e7bf 89d7 70bd
000000a0: 7ff4 edbe aeab f63d e600 8dbe 0465 e6bc
000000b0: 545e 823f 6fd8 b3bf ef3e 2d40 05bf 1d40
000000c0: 1c63 d7bf 88ad a13e 2563 6abf c48f f83e
000000d0: dcea f13e 7459 ea3f 4003 49bf 3f0f a5be
000000e0: bf3e 0ebf 660b 0c40 6692 9ebf c80e f13e
000000f0: da0d a53f c3e0 d9bf 3272 1dbe 3d6e bc3f
00000100: c0ba 1e40 b326 893e 1b33 f9bf 7afa 793f
00000110: 88eb 05bf 2feb 3ec0 e721 c1be 9c10 2e3f
00000120: 1780 1640 d7cd 14bf c6ca 993f dee2 78c0
00000130: 194f 89bd 6fcc 9d3e ae97 3abe dd3d 6440
00000140: d99b 39bf 7181 84bd 7478 ba3f 5448 223f
00000150: 2d12 b7bf db43 2740 a770 cabf d680 2d3f
00000160: f050 c83f c82a 033e 4ccc de3f 6c5e 23c0
00000170: e595 7340 0a76 b43f aee1 c9bf 0645 613d
00000180: 1188 70bf 1edd 8fbf 1c91 c23f c9d3 85be
00000190: 3732 fe3f 9d8e e8bf a5eb 03bf 6558 a2bf
000001a0: a340 79be e955 723f 42cf fdbe 2252 1e3f
000001b0: 0b79 80bf c61a 4bbf 82b5 a53e 0c11 cbbf
000001c0: bf81 073f b4ee 81be cc7d 753d 29c3 553f
000001d0: d2a3 823f 2ebf 0540 67a1 1a40 43ea 26bf
000001e0: 791a 49c0 88c3 623e 573a 28be daf5 0bbf
000001f0: 8b33 963f bffe b33e 46bf 3840 d91c 8cbf
00000200: dd52 75bf a842 1f3f f248 f43f 30c7 5040
00000210: d099 19bd ee71 86bf b3a4 3abf 2e92 2cc0
00000220: 1414 0dbf 13d3 e4bf b108 383f 2304 363f
00000230: 84dc 08bf fe06 d8bb d263 98bf 2e68 953e
00000240: 75ef b5be b84a 213f 6ed8 8a40 26de 843f
00000250: 9a11 3b3f a528 2bc0 036f 7ebf eafc a8bf
00000260: 15da 51bf 8295 28be 78b9 e33e b5f9 90bf
00000270: db7f 2f3f 2038 22bf 524b 01bc 2a3d fc3e
00000280: c3be a03f 3be7 50bf 95ae 10bc 3191 d63f
00000290: 58f8 a83e 34f0 d6bf cee1 483e 5f83 543f
000002a0: 9819 c43f f2e5 853f 027f a13e 973e c03e
000002b0: e15f acbf 73bd 773f f156 bd3e abe9 1b40
000002c0: b015 f1be 2cca d2bf 316c 4abf f538 0cc0
000002d0: c7b6 b8bf f68f f13f f28b a5bf 071f 4d3e
000002e0: c150 573e 4aa3 c83f 0094 a23f c65c 77c0
000002f0: f06c 32bf a724 49bf 8aae e1be 3166 143f
00000300: 8bae ea3e 18e3 c83e bca7 1dbf c1f2 953f
00000310: a523 df3f 5fb4 6d3f fec7 acbd 4694 e23f
00000320: 6592 d9bf 157b ce3f b598 a63f 98ad a9bf
00000330: 8ab3 233f f241 1b40 d8f0 f13f 4f6b 9bbf
00000340: e1ef 923e cf02 393f f834 2740 7911 00c0
00000350: 230d 38bf 5203 733f 5500 e8bf 87ad 54c0
00000360: dd68 13c0 c9e6 413f d237 753f 6279 06bf
00000370: 1127 993f b3b2 94bf 68aa b5bd 158a 363e
00000380: a4a1 0fbf 4f0b 91bf 2078 1840 d7f0 1340
00000390: d411 133e ec64 09bf e2c0 1e3f ebb3 a0bf
000003a0: cfd3 5f40 75ee 153e 8d9a 43bf 49f0 0ec0
000003b0: de94 e1be b435 bb3e ac0e ff3e 6a8b 983f
000003c0: a464 1dbf 876b 0f3d ef6a c23d bd33 f83f
000003d0: 89c7 35bf a27f 723f 3747 26be 3911 d93f
000003e0: ab37 5a3f 9845 c8bf adce c83e 13cf 5dbe
000003f0: 60b4 3fbf 6dc9 0fc0 7c13 24c0 cc8b 43c0

lstm.bias_ih_l1_reverse f4 [40]
0.21194048 0.8911322 1.0104103 1.720778 -1.0054649 2.127667 0.61675143 0.12392396
-1.1790556 0.074267164 0.64429045 -1.330269 1.0712873 -1.1252761 -1.6224954 -0.067543216
-1.4674407 -0.028924283 -0.6564261 -0.3160279 0.17019908 0.6048136 -0.034558304 -0.78462565
-0.4554817 0.5470344 -0.007615061 0.5567038 -1.4143374 -0.17530671 -0.29699054 0.11385495
1.1753209 0.7262567 -0.6423763 0.56880367 0.78439915 0.45169753 -0.12351211 0.03450307
00000000: ed06 593e 3d21 643f 2055 813f 7442 dc3f
00000010: 13b3 80bf b22b 0840 6ce3 1d3f d8cb fd3d
00000020: 4beb 96bf 6219 983d 38f0 243f 4146 aabf
00000030: f11f 893f 0c09 90bf eead cfbf 1954 8abd
00000040: 19d5 bbbf 9ef2 ecbc 8a0b 28bf 69ce a1be
00000050: ab48 2e3e 10d5 1a3f 028d 0dbd 3add 48bf
00000060: e634 e9be 720a 0c3f c387 f9bb 2484 0e3f
00000070: 0209 b5bf 9a83 33be 250f 98be c92c e93d
00000080: ea70 963f f6eb 393f c672 24bf 1e9d 113f
00000090: 62ce 483f e644 e73e ebf3 fcbd 1753 0d3d

lstm.bias_hh_l1_reverse f4 [40]
-0.07547542 0.7749756 0.5596218 1.6822462 -0.82188237 2.0631921 1.0826471 0.21229015
-1.6721157 -0.13418937 0.28711 -1.2847179 1.3969598 -1.0974555 -1.6118758 -0.049895905
-1.2930325 -0.4768933 -1.1264954 -0.22850865 0.08332969 0.4434867 -0.079350546 -0.3311323
-0.49020332 0.21267775 -0.12923695 0.5648168 -1.5018026 0.17271675 -0.21288042 0.20928173
1.1372304 0.8725195 -0.63008046 0.5146372 0.6599087 1.0177544 -0.12088163 0.042658564
00000000: db92 9abd cd64 463f 6043 0f3f d853 d73f
00000010: e266 52bf 570b 0440 2e94 8a3f 9762 593e
00000020: e307 d6bf f068 09be 1500 933e a371 a4bf
00000030: 94cf b23f 6c79 8cbf f251 cebf a65f 4cbd
00000040: 1782 a5bf 5c2b f4be 0031 90bf 2cfe 69be
00000050: c2a8 aa3d b010 e33e 8a82 a2bd 2c8a a9be
00000060: eefb fabe 32c8 593e b156 04be d597 103f
00000070: 113b c0bf a9dc 303e 53fd 59be f34d 563e
00000080: c490 913f 705d 5f3f f44c 21bf 43bf 033f
00000090: c7ef 283f c745 823f ca90 f7bd bfba 2e3d
