staticfiles/equi_weights/lstm_scan.pt (torch, 21586 bytes, 20 tensors)

cnn.weight f4 [1, 1, 2]
-0.0023434875 1.4156295
00000000: 3295 19bb 5933 b53f

lstm.weight_ih_l0 f4 [40, 1]
-1.3292524 0.6914055 0.4508232 -1.1394236 0.5745068 0.14762573 -0.58979535 -1.6936107
-0.17936827 -2.5444665 1.0522178 -0.13451117 1.5903217 0.3170206 3.737177 -0.5890109
0.9529331 -0.24013396 2.38422 0.116140164 0.5158845 0.68086535 0.0501284 3.1074576
-1.3131617 1.9709638 0.86110127 0.5268784 -2.7367818 0.78491485 2.014801 1.2807094
-0.72123003 -0.41294566 1.4627807 1.5488069 -0.98763204 -0.5855902 0.21986298 -3.0884295
00000000: f124 aabf f3ff 303f 4cd2 e63e a2d8 91bf
00000010: e112 133f 332b 173e d4fc 16bf 3cc8 d8bf
00000020: 51ac 37be 8ad8 22c0 13af 863f 4cbd 09be
00000030: a98f cb3f 8650 a23e e82d 6f40 6bc9 16bf
00000040: 6cf3 733f ade5 75be 0f97 1840 e5da ed3d
00000050: 0211 043f 314d 2e3f 7053 4d3d 96e0 4640
00000060: af15 a8bf 8b48 fc3f 2271 5c3f 81e1 063f
00000070: 6f27 2fc0 2ef0 483f 80f2 0040 49ee a33f
00000080: 88a2 38bf 9d6d d3be 663c bb3f 4e3f c63f
00000090: 74d5 7cbf 3de9 15bf c323 613e d4a8 45c0

lstm.weight_hh_l0 f4 [40, 10]
1.2634909 0.08982523 0.6722625 0.6781107 -0.53152704 2.4237747 -1.0660783 0.3805692
-1.9709554 3.8630219 -1.2130741 1.3669132 -2.7527866 0.8330531 1.8681914 -0.7479868
1.4114189 2.0707724 1.6019291 0.59552807 0.9319458 1.3101941 0.5484557 0.20853011
-0.84996307 -0.85744953 -1.4698021 0.12981384 1.8172337 -0.9306585 -0.7052479 1.1509677
0.7887054 3.5280564 -2.1949663 1.5207744 -1.7564127 -0.7021556 -1.6648251 -0.7219788
-1.7596899 0.8369998 -0.53326863 -0.59228396 1.9937987 -2.0069072 0.33424163 -2.0742593
2.9574656 0.98945224 -4.2323318 1.9843333 1.0812429 0.89020026 -2.1829927 1.6338023
-2.3412755 0.43260536 -0.21214917 1.9627672 1.4068968 1.454545 3.4156206 -1.3737142
-1.1272473 0.6307636 0.36540237 2.936927 -3.171073 0.46180138 -1.6626035 -1.1895695
0.02031043 0.25481284 0.39952365 0.45210782 -0.445787 -1.6813456 0.66588527 -0.08060709
-2.4668398 2.0098429 1.8529772 1.2587445 -3.9109275 1.486432 -1.5718164 -0.113362364
0.11616684 1.7970581 -1.4388345 3.2910013 1.9196839 0.31930977 -1.3137164 0.23532556
-0.37754336 2.286473 -0.1099551 -1.5039357 2.4441192 0.31426194 -0.54564047 -0.4787308
-0.24134444 -1.0009425 1.9132175 2.486005 -1.6156138 -0.7378374 -3.3903902 0.34659857
-3.5276287 0.23263863 1.1551024 -3.7027884 0.49011368 -1.1275247 4.4965744 1.0380185
1.6595716 1.9831499 0.10803482 -0.750812 0.035752892 0.6791533 -2.4378192 -0.33388877
0.3606103 -3.9189222 1.0922297 1.8192858 0.9408037 3.064954 -0.80604696 -0.5123082
2.0181017 1.5151815 0.36189505 1.6217755 -0.47353694 1.8885098 -0.3295267 0.5612908
-0.7848396 0.16372082 0.3478564 -3.6091235 0.041398063 -4.0736885 -0.19499214 4.354366
3.2220056 0.62887675 -1.8499383 1.1340562 -0.92682326 1.2146709 1.4226142 0.7881624
1.7166013 1.5810742 -0.62842137 -1.1620219 -0.23028967 -2.7370248 0.08602377 2.5545046
1.7902282 -0.9207024 -3.4689486 -0.78736657 3.656972 -1.6777729 -2.138978 -1.5670503
0.17250018 0.8183482 0.037226014 0.1429809 -0.30179217 -1.9561465 1.0979482 1.9151012
-1.2256522 -1.0851117 -0.7653723 3.6969268 -0.35356438 -0.9045333 -1.2776681 -1.0133339
-0.0049867784 1.9283385 0.82865053 0.41328248 -0.64857906 -1.0647634 2.8136034 -1.0335933
-0.012450508 -3.4362783 -0.20345438 2.7596743 2.167178 1.1166695 1.8377278 -1.4561566
-0.606257 1.5220184 -0.12630285 -1.1802504 -1.0217942 -0.84344304 3.5286622 -1.2542589
0.29436657 2.202912 1.2989434 -2.1081254 0.64924884 1.6436855 1.3159155 -1.1135299
-0.5837386 -1.0348651 1.0953939 1.6182945 0.31528333 0.6049183 1.2484604 2.983835
-0.20123953 0.0515265 -1.7115649 -0.25389186 -0.8401933 -1.495969 -0.30686232 -0.82828933
-1.4775952 -1.4341506 -0.38693312 1.3973918 0.11444593 0.19758555 -0.13412532 -1.1932032
1.1141429 -0.14833148 -1.6446477 -0.66363794 0.74258363 -0.706752 -0.9519966 1.6880769
00000000: 12ba a13f 4af6 b73d 6519 2c3f aa98 2d3f
00000010: 2812 08bf 201f 1b40 4175 88bf f7d9 c23e
00000020: 4448 fcbf c03b 7740 0346 9bbf 03f7 ae3f
00000030: a82d 30c0 f842 553f e520 ef3f 107c 3fbf
00000040: 60a9 b43f 8987 0440 030c cd3f 8774 183f
00000050: 0094 6e3f 71b4 a73f 9867 0c3f eb88 553e
00000060: 2e97 59bf d081 5bbf 7a22 bcbf ebed 043e
00000070: 1d9b e83f a33f 6ebf 208b 34bf e952 933f
00000080: 99e8 493f adcb 6140 547a 0cc0 bca8 c23f
00000090: 22d2 e0bf 78c0 33bf fd18 d5bf 9ad3 38bf
000000a0: 853d e1bf 9e45 563f 4b84 08bf ec9f 17bf
000000b0: cc34 ff3f 2b71 00c0 b821 ab3e aac0 04c0
000000c0: 1e47 3d40 be4c 7d3f 436f 87c0 a2fe fd3f
000000d0: 2b66 8a3f 2ae4 633f 27b6 0bc0 6f20 d13f
000000e0: 75d7 15c0 737e dd3e a23d 59be f53b fb3f
000000f0: 3215 b43f 882e ba3f 8799 5a40 ded5 afbf
00000100: a449 90bf b979 213f 0516 bb3e 9df6 3b40
00000110: dcf2 4ac0 3b71 ec3e 31d0 d4bf d043 98bf
00000120: 0f62 a63c d476 823e 5d8e cc3e ad7a e73e
00000130: 323e e4be 5536 d7bf 7577 2a3f 5415 a5bd
00000140: b4e0 1dc0 44a1 0040 5b2e ed3f 8a1e a13f
00000150: a34c 7ac0 6743 be3f 4831 c9bf 872a e8bd
00000160: e1e8 ed3d 0006 e63f bb2b b8bf c49f 5240
00000170: 34b8 f53f 927c a33e dc27 a8bf 2ff9 703e
00000180: 5d4d c1be 9355 1240 2430 e1bd f780 c0bf
00000190: 736c 1c40 f1e6 a03e 18af 0bbf 341c f5be
000001a0: ff22 77be e21e 80bf 50e4 f43f b51a 1f40
000001b0: 6fcc cebf e9e2 3cbf 27fc 58c0 5e75 b13e
000001c0: abc4 61c0 d238 6e3e 65da 933f 7cfa 6cc0
000001d0: 2ef0 fa3e bb52 90bf f0e3 8f40 cadd 843f
000001e0: d86c d43f dbd7 fd3f 5c41 dd3d 3735 40bf
000001f0: a071 123d fedc 2d3f 3b05 1cc0 78f3 aabe
00000200: eaa1 b83e 9fcf 7ac0 2fce 8b3f 5bde e83f
00000210: 83d8 703f 3528 4440 1859 4ebf a126 03bf
00000220: 9428 0140 78f1 c13f 4f4a b93e 5796 cf3f
00000230: 6f73 f2be b0ba f13f b9b7 a8be c1b0 0f3f
00000240: 3feb 48bf 6ea6 273e 3c1a b23e e1fb 66c0
00000250: 0491 293d a85b 82c0 05ac 47be f756 8b40
00000260: 5735 4e40 11fe 203f c7ca ecbf c128 913f
00000270: 4a44 6dbf 567a 9b3f 3918 b63f 03c5 493f
00000280: 97b9 db3f a460 ca3f 39e0 20bf 22bd 94bf
00000290: 0ed1 6bbe 6a2b 2fc0 3b2d b03d 017d 2340
000002a0: 3326 e53f 27b3 6bbf 4103 5ec0 db90 49bf
000002b0: d40b 6a40 43c1 d6bf 04e5 08c0 1b95 c8bf
000002c0: e3a3 303e 457f 513f 4e7a 183d 9669 123e
000002d0: 8184 9abe 0263 fabf 9189 8c3f 0922 f53f
000002e0: 2ce2 9cbf f1e4 8abf 70ef 43bf 739a 6c40
000002f0: 6406 b5be 7f8f 67bf a18a a3bf edb4 81bf
00000300: 2168 a3bb ccd3 f63f 7122 543f c399 d33e
00000310: 4709 26bf 2b4a 88bf 1412 3440 c94c 84bf
00000320: 37fd 4bbc fceb 5bc0 5856 50be 819e 3040
00000330: 0bb3 0a40 07ef 8e3f aa3a eb3f 5763 babf
00000340: a933 1bbf 80d1 c23f 8955 01be 7212 97bf
00000350: 27ca 82bf e2eb 57bf 9ad5 6140 8e8b a0bf
00000360: 37b7 963e 83fc 0c40 c743 a63f 87eb 06c0
00000370: 2c35 263f 4964 d23f eb6f a83f 2688 8ebf
00000380: e56f 15bf 7676 84bf de35 8c3f 4624 cf3f
00000390: d16c a13e eddb 1a3f 8dcd 9f3f 27f7 3e40
000003a0: bc11 4ebe 740d 533d 8f14 dbbf 1dfe 81be
000003b0: e816 57bf ea7b bfbf 0f1d 9dbe c50a 54bf
000003c0: d721 bdbf 3f92 b7bf 191c c6be bcdd b23f
000003d0: a162 ea3d de53 4a3e 2658 09be e2ba 98bf
000003e0: 3c9c 8e3f 35e4 17be d183 d2bf 2de4 29bf
000003f0: f619 3e3f b3ed 34bf 0db6 73bf e712 d83f

lstm.bias_ih_l0 f4 [40]
1.4369489 0.38176885 2.0598779 0.9587689 -0.5671208 1.3816649 -0.21742879 0.4799867
2.673738 -1.1675005 -0.06619906 -0.07710333 -0.23367831 0.21891986 0.25288168 1.304741
-0.46487844 -1.5173148 -0.21668324 0.21821149 -0.86461323 -1.6399971 -2.0895302 1.4954869
0.8559916 0.5955898 -1.9202044 -0.9009435 -0.55174047 1.0137675 0.81340176 0.52488357
-0.8597183 1.6980474 0.17719303 0.5613841 -0.26850456 0.20803839 2.3784642 -0.52252597
00000000: f1ed b73f 3577 c33e 0ad5 0340 e171 753f
00000010: d42e 11bf 65da b03f a7a5 5ebe d1c0 f53e
00000020: 861e 2b40 a870 95bf 5f93 87bd 5ae8 9dbd
00000030: 5e49 6fbe 872c 603e b579 813e c101 a73f
00000040: 8c04 eebe 5f37 c2bf 36e2 5dbe d572 5f3e
00000050: 4b57 5dbf 6deb d1bf ddba 05c0 1d6c bf3f
00000060: 4422 5b3f 9378 183f 42c9 f5bf 3ca4 66bf
00000070: dd3e 0dbf 22c3 813f 193b 503f c55e 063f
00000080: 8016 5cbf 9e59 d93f 1772 353e deb6 0f3f
00000090: 6e79 89be 0408 553e c238 1840 43c4 05bf

lstm.bias_hh_l0 f4 [40]
1.4568717 -0.04696928 1.6120666 1.1354182 -0.27069688 1.1417214 0.19846171 0.49567932
2.809203 -0.68815947 -0.11671777 -0.43464804 0.30140746 0.35089636 -0.004841936 1.1719515
-0.49870574 -1.3584837 -0.43583193 0.05580783 -0.4295139 -1.2470529 -1.9851285 1.0762877
1.0142992 0.21256125 -2.3983722 -0.75690985 -0.54868436 0.70258456 1.0702628 0.22267956
-0.65680224 1.8576412 0.52471477 -0.0015491616 -0.31908628 -0.1295172 2.3162134 -0.5010939
00000000: c67a ba3f dc62 40bd 3358 ce3f 6255 913f
00000010: c898 8abe ed23 923f 8c39 4b3e aec9 fd3e
00000020: fbc9 3340 382b 30bf ba09 efbd 308a debe
00000030: 1452 9a3e b0a8 b33e 1aa9 9ebb 8202 963f
00000040: 5c56 ffbe cbe2 adbf 5d25 dfbe c096 643d
00000050: 3fe9 dbbe 6e9f 9fbf b118 febf ccc3 893f
00000060: 8ed4 813f a8a9 593e ee7e 19c0 d8c4 41bf
00000070: 9476 0cbf 95dc 333f 5ffe 883f 1c06 643e
00000080: 3124 28bf 30c7 ed3f b553 063f 3d0d cbba
00000090: 475f a3be 28a0 04be d73c 1440 b147 00bf

lstm.weight_ih_l0_reverse f4 [40, 1]
-0.7019678 0.8697837 -0.011650497 0.8435327 -0.6044337 0.4690783 0.6410078 -0.9380373
0.18940042 -0.9751313 -0.24083489 1.5155681 0.9146707 -0.7819341 1.0227886 1.1258767
2.0507824 -0.4254678 -0.58448976 -1.6760814 -1.4154328 0.97643584 1.5299907 -0.9104191
0.7625621 -0.30030268 -0.5993271 -1.2359296 0.7437976 -1.8329508 1.7590072 3.0772133
-2.266937 0.7706503 3.9665804 0.996171 -0.05538474 -0.5625473 1.7301075 -0.5521216
00000000: 29b4 33bf 25aa 5e3f bae1 3ebc c2f1 573f
00000010: 2bbc 1abf 082b f03e 1619 243f 3623 70bf
00000020: 2ff2 413e 34a2 79bf 6c9d 76be 23fe c13f
00000030: dc27 6a3f d52c 48bf bdea 823f ba1c 903f
00000040: 0540 0340 ead6 d9be 1fa1 15bf d689 d6bf
00000050: e72c b5bf b3f7 793f bcd6 c33f 3a11 69bf
00000060: 4537 433f 46c1 99be 806d 19bf f132 9ebf
00000070: 8569 3e3f 229e eabf 2627 e13f 10f1 4440
00000080: 7f15 11c0 5749 453f 74dc 7d40 1005 7f3f
00000090: 1cdb 62bd 1a03 10bf 2a74 dd3f d757 0dbf

lstm.weight_hh_l0_reverse f4 [40, 10]
-1.5160373 1.9275261 -6.6912603 0.5280995 0.64148355 0.3764735 -0.37541312 -1.6758122
0.2981341 -0.6458045 0.31627733 2.9458206 -0.5369669 -3.085361 0.057206154 -1.7089348
0.41459665 -1.0726252 2.6354163 -0.4755937 -1.6586521 0.11825218 1.0596402 -0.80984515
2.6610181 -0.7831978 -0.6344301 -0.58948535 2.1059635 -2.1219714 2.0666802 -0.9102165
0.59031564 -0.07150743 1.4969454 0.8985662 0.23405428 2.5472534 1.200053 0.53667545
-1.0498607 -0.9153632 -0.74816316 0.6642147 0.34369123 -0.50742257 2.3221848 -0.08849357
0.93468285 3.112499 0.14813706 1.0613161 -1.1135238 -1.6449002 -2.263657 -1.5758648
-0.2919202 -2.0083878 -0.9073047 -0.21630932 -0.85905814 -0.3035807 1.0149107 -0.39423326
5.957629 2.1850367 0.19236381 0.5618017 0.34940073 -0.950216 0.8607181 1.7376411
-3.2582972 -2.3224573 1.626951 -3.5728848 0.7736439 1.1494125 0.7117432 -0.4555918
-0.4937157 6.699064 -2.585964 -0.21371192 0.024111103 0.5812105 -3.1698442 -2.5950298
-1.0596299 3.1066437 1.0127165 1.6727843 -3.8579357 -1.8190433 2.4752617 -1.0966854
-1.1248931 1.4622254 1.5509329 2.7723904 -1.9533368 0.1092321 0.2704772 2.8845816
1.2867968 2.632437 4.468658 -0.6876875 -3.2927713 1.5457793 -0.67674893 -0.7257387
0.104013816 1.69465 -2.250109 0.6945948 1.8640616 -0.5940985 -0.2258 0.67764574
-2.6110973 0.28801808 -1.998985 -0.91672224 1.3309133 -1.1202269 -1.9583443 -0.6838448
2.1142857 -0.6714689 -0.5412785 3.1786542 0.8131621 1.9890631 0.22619124 0.28223673
1.3127627 1.9225523 0.12469338 2.2752056 -1.4433421 3.9651296 -0.999113 -2.2173672
2.2602267 -0.75836927 -3.1518755 -1.249443 0.7752357 1.7567295 2.4160223 0.7023312
0.709955 1.9026089 -0.41315526 1.3188858 1.0559121 1.2448962 -1.7057531 -0.019277966
-1.7316732 -0.43323827 2.6354072 -0.43967125 -0.38904023 1.7345709 2.721642 -1.8120476
1.2883719 -1.6589693 -2.6389794 1.1247386 1.7465541 -3.7474768 2.2691565 -3.352302
2.989662 -2.8731787 1.8357815 -1.8100675 -2.903358 2.7218914 -1.2280717 -1.9156208
1.9879665 -1.5988362 -3.8130805 -0.66259503 1.1899083 -0.8376105 -0.24036616 1.2182055
2.7055016 -2.3362973 2.5724282 -1.5620891 -2.0365708 -0.85795903 1.3604457 -0.84271497
0.48338524 1.4328034 1.6072145 -2.5851793 1.5223794 -0.9688884 -0.7341982 0.33876818
1.52274 -1.4204895 -0.4841578 1.3825434 -0.43478537 2.3506994 1.1328437 1.7625208
1.8814542 0.348464 -2.0882235 1.185199 -2.3588533 -1.173494 0.9194304 0.76049036
3.1356947 1.2417787 -0.5902336 -1.4117459 -0.5552559 -0.39672625 -2.0752618 -2.9104369
0.32182956 0.7182364 -1.2381423 -0.10135807 3.8384428 -1.0223944 -0.30843472 -1.0425657
-3.8333278 0.65830004 1.6873934 0.3626884 0.11540807 0.112963825 -2.0190187 -3.2517567
2.3415637 -1.5704352 -0.11193922 -3.7662036 4.3944407 0.9589619 -0.8748612 -0.09934452
00000000: 830d c2bf 2db9 f63f ce1e d6c0 8731 073f
00000010: 4438 243f 22c1 c03e 2636 c0be 0481 d6bf
00000020: 08a5 983e 7253 25bf 1aef a13e 5388 3c40
00000030: aa76 09bf 8e76 45c0 0051 6a3d 60be dabf
00000040: 0346 d43e c84b 89bf a9aa 2840 0481 f3be
00000050: b64e d4bf 332e f23d 4aa2 873f 0352 4fbf
00000060: 1f4e 2a40 a77f 48bf 036a 22bf 83e8 16bf
00000070: 1bc8 0640 61ce 07c0 7d44 0440 f303 69bf
00000080: ed1e 173f 7d72 92bd e89b bf3f 6f08 663f
00000090: edab 6f3e 3306 2340 569b 993f 9063 093f
000000a0: d661 86bf 3e55 6abf 9f87 3fbf f909 2a3f
000000b0: 4cf8 af3e 72e6 01bf ad9e 1440 1e3c b5bd
000000c0: 6047 6f3f 2f33 4740 3eb1 173e 35d9 873f
000000d0: f387 8ebf 178c d2bf c2df 10c0 f0b5 c9bf
000000e0: 9176 95be 6d89 00c0 1f45 68bf 3180 5dbe
000000f0: 3ceb 5bbf ee6e 9bbe 98e8 813f f1d8 c9be
00000100: e6a4 be40 a4d7 0b40 05fb 443e 3cd2 0f3f
00000110: a7e4 b23e 5b41 73bf 0558 5c3f 066b de3f
00000120: f187 50c0 24a3 14c0 ee3f d03f 25aa 64c0
00000130: 870d 463f f31f 933f cd34 363f 5443 e9be
00000140: 4ec8 fcbe bb5e d640 6f80 25c0 4cd7 5abe
00000150: a684 c53c 36ca 143f bade 4ac0 f814 26c0
00000160: f4a1 87bf 40d3 4640 b2a0 813f cc1d d63f
00000170: 6be8 76c0 69d6 e8bf b06a 1e40 3060 8cbf
00000180: 7ffc 8fbf 342a bb3f f884 c63f d86e 3140
00000190: f106 fabf 14b5 df3d fd7b 8a3e fc9c 3840
000001a0: c2b5 a43f d979 2840 3fff 8e40 4a0c 30bf
000001b0: c4bc 52c0 19dc c53f 6b3f 2dbf 03ca 39bf
000001c0: 3205 d53d 4bea d83f c901 10c0 f7d0 313f
000001d0: 9299 ee3f d716 18bf 1d38 67be 317a 2d3f
000001e0: 381c 27c0 1b77 933e bede ffbf 4fae 6abf
000001f0: 5e5b aa3f 9863 8fbf 07ab fabf 7410 2fbf
00000200: 7550 0740 63e5 2bbf 3a91 0abf 126f 4b40
00000210: 642b 503f 9f99 fe3f ad9e 673e 5581 903e
00000220: 9c08 a83f 3216 f63f 3e5f ff3d f89c 1140
00000230: 6fbf b8bf afc4 7d40 dfc5 7fbf 58e9 0dc0
00000240: 8ea7 1040 7d24 42bf 54b8 49c0 c0ed 9fbf
00000250: d975 463f 83dc e03f 1ca0 1a40 facb 333f
00000260: 9cbf 353f b088 f33f 1689 d3be 40d1 a83f
00000270: 2128 873f c258 9f3f 1e56 dabf d3ec 9dbc
00000280: 78a7 ddbf 68d1 ddbe 83aa 2840 971c e1be
00000290: 4830 c7be 6b06 de3f 622f 2e40 2df1 e7bf
000002a0: 5fe9 a43f 1b59 d4bf 0ae5 28c0 6ff7 8f3f
000002b0: 168f df3f a9d6 6fc0 dc39 1140 1e8c 56c0
000002c0: 9f56 3f40 29e2 37c0 e3fa ea3f 4bb0 e7bf
000002d0: 9ed0 39c0 7833 2e40 7431 9dbf 1033 f5bf
000002e0: b075 fe3f aaa6 ccbf 8309 74c0 d49f 29bf
000002f0: ea4e 983f a46d 56bf 8c22 76be 28ee 9b3f
00000300: f026 2d40 e585 15c0 aaa2 2440 89f2 c7bf
00000310: 2d57 02c0 34a3 5bbf 1623 ae3f 2bbc 57bf
00000320: 457e f73e 1a66 b73f 34b9 cd3f 9473 25c0
00000330: 54dd c23f 1209 78bf 6af4 3bbf 0673 ad3e
00000340: 25e9 c23f 9ad2 b5bf 88e3 f7be 2ff7 b03f
00000350: 309c debe dc71 1640 0601 913f 489a e13f
00000360: 7ed3 f03f e069 b23e 74a5 05c0 9ab4 973f
00000370: 74f7 16c0 0d35 96bf ca5f 6b3f 7faf 423f
00000380: 39af 4840 9bf2 9e3f 8d19 17bf 17b4 b4bf
00000390: 4025 0ebf b41f cbbe 17d1 04c0 9944 3ac0
000003a0: d8c6 a43e 57de 373f 727b 9ebf d294 cfbd
000003b0: 0ca9 7540 d2dd 82bf 28eb 9dbe cb72 85bf
000003c0: 3e55 75c0 5a86 283f 82fc d73f 4bb2 b93e
000003d0: 115b ec3d 9459 e73d 9a37 01c0 c81c 50c0
000003e0: 2edc 1540 0504 c9bf 6440 e5bd 7b09 71c0
000003f0: 429f 8c40 877e 753f e7f6 5fbf 2475 cbbd

lstm.bias_ih_l0_reverse f4 [40]
1.8371961 0.17295907 3.1608164 1.4227393 2.6096091 -1.8614882 -1.1646605 1.1817428
-0.6088052 -0.03537226 0.64314646 -0.030673565 1.7026627 -0.43871236 -0.52440596 -1.1016957
0.014516149 0.8518486 0.03875471 0.24055438 0.36190486 -1.3341997 0.5261038 1.5641552
-0.23369278 0.8960076 0.8884138 0.14038493 -0.03912239 -0.021666462 0.08101567 0.056727096
1.0010976 0.14376578 0.18262075 -1.2777674 2.0332186 0.6721937 -0.043051116 0.26218337
00000000: 3e29 eb3f 2f1c 313e d14a 4a40 521c b63f
00000010: d603 2740 3f45 eebf 9813 95bf 5943 973f
00000020: a8da 1bbf 81e2 10bd 3fa5 243f 2147 fbbc
00000030: daf0 d93f e89e e0be 783f 06bf 5d04 8dbf
00000040: 24d5 6d3c c012 5a3f 42bd 1e3d e353 763e
00000050: 984b b93e 0ec7 aabf bdae 063f 3d36 c83f
00000060: 294d 6fbe c160 653f 166f 633f 11c1 0f3e
00000070: cd3e 20bd dd7d b1bc 8beb a53d ac5a 683d
00000080: f723 803f 5637 133e ef00 3b3e e28d a3bf
00000090: 4120 0240 e314 2c3f 5e56 30bd e63c 863e

lstm.bias_hh_l0_reverse f4 [40]
1.8281254 0.006619345 3.0496743 1.8956496 2.05365 -1.9884912 -1.1831334 1.2479513
-1.1141317 0.25044587 0.073380515 -0.20812257 1.4837482 -0.04372123 -0.46412337 -1.0606608
0.02793231 0.75600356 0.010379602 0.15577705 0.13986336 -1.3325706 0.8686728 1.1268843
-0.40373072 0.9656866 0.74529535 0.16061369 0.48022258 0.2536623 0.22863828 -0.0299027
1.3098615 -0.070338026 0.563878 -1.5708867 2.3615172 0.59600043 -0.024929393 0.42575234
00000000: 0300 ea3f 17e7 d83b dd2d 4340 a5a4 f23f
00000010: 006f 0340 e186 febf ea70 97bf debc 9f3f
00000020: de9b 8ebf 713a 803e 8648 963d 151e 55be
00000030: 76eb bd3f 0815 33bd 94a1 edbe bcc3 87bf
00000040: 4dd2 e43c 7389 413f 350f 2a3c 0584 1f3e
00000050: 5738 0f3e ac91 aabf 5761 5e3f bf3d 903f
00000060: cbb5 cebe 3d37 773f adcb 3e3f ea77 243e
00000070: bcdf f53e 06e0 813e 2720 6a3e 82f6 f4bc
00000080: 8ba9 a73f 620d 90bd 4f5a 103f d112 c9bf
00000090: 1923 1740 7c93 183f ba38 ccbc 36fc d93e

lstm.weight_ih_l1 f4 [40, 20]
0.27327833 -1.1190706 4.118373 -0.02522102 -1.4715804 1.3862587 0.42823642 -0.1355564
-2.524199 -2.821738 -2.6645858 2.2950857 -2.7530158 -1.7973998 -0.01947231 -0.63347363
0.80536807 -1.0603875 0.16274196 0.32190847 0.6793893 1.5666195 -0.6946769 1.5634508
-1.0211657 1.7130573 1.2885462 -0.0836015 0.3285312 2.5148 -1.2203737 1.3117514
1.3342675 -0.600682 1.0291041 -1.1958108 -1.3161162 -0.3240043 0.74151045 -0.21594913
0.6604429 -1.2541461 -1.2548901 -0.12725516 -2.1264892 2.4849741 -0.5737163 -1.1527119
0.72118956 -0.8093893 -1.2299817 1.7389957 -1.3919656 0.44559887 -1.3702443 -0.9241927
-1.5726329 2.353964 1.6520402 3.0661292 -0.1512945 -0.2565478 0.25524166 1.5228196
-1.1004521 1.465601 0.24241702 -1.5481675 -0.19082676 -0.19883293 -1.7360736 1.1863775
-1.2691504 0.31750852 0.3258866 -0.44814312 -0.18343428 -0.57144177 0.31180382 2.9700437
0.19352001 0.8556896 1.0454943 -2.0179107 1.5523787 -2.8881893 0.69581217 3.297076
1.9148167 -0.042124648 4.2698565 -0.3769131 0.28126463 -0.70979357 -1.1349229 -1.1969068
0.8338977 4.046068 -1.2490683 3.1494272 -1.0235691 0.014096519 1.8290074 -0.992586
-1.3937658 1.6067989 -0.1643814 -2.3765304 0.26949775 1.1527364 1.6118771 1.2119198
-0.7543743 -1.8663981 -0.3574828 -0.53209037 0.44453064 1.6397504 2.3337574 -0.436344
-0.56718326 -1.329497 0.5586002 -1.616373 0.9838352 0.09639021 -1.1106342 -0.8497056
-1.2512114 -0.4565945 -0.7984572 1.475115 2.5198355 -2.198427 0.64107215 0.3890956
1.1694132 -2.581959 1.6640493 -1.0059271 1.3532895 -2.8155568 -0.24797721 3.5562167
-0.49866152 2.1529326 0.61835015 1.5835493 -0.6143971 0.12836052 0.4534422 -1.6069344
1.3472221 2.1914558 -1.4318655 1.8120569 0.1637619 0.90880215 -1.1338937 0.8320503
-0.16673759 0.059326522 -0.35471925 1.6489024 1.1182168 -1.305493 -2.3704615 -2.5215218
0.13495763 0.7572675 1.2715423 -0.19715984 -0.27335325 1.1278088 -1.9700758 1.6229589
2.6843717 1.2911484 0.15970942 1.0458163 -0.025735222 0.5533977 -1.860686 1.498044
0.3599418 -0.79810053 1.2499814 0.12360224 1.6622925 -2.1367 -0.040779382 -0.44416144
1.3983312 -0.54833126 -3.4826598 -2.0684671 1.396449 -1.0867268 -0.39474934 1.1873454
3.3976755 -0.36288813 0.045112226 2.6953874 0.7683708 -2.591664 3.010143 4.124978
-0.9410491 -1.14596 -1.2097226 -0.73844993 -0.3157724 -0.027196323 1.2747242 0.8545679
2.3757567 -0.87946105 -0.4723489 -1.0917795 2.4970691 -0.3101983 0.81699586 0.6036432
-0.32831937 -0.2806124 -1.7864326 1.3591144 -1.4787997 -3.281598 0.8142388 -0.5411291
-0.83371735 -0.31284928 -1.117017 1.1353799 -0.44302917 2.0659533 0.06921 1.0725207
1.6090245 1.3998514 -0.79153943 -0.094351925 -1.9953897 -1.1528001 -4.736105 -0.56061757
-0.40097922 -0.968981 0.36983287 -2.6887827 1.4701469 -0.5849214 1.3579851 -1.7857299
00000000: 23eb 8b3e b53d 8fbf b6c9 8340 509c cebc
00000010: bf5c bcbf ed70 b13f ce41 db3e 4ccf 0abe
00000020: 7a8c 21c0 5b97 34c0 9388 2ac0 afe2 1240
00000030: 6931 30c0 3211 e6bf 6584 9fbc 542b 22bf
00000040: 9a2c 4e3f c7ba 87bf d4a5 263e 30d1 a43e
00000050: 75ec 2d3f fd86 c83f 58d6 31bf 281f c83f
00000060: 8fb5 82bf 7645 db3f 15ef a43f 4337 abbd
00000070: 3e35 a83e 7cf2 2040 3535 9cbf 78e7 a73f
00000080: 47c9 aa3f 4cc6 19bf afb9 833f 5410 99bf
00000090: 7f76 a8bf e4e3 a5be a1d3 3d3f c521 5dbe
000000a0: c912 293f dc87 a0bf 3da0 a0bf 2d4f 02be
000000b0: 6618 08c0 d109 1f40 12df 12bf 108c 93bf
000000c0: e19f 383f 2334 4fbf 0a70 9dbf 6997 de3f
000000d0: ee2b b2bf 8925 e43e 2a64 afbf e597 6cbf
000000e0: 094c c9bf 59a7 1640 0e76 d33f 763b 4440
000000f0: f2ec 1abe 3c5a 83be 09af 823e c1eb c23f
00000100: 9ddb 8cbf d098 bb3f 2b3c 783e 5a2a c6bf
00000110: 1768 43be dc9a 4bbe a937 debf 38db 973f
00000120: 8573 a2bf 7a90 a23e 9cda a63e 0473 e5be
00000130: 32d6 3bbe 024a 12bf c0a4 9f3e 3215 3e40
00000140: 1c2a 463e 790e 5b3f c2d2 853f 7325 01c0
00000150: 58b4 c63f 18d8 38c0 bf20 323f 4b03 5340
00000160: b718 f53f e58a 2cbd aaa2 8840 c1fa c0be
00000170: eb01 903e 08b5 35bf 2745 91bf 3e34 99bf
00000180: 527a 553f 6479 8140 78e1 9fbf 3790 4940
00000190: 5004 83bf 16f5 663c ea1c ea3f 1e1a 7ebf
000001a0: eb66 b2bf 96ab cd3f 9953 28be 1319 18c0
000001b0: 9cfb 893e de8c 933f fd51 ce3f 3020 9b3f
000001c0: ad1e 41bf 22e6 eebf fc07 b7be 1337 08bf
000001d0: 8599 e33e 57e3 d13f 485c 1540 7b68 dfbe
000001e0: ec32 11bf f52c aabf 6c00 0f3f 4fe5 cebf
000001f0: a0dc 7b3f 3b68 c53d 4329 8ebf 4e86 59bf
00000200: b227 a0bf c1c6 e9be b167 4cbf 91d0 bc3f
00000210: fc44 2140 07b3 0cc0 4e1d 243f 8a37 c73e
00000220: 55af 953f d13e 25c0 91ff d43f 38c2 80bf
00000230: 9738 ad3f 1532 34c0 bded 7dbe 0e99 6340
00000240: 9050 ffbe a6c9 0940 324c 1e3f beb1 ca3f
00000250: 2149 1dbf f170 033e 9329 e83e 07b0 cdbf
00000260: c671 ac3f d040 0c40 5e47 b7bf 7bf1 e73f
00000270: 33b1 273e 42a7 683f 6e23 91bf 4001 553f
00000280: 42bd 2abe 5e00 733d c39d b5be 3c0f d33f
00000290: ba21 8f3f 651a a7bf a4b5 17c0 9d60 21c0
000002a0: 5532 0a3e 48dc 413f e6c1 a23f 45e4 49be
000002b0: f5f4 8bbe 0a5c 903f 722b fcbf 1ebd cf3f
000002c0: bfcc 2b40 5a44 a53f de8a 233e 4fdd 853f
000002d0: acd2 d2bc 79ab 0d3f f52a eebf e8bf bf3f
000002e0: 4b4a b83e 5150 4cbf 64ff 9f3f 2c23 fd3d
000002f0: 00c6 d43f b1bf 08c0 4808 27bd 2169 e3be
00000300: 84fc b23f 705f 0cbf e6e3 5ec0 c461 04c0
00000310: d7be b23f dd19 8bbf 961c cabe effa 973f
00000320: 8473 5940 79cc b9be 99c7 383d 3a81 2c40
00000330: f3b3 443f d3dd 25c0 2fa6 4040 d2ff 8340
00000340: 98e8 70bf d1ae 92bf 31d8 9abf 0e0b 3dbf
00000350: ecac a1be d3ca debc 2a2a a33f f6c4 5a3f
00000360: 660c 1840 5c24 61bf b7d7 f1be 6ebf 8bbf
00000370: fbcf 1f40 50d2 9ebe a426 513f 5c88 1a3f
00000380: 7a19 a8be 6eac 8fbe d3a9 e4bf 76f7 ad3f
00000390: 4f49 bdbf b405 52c0 f471 503f 7087 0abf
000003a0: 806e 55bf c82d a0be 6afa 8ebf 2154 913f
000003b0: b8d4 e2be 9438 0440 f9bd 8d3d 5c48 893f
000003c0: 84f4 cd3f 552e b33f 54a2 4abf 953b c1bd
000003d0: ee68 ffbf f48e 93bf 2c8e 97c0 a284 0fbf
000003e0: 264d cdbe 240f 78bf bc5a bd3e 0415 2cc0
000003f0: c62d bc3f 69bd 15bf 75d2 ad3f cc92 e4bf

lstm.weight_hh_l1 f4 [40, 10]
-0.19686295 0.45578346 1.5589244 0.9749077 -2.173008 0.9145257 0.5153085 -0.37870547
0.21671756 -2.2841246 -0.018442515 -0.9889951 -3.9326823 2.0737824 -1.3529031 3.0493696
0.44895223 3.6081567 -0.913035 0.72322977 -3.3163257 -1.9561056 -1.3586605 -1.5027306
-0.82486963 -1.009831 0.6476247 1.2863259 -0.3495887 0.8897014 2.3086085 1.0365336
0.5609704 -1.1017551 0.004271588 2.763755 1.732899 1.6408873 -2.0808043 2.4282773
-0.42871138 1.4188867 0.7358314 -0.21840031 -1.492427 -2.294402 -5.033789 1.8427447
0.58321416 0.7195914 -0.6989149 0.5297126 1.6915447 -1.9587827 -2.010038 -0.3075061
1.596473 1.5532246 -0.28016564 0.8742409 1.22868 1.1718951 -3.196395 -1.0188866
1.7462305 -1.5837407 1.9337937 0.38391766 -1.3284554 0.41178924 0.31802756 -3.0006714
-2.2618508 3.271429 -2.1600583 2.238982 2.2530828 1.082985 -2.8157983 2.8107817
-0.79774994 1.0669605 2.3966274 0.07510515 0.4335068 2.2927682 2.8793445 -1.9110351
-0.22866814 0.84581554 0.79682297 0.9201489 0.2924533 -2.3198576 -2.3165321 -0.80052745
-1.0969956 -3.7446117 -0.38321704 -0.90856713 0.3173055 0.9844155 1.1976652 1.0834823
0.10231774 0.1902094 -0.45686466 0.2982254 2.2697453 1.8806144 -1.2843329 2.6486173
-0.516174 -1.694483 1.9011096 -1.016157 -0.5038122 -1.1940905 1.1857944 1.2998769
-2.3795536 1.547884 3.594994 -1.7659162 0.6805791 -0.48664364 -1.0304626 -1.5242038
-1.2448289 -1.2597337 -2.1801617 0.9085957 2.3534002 -2.0267704 -0.53645355 -0.7096857
-1.8737111 -0.081437685 0.27806544 -0.04958579 -0.2871037 1.3177503 -0.38115528 -3.2098515
-0.72062296 0.78107655 0.27592248 1.5783322 0.54960847 0.28459093 0.63560134 0.6745107
-2.5774693 1.1129501 1.7502084 1.0325534 -0.7449279 -1.0255353 1.0378369 2.6631854
-0.08180316 0.10724558 -0.1169782 -1.3292117 -3.0224938 -1.9411912 -1.0265683 0.8220346
1.1823592 3.237417 1.5092562 -0.34839955 -0.78242934 -0.5386513 -0.99941677 1.2976902
-0.6803598 1.1671557 -0.6256153 1.8889606 2.0655 -0.58581626 -0.94457597 0.8821625
-2.968025 -0.57755136 -0.074671105 1.6983018 -0.32893956 0.45014015 -2.2906613 1.5376496
0.038336907 -0.34609047 0.26963678 1.2586133 2.220936 -2.0966914 -0.009761193 -0.70055807
-1.0514823 -0.5379642 -2.723131 3.5557075 -0.89632463 -0.5613707 -3.262973 -1.8081013
1.1785926 -0.90223855 -1.1600139 1.4821117 -0.68479216 -1.9329938 0.70775676 0.47281304
-0.6733056 1.3639228 0.41438425 0.89252937 0.82561296 -1.3015474 0.5957693 -0.10641362
-1.1541138 1.7886302 -1.2375447 0.9313801 -1.1731246 -1.6227963 1.5942343 -0.638746
-0.27821332 1.5543842 -0.29750887 0.22781798 0.30924544 1.3062392 2.03048 1.0068007
-0.330587 1.8793815 0.43616545 1.0217476 -0.7749069 1.9651637 0.5223278 -1.8889674
-0.14322406 -2.7390509 -1.7081199 -0.10321643 0.2100659 0.9258233 -1.8850572 -1.2057753
00000000: 7196 49be 735c e93e d68a c73f 8d93 793f
00000010: 9012 0bc0 5b1e 6a3f 42eb 033f afe5 c1be
00000020: 35eb 5d3e 192f 12c0 c214 97bc c82e 7dbf
00000030: 11b1 7bc0 dab8 0440 ee2b adbf df28 4340
00000040: 11dd e53e 0aec 6640 a9bc 69bf 9625 393f
00000050: ae3e 54c0 ab61 fabf 96e8 adbf 7a59 c0bf
00000060: a82a 53bf 2442 81bf bbca 253f 54a6 a43f
00000070: 4afd b2be 79c3 633f 3ec0 1340 22ad 843f
00000080: c29b 0f3f 5006 8dbf adf8 8b3b 5de1 3040
00000090: a2cf dd3f 9808 d23f e62b 05c0 e568 1b40
000000a0: 0f80 dbbe 149e b53f 725f 3c3f 55a4 5fbe
000000b0: d907 bfbf 7bd7 12c0 cd14 a1c0 0fdf eb3f
000000c0: 864d 153f 2437 383f 16ec 32bf 3f9b 073f
000000d0: 8984 d83f 64b9 fabf 76a4 00c0 7171 9dbe
000000e0: 3a59 cc3f 10d0 c63f df71 8fbe 40ce 5f3f
000000f0: 6345 9d3f a900 963f bc91 4cc0 e06a 82bf
00000100: 7b84 df3f 04b8 cabf 8d86 f73f db90 c43e
00000110: d40a aabf 0ad6 d23e 82d4 a23e 000b 40c0
00000120: 2ac2 10c0 185f 5140 653e 0ac0 7b4b 0f40
00000130: 8232 1040 419f 8a3f 0a36 34c0 d9e3 3340
00000140: 5739 4cbf 2992 883f 5862 1940 bbd0 993d
00000150: 9af4 dd3e b7bc 1240 2e47 3840 cc9c f4bf
00000160: fb27 6abe 5e87 583f 97fc 4b3f e18e 6b3f
00000170: 70bc 953e 8c78 14c0 1042 14c0 5eef 4cbf
00000180: 5a6a 8cbf b8a7 6fc0 0635 c4be db97 68bf
00000190: de75 a23e a702 7c3f 184d 993f 8caf 8a3f
000001a0: f78b d13d 41c6 423e 2aea e9be 00b1 983e
000001b0: 8243 1140 f9b7 f03f 0565 a4bf f282 2940
000001c0: fb23 04bf d2e4 d8bf 8f57 f33f 6f11 82bf
000001d0: d6f9 00bf f5d7 98bf 1cc8 973f 5e62 a63f
000001e0: 9b4a 18c0 1021 c63f 6214 6640 8b09 e2bf
000001f0: 6f3a 2e3f 5b29 f9be 33e6 83bf 1c19 c3bf
00000200: 8e56 9fbf f43e a1bf c587 0bc0 ba99 683f
00000210: 1c9e 1640 9bb6 01c0 0555 09bf f6ad 35bf
00000220: c4d5 efbf cdc8 a6bd 985e 8e3e 781a 4bbd
00000230: 42ff 92be 0bac a83f c926 c3be 356e 4dc0
00000240: bf7a 38bf a2f4 473f b645 8d3e ca06 ca3f
00000250: 24b3 0c3f e7b5 913e c5b6 223f bcac 2c3f
00000260: 42f5 24c0 2675 8e3f d406 e03f b62a 843f
00000270: 98b3 3ebf be44 83bf d7d7 843f a171 2a40
00000280: 6a88 a7bd 92a3 db3d 4492 efbd 9c23 aabf
00000290: 8a70 41c0 f478 f8bf 9766 83bf dc70 523f
000002a0: 8c57 973f d731 4f40 4f2f c13f 6d61 b2be
000002b0: 4a4d 48bf 0de5 09bf c7d9 7fbf b61a a63f
000002c0: 0f2c 2ebf 5c65 953f 5328 20bf 76c9 f13f
000002d0: 2731 0440 0ef8 15bf bbcf 71bf 67d5 613f
000002e0: 1ff4 3dc0 68da 13bf 2aed 98bd f461 d93f
000002f0: c46a a8be c578 e63e 329a 12c0 b4d1 c43f
00000300: 2907 1d3d c532 b1be d50d 8a3e 3e1a a13f
00000310: d123 0e40 3130 06c0 69ed 1fbc c657 33bf
00000320: f996 86bf 06b8 09bf c747 2ec0 b690 6340
00000330: 8875 65bf fdb5 0fbf 8dd4 50c0 dd6f e7bf
00000340: 1fdc 963f 1bf9 66bf 567b 94bf d6b5 bd3f
00000350: 8a4e 2fbf 576c f7bf 8c2f 353f 8d14 f23e
00000360: c15d 2cbf 0695 ae3f 2c2a d43e ce7c 643f
00000370: 5f5b 533f 1b99 a6bf 5684 183f 62ef d9bd
00000380: 00ba 93bf d6f1 e43f dd67 9ebf ed6e 6e3f
00000390: f228 96bf cab7 cfbf df0f cc3f dc84 23bf
000003a0: fa71 8ebe 10f6 c63f 1553 98be 1e49 693e
000003b0: 6b55 9e3e d932 a73f 62f3 0140 d8de 803f
000003c0: b342 a9be 938f f03f 1451 df3e a0c8 823f
000003d0: 4c60 46bf 7c8a fb3f 46b7 053f afc9 f1bf
000003e0: 54a9 12be 9c4c 2fc0 aca3 dabf 2363 d3bd
000003f0: 841b 573e c102 6d3f 8e49 f1bf d856 9abf

lstm.bias_ih_l1 f4 [40]
0.6543065 0.90078783 0.7585543 1.1186919 0.05056529 2.4220245 1.3280382 1.031716
2.269034 1.1892503 -1.1233997 1.1773012 1.4817284 1.6013823 0.33874708 -0.05365728
0.8176533 0.5089873 -2.3398392 -0.4536965 -0.0559677 1.7102062 -0.35320848 -1.7405806
1.2909697 -0.6314975 0.4464634 0.30049405 -0.5170007 -0.52290297 0.8180186 -0.9920379
0.42343858 -0.1888867 0.44838643 0.06847328 -0.37469947 0.27151334 0.53694254 0.6736894
00000000: a180 273f 089a 663f 9d30 423f 4c31 8f3f
00000010: 8d1d 4f3d 7302 1b40 28fd a93f 450f 843f
00000020: da37 1140 5b39 983f 90cb 8fbf ceb1 963f
00000030: 47a9 bd3f 18fa cc3f 4270 ad3e bcc7 5bbd
00000040: ba51 513f fe4c 023f edbf 15c0 e84a e8be
00000050: 633e 65bd 09e8 da3f bed7 b4be 58cb debf
00000060: 7f3e a53f d2a9 21bf da96 e43e 5bda 993e
00000070: 285a 04bf f8dc 05bf ab69 513f 32f6 7dbf
00000080: f1cc d83e 846b 41be e892 e53e b83b 8c3d
00000090: 9cd8 bfbe cc03 8b3e 1175 093f e976 2c3f

lstm.bias_hh_l1 f4 [40]
0.77864325 0.7180868 0.7555414 1.5166247 0.36233118 2.3104253 1.3566427 0.9247709
1.9057491 1.6183803 -0.7232226 0.8491856 1.6885221 1.8276038 0.24882033 -0.15759842
0.9631959 0.6906478 -2.147191 -0.49641544 -0.2640957 1.6138477 -0.26376262 -2.2519364
1.3716763 -0.67688155 0.036429927 0.22719938 -0.21226518 -0.16238303 0.7762887 -0.5922731
-0.05367506 -0.35850367 0.38937962 0.002865331 -0.74648327 0.7625571 0.64084893 0.21625064
00000000: 2a55 473f 89d4 373f 296b 413f c220 c23f
00000010: 7983 b93e 02de 1340 78a6 ad3f c9bd 6c3f
00000020: 96ef f33f 1627 cf3f 1e25 39bf 3a64 593f
00000030: 7e21 d83f ecee e93f c2ca 7e3e 7b61 21be
00000040: 0294 763f 4bce 303f 946b 09c0 2a2a febe
00000050: 8d37 87be 9092 ce3f e50b 87be ba1f 10c0
00000060: 1793 af3f 1c48 2dbf 8c37 153d f4a6 683e
00000070: 0b5c 59be bd47 26be dbba 463f 369f 17bf
00000080: 61da 5bbd cb8d b7be c45c c73e 47c8 3b3b
00000090: 8719 3fbf f136 433f ad0e 243f cf70 5d3e

lstm.weight_ih_l1_reverse f4 [40, 20]
0.60109663 0.8893341 0.0888054 2.1726937 -2.62113 0.32794702 -0.8218835 0.8314141
0.5900571 1.8864365 -3.0198812 1.8000997 -3.0291102 -1.3551333 -2.8256366 -0.8182323
-2.0621269 0.014789806 1.518646 2.3116364 -1.8270806 0.617397 -0.3241717 -2.414085
-1.0759892 -0.8705577 -1.9416654 -0.22080238 1.32127 -0.035746604 0.25759435 -0.039428864
0.5922325 -3.2227488 0.90075105 -0.6480087 -0.22846068 0.8636086 1.0382504 -0.19898033
1.8048482 -2.789721 -0.6197233 0.23346795 1.2604785 -0.3382109 -2.297597 -0.10443741
0.39031383 -0.65321016 -3.536387 0.69801503 0.6613994 -0.2540839 2.55637 -0.64459854
3.4322078 -1.9722679 -0.01628463 -0.463937 1.2848629 -1.2972307 -1.08826 1.6523015
1.9336189 -0.13011244 3.9959013 1.5262072 1.2341837 1.4762644 1.2033695 -0.98471534
-0.29081723 0.650981 -0.6697418 -2.9555252 -0.87641716 -1.0297933 -2.637132 1.0150477
-0.93774796 1.2631288 -0.5596135 -0.33520985 -1.3190112 -0.17266296 -0.95272946 -1.8110243
-0.30318528 -3.6367698 1.5594515 1.6499588 -0.028980544 -1.8120526 -0.012225646 -0.09690996
1.4108994 0.74495155 -0.010744888 -0.91680604 -0.1515763 -0.05455943 -0.25206417 2.918972
0.40400413 0.4006278 -1.349904 -2.9154313 -0.8208524 0.86099225 0.9196852 -0.510164
-0.54210186 0.79594433 1.9725367 1.5643864 -0.6356711 1.6139665 0.81380445 -1.9673384
-0.74334645 -0.20569517 0.25241613 3.0800245 -0.9581951 0.23378062 -2.1024432 -0.013528705
-1.6472392 -0.016435841 -1.1752187 -0.94779205 -0.14794023 0.76568 -0.57387996 2.0758224
-1.4377724 -1.0989255 -0.8495635 -0.82402325 -0.4692869 3.4254792 0.1585751 -0.90090424
-1.1373516 -0.053527404 -1.0651531 -3.8376617 1.3174671 0.68686044 0.57920116 1.2808939
0.38770485 -0.9296115 -2.260977 -0.3416345 0.2728342 1.5857623 0.5977737 1.8330386
0.18368407 -0.07991411 0.13382386 -0.3550895 -0.77066797 0.4363488 0.45552328 -1.0010544
1.7882711 0.5056529 -0.2891674 3.7878084 -2.3892498 -1.5770941 1.4724176 0.51734126
0.39118728 -1.0002688 1.3426714 2.076541 1.5879184 0.15874405 -0.28299028 -1.4169658
-0.13535886 -0.27714354 2.051042 1.6469818 0.2007888 -0.34376383 -1.7680156 4.4639344
-0.32109106 -0.36111152 1.7975937 -2.929381 0.90288043 0.37421703 1.6567593 2.278581
-0.6107423 -1.7107257 -2.533008 -0.15809749 5.1669006 -1.1475135 0.059299465 -1.7365953
1.8337923 0.42881715 2.81635 -0.0531846 1.6633683 -0.697225 -0.94382787 0.038325932
1.9108915 2.0808465 -1.4220068 -1.2598717 -0.8665983 3.2194133 0.27623466 -1.5316457
-0.41458797 -2.5806174 -0.92206436 -0.15151729 0.57148427 -1.2833897 1.3403127 0.7292114
-0.6674065 0.49490508 0.4043769 1.5989381 1.1117166 0.6032855 -3.3952909 0.9051527
-2.6553144 -0.5495394 -0.45856264 1.1049429 2.0244558 0.3038394 0.45305604 -2.4824147
1.7428571 2.68834 0.86848396 -2.2087064 -0.44392666 0.22102517 -0.95751125 -0.5247035
00000000: 78e1 193f 66ab 633f 9bdf b53d 6a0d 0b40
00000010: 98c0 27c0 ace8 a73e f566 52bf 8ed7 543f
00000020: fb0d 173f c076 f13f bc45 41c0 ab69 e63f
00000030: f1dc 41c0 0275 adbf 3bd7 34c0 ac77 51bf
00000040: e3f9 03c0 f150 723c fe62 c23f daf1 1340
00000050: c7dd e9bf bb0d 1e3f d5f9 a5be 5e80 1ac0
00000060: 04ba 89bf dfdc 5ebf 7e88 f8bf 051a 62be
00000070: 601f a93f 086b 12bd 68e3 833e 2980 21bd
00000080: 8d9c 173f 8441 4ec0 9f97 663f e6e3 25bf
00000090: 99f1 69be 7415 5d3f 64e5 843f 80c1 4bbe
000000a0: 4405 e73f ca8a 32c0 30a6 1ebf 3912 6f3e
000000b0: 5c57 a13f fb29 adbe d40b 13c0 48e3 d5bd
000000c0: 37d7 c73e c838 27bf 2a54 62c0 1db1 323f
000000d0: 7951 293f 4917 82be 919b 2340 6904 25bf
000000e0: 4ba9 5b40 4673 fcbf 5867 85bc 2789 edbe
000000f0: 6376 a43f a80b a6bf 1b4c 8bbf 9e7e d33f
00000100: d380 f73f 323c 05be d9bc 7f40 c25a c33f
00000110: bbf9 9d3f 3bf6 bc3f 0308 9a3f 4e16 7cbf
00000120: ffe5 94be b1a6 263f 3374 2bbf 5327 3dc0
00000130: e05c 60bf 44d0 83bf c5c6 28c0 15ed 813f
00000140: 4010 70bf 34ae a13f d542 0fbf a0a0 abbe
00000150: 5cd5 a8bf 8fce 30be 14e6 73bf a5cf e7bf
00000160: 1a3b 9bbe d6c0 68c0 1b9c c73f da31 d33f
00000170: 9b68 edbc 57f1 e7bf 134e 48bc bb78 c6bd
00000180: 5a98 b43f 25b5 3e3f 540b 30bc cdb3 6abf
00000190: d136 1bbe b579 5fbd 8e0e 81be 70d0 3a40
000001a0: a1d9 ce3e 161f cd3e a7c9 acbf 6d96 3ac0
000001b0: 6223 52bf fd69 5c3f 7d70 6b3f 1c9a 02bf
000001c0: 30c7 0abf 02c3 4b3f 157c fc3f d03d c83f
000001d0: 57bb 22bf 7496 ce3f 7d55 503f bfd1 fbbf
000001e0: f44b 3ebf c1a1 52be b03c 813e 1f1f 4540
000001f0: 464c 75bf 3064 6f3e 6e8e 06c0 80a7 5dbc
00000200: bcd8 d2bf 75a4 86bc 916d 96bf 80a2 72bf
00000210: a57d 17be 9b03 443f cce9 12bf 46da 0440
00000220: ed08 b8bf 97a9 8cbf fe7c 59bf 30f3 52bf
00000230: 5f46 f0be 0d3b 5b40 8361 223e a9a1 66bf
00000240: bd94 91bf 8d3f 5bbd f056 88bf 409c 75c0
00000250: c3a2 a83f 16d6 2f3f 8746 143f 55f4 a33f
00000260: 4081 c63e 05fb 6dbf d9b3 10c0 b8ea aebe
00000270: edb0 8b3e 42fa ca3f b207 193f 02a1 ea3f
00000280: ad17 3c3e 02aa a3bd 1f09 093e 4ace b5be
00000290: 7f4a 45bf 1c69 df3e 593a e93e 8d22 80bf
000002a0: 11e6 e43f 7872 013f c00d 94be 746b 7240
000002b0: 78e9 18c0 38de c9bf 2e78 bc3f 7a70 043f
000002c0: b349 c83e cf08 80bf a8dc ab3f 0ce6 0440
000002d0: e940 cb3f cd8d 223e 1ae4 90be 235f b5bf
000002e0: 839b 0abe c2e5 8dbe 4644 0340 4dd0 d23f
000002f0: 949b 4d3e d001 b0be 564e e2bf 8dd8 8e40
00000300: 0c66 a4be 9ce3 b8be 8d17 e63f fa7a 3bc0
00000310: 2c23 673f 6099 bf3e b010 d43f 45d4 1140
00000320: 9b59 1cbf 0ff9 dabf ce1c 22c0 4fe4 21be
00000330: 4057 a540 b9e1 92bf ffe3 723d c148 debf
00000340: b5b9 ea3f ec8d db3e 143f 3440 18d8 59bd
00000350: 41e9 d43f 567d 32bf b49e 71bf a7fb 1c3d
00000360: 1898 f43f 972c 0540 5204 b6bf 7a43 a1bf
00000370: 63d9 5dbf de0a 4e40 a16e 8d3e f70c c4bf
00000380: e044 d4be d628 25c0 690c 6cbf 5927 1bbe
00000390: cb4c 123f 1d46 a4bf 5e8f ab3f 99ad 3a3f
000003a0: 27db 2abf 3364 fd3e 7d0a cf3e 01aa cc3f
000003b0: bb4c 8e3f eb70 1a3f 724c 59c0 16b8 673f
000003c0: acf0 29c0 9dae 0cbf b9c8 eabe c56e 8d3f
000003d0: af90 0140 d690 9b3e f6f6 e73e e2df 1ec0
000003e0: f115 df3f c30d 2c40 f754 5e3f 725b 0dc0
000003f0: 5b4a e3be 6c54 623e 751f 75bf f852 06bf

lstm.weight_hh_l1_reverse f4 [40, 10]
1.5734224 -0.93372005 0.86137974 0.27778214 1.3221489 -0.28729567 1.1880101 -2.4761999
1.3099033 -1.464046 1.3929838 0.36280268 -0.9888102 -2.4025145 -0.5066842 -2.0836282
-0.23785065 3.0002983 2.907683 -0.24631044 -1.1805838 -0.8145754 2.3208952 1.3924778
-1.6180506 -1.0294987 0.006333525 0.36853573 1.8653373 1.947832 -1.5043736 -1.8754909
0.24375688 0.84341735 -1.9768318 3.3660192 -1.0378417 -0.12635124 -1.8695842 1.589016
1.1728486 -0.14108376 -2.6997027 -0.08235287 4.7554736 0.70953095 0.5313938 0.87362325
-0.23921162 -0.17206672 -0.009150308 0.5920634 -3.2410955 -1.622866 -2.7625973 -0.1959538
0.17754902 0.58439493 1.7460511 -0.80653113 -1.2111917 -3.0416796 0.15263647 -2.3128726
0.37499735 -0.20962787 2.1014056 -0.37542292 0.9312453 -1.7284902 1.8679519 1.8901501
3.4937513 -1.5407084 0.9945838 -0.07938381 1.762235 0.7513486 0.6093008 -0.66276854
-1.4407347 3.626394 1.339417 -1.871836 0.078832984 0.16953495 1.1160736 -1.7792288
1.580173 0.9908913 -2.5490038 2.917853 1.2022587 0.39319465 0.84045166 0.006327807
0.8696616 0.027075721 -0.35407662 0.39988315 0.73914367 0.1537421 0.53195775 -0.5265219
0.7247619 -0.38619053 -0.92923254 -1.2998592 -0.9060387 1.0370855 -0.8477068 -1.1695899
-1.1390455 1.5593039 0.3887823 -0.42990956 -1.3068262 -0.6667568 -0.6182335 0.30964944
1.884748 -3.9727118 -0.44877094 -1.1951952 -0.95198256 -2.0644517 1.721131 0.3776461
-0.535512 -1.8512635 2.0592291 0.13467534 0.26338783 0.5646117 1.4017969 0.10118016
0.1849293 1.945249 0.84776855 0.47606048 -0.53359836 -1.2923843 0.3824844 3.4738755
-2.7254214 0.0744204 -0.88857925 0.012582179 -0.8680677 1.2041215 2.7903972 -2.427405
-1.6406246 -0.6859194 1.7552291 -1.672014 -0.22696812 1.3320581 -0.44556955 0.69551766
0.014913359 1.0872993 2.4862297 0.9512263 0.061400205 1.1302886 -1.0469697 0.46020415
-0.0021234495 -0.1755188 -0.20361468 0.55367357 1.2916964 -1.4780934 -0.036825366 -0.4225309
0.0567053 0.18660986 -1.1208149 -0.5460522 -0.70979536 0.08899673 -1.543673 -1.5840235
-0.16960089 -1.7899328 -2.041385 -1.631057 0.7313093 -0.9001168 2.4776475 -0.06341801
-1.7758442 -0.61780816 -1.2554305 0.6585728 -0.40587208 0.86002713 2.3905623 0.45121446
-3.1085658 1.3070065 1.0113146 0.02706621 1.1732866 -0.71336037 0.01967479 -1.8922307
-2.0662448 -1.803783 0.11948464 -2.1657016 -2.0995767 -0.06334893 -1.26394 -1.3417273
1.1701502 1.8927146 0.0147690475 -0.7927487 1.0034717 -1.7948114 -2.4073522 -1.7154806
1.5792767 0.5680167 -0.17652841 -0.30248094 0.84469444 -1.0634775 -0.23573616 -3.6317246
0.38287935 -0.90303165 -1.4864974 -0.1619733 0.5433775 -1.2002472 1.0363106 -0.4935385
0.27128407 0.759595 -0.7984064 -0.78495944 -2.0221825 0.9422148 -0.8400139 -0.21508034
0.31008866 0.6193856 -2.398969 1.6179001 2.416687 1.1665806 -1.6626111 -1.0037297
00000000: e865 c93f 4708 6fbf 6283 5c3f 7639 8e3e
00000010: 2d3c a93f 6b18 93be b710 983f 0f7a 1ec0
00000020: e9aa a73f dc65 bbbf 4b4d b23f 46c1 b93e
00000030: aa22 7dbf ccc2 19c0 0eb6 01bf 2a5a 05c0
00000040: 1f8f 73be e304 4040 7a17 3a40 ce38 7cbe
00000050: 5f1d 97bf 0388 50bf 8c89 1440 b63c b23f
00000060: 481c cfbf 9dc6 83bf 7589 cf3b b7b0 bc3e
00000070: 5fc3 ee3f 8f52 f93f 508f c0bf 1610 f0bf
00000080: 679b 793e 33ea 573f d308 fdbf dc6c 5740
00000090: ffd7 84bf 3862 01be 894e efbf e064 cb3f
000000a0: e71f 963f 4378 10be eec7 2cc0 9fa8 a8bd
000000b0: d72c 9840 d2a3 353f 6d09 083f c6a5 5f3f
000000c0: e4f3 74be 4232 30be 2ceb 15bc 7891 173f
000000d0: 1c6e 4fc0 13ba cfbf 65ce 30c0 1da8 48be
000000e0: 69cf 353e e89a 153f 9a7e df3f d378 4ebf
000000f0: 5408 9bbf e1aa 42c0 bc4c 1c3e 1b06 14c0
00000100: a7ff bf3e b0a8 56be 6e7d 0640 6f37 c0be
00000110: 1866 6e3f 2b3f ddbf 0c19 ef3f 70f0 f13f
00000120: 9f99 5f40 ef35 c5bf 0b9d 7e3f fb93 a2bd
00000130: eb90 e13f 6258 403f 23fb 1b3f 33ab 29bf
00000140: ff69 b8bf d716 6840 0472 ab3f 5298 efbf
00000150: 3073 a13d 929a 2d3e 80db 8e3f c5bd e3bf
00000160: 1c43 ca3f 0dab 7d3f e122 23c0 1bbe 3a40
00000170: 9de3 993f cf50 c93e d727 573f 7e59 cf3b
00000180: 25a2 5e3f e7cd dd3c 8849 b5be 7cbd cc3e
00000190: 8538 3d3f 926e 1d3e 622e 083f 24ca 06bf
000001a0: ff89 393f c4ba c5be 2fe2 6dbf c961 a6bf
000001b0: 27f2 67bf 38bf 843f 5003 59bf 1fb5 95bf
000001c0: 3ecc 91bf 4597 c73f 790e c73e 1b1d dcbe
000001d0: 1546 a7bf 93b0 2abf 8d44 1ebf 5f8a 9e3e
000001e0: 6c3f f13f e940 7ec0 4ec5 e5be 28fc 98bf
000001f0: 21b5 73bf fa1f 04c0 054e dc3f d45a c13e
00000200: 5017 09bf 34f6 ecbf 69ca 0340 55e8 093e
00000210: c5da 863e 648a 103f 156e b33f 8b37 cf3d
00000220: 1b5e 3d3e ebfd f83f 5c07 593f 33be f33e
00000230: e799 08bf d96c a5bf ffd4 c33e fa53 5e40
00000240: 4e6d 2ec0 b969 983d ee79 63bf 7c25 4e3c
00000250: af39 5ebf a720 9a3f de95 3240 9b5a 1bc0
00000260: fdff d1bf 6a98 2fbf 59ab e03f 8e04 d6bf
00000270: 556a 68be e180 aa3f b121 e4be 720d 323f
00000280: 2957 743c a02c 8b3f 631e 1f40 9183 733f
00000290: c87e 7b3d 4cad 903f 1a03 86bf e19f eb3e
000002a0: 9229 0bbb 33bb 33be 5e80 50be 8dbd 0d3f
000002b0: 4f56 a53f 2a32 bdbf 32d6 16bd f855 d8be
000002c0: d143 683d a816 3f3e dd76 8fbf 14ca 0bbf
000002d0: 26b5 35bf eb43 b63d 1497 c5bf 48c1 cabf
000002e0: dbab 2dbe 851c e5bf 0da6 02c0 7ac6 d0bf
000002f0: 1637 3b3f 0e6e 66bf c791 1e40 4de1 81bd
00000300: dd4e e3bf ad28 1ebf f2b1 a0bf 3a98 283f
00000310: 77ce cfbe bd2a 5c3f f9fe 1840 9505 e73e
00000320: bef2 46c0 fd4b a73f c272 813f f5b9 dd3c
00000330: 412e 963f c99e 36bf 062d a13c 9e34 f2bf
00000340: 5b3d 04c0 5de2 e6bf 5db4 f43d db9a 0ac0
00000350: 775f 06c0 15bd 81bd c9c8 a1bf b8bd abbf
00000360: 7bc7 953f 7944 f23f e0f9 713c 94f1 4abf
00000370: c371 803f 61bc e5bf 0f12 1ac0 de94 dbbf
00000380: bd25 ca3f 8b69 113f ddc3 34be c8de 9abe
00000390: e53d 583f 0820 88bf d264 71be 2d6e 68c0
000003a0: c308 c43e 152d 67bf 8c45 bebf 54dc 25be
000003b0: ca1a 0b3f b3a1 99bf d3a5 843f 14b1 fcbe
000003c0: bfe5 8a3e d174 423f 5d64 4cbf 1af3 48bf
000003d0: 706b 01c0 fd34 713f 270b 57bf 053e 5cbe
000003e0: f1c3 9e3e 0e90 1e3f b588 19c0 5a17 cf3f
000003f0: 00ab 1a40 8352 953f 71d0 d4bf 377a 80bf

lstm.bias_ih_l1_reverse f4 [40]
0.11163901 1.7093557 0.29441923 -0.77487767 0.95264167 0.20455527 0.3496314 1.0099566
0.024981905 0.3711139 -1.076386 -2.201396 0.33907542 -0.2754218 -0.35166994 -0.2104573
-1.3331047 -1.1690019 0.27696428 0.7118394 0.16060881 -0.7254813 0.043235395 0.99556565
-0.03725536 -0.006155134 0.32633722 -0.85007966 0.5424472 0.067519344 1.6438584 1.4041724
-0.55319643 -0.2739566 0.7485766 -0.96401584 -1.0200497 -0.28209388 -0.8312711 -0.40824315
00000000: fea2 e43d 2bcc da3f 1ebe 963e 625e 46bf
00000010: 53e0 733f f076 513e e302 b33e 4246 813f
00000020: daa6 cc3c a402 be3e 04c7 89bf ace3 0cc0
00000030: 4b9b ad3e 1604 8dbe 150e b4be 1e82 57be
00000040: 2da3 aabf dba1 95bf 43ce 8d3e 1b3b 363f
00000050: a376 243e 24b9 39bf 9917 313d 64dd 7e3f
00000060: 1499 18bd 02b1 c9bb ac15 a73e d29e 59bf
00000070: d2dd 0a3f 9547 8a3d f469 d23f ecbb b33f
00000080: 489e 0dbf 0a44 8cbe b7a2 3f3f bec9 76bf
00000090: fd90 82bf 9c6e 90be 2fce 54bf 3f05 d1be

lstm.bias_hh_l1_reverse f4 [40]
0.56983155 1.4956955 0.8354558 -1.0697756 0.8894095 0.6757619 0.411515 1.048149
0.2557594 -0.003609511 -0.93064594 -1.76674 0.089953505 0.07343485 -0.36341563 -0.72659385
-1.4924464 -0.9739947 0.54921764 0.86234206 0.22393489 -0.5187469 -0.04843427 0.75200456
0.09912937 -0.28424567 0.25856367 -0.41009948 0.63848114 0.038555145 1.1842686 1.2281455
-0.5793158 -0.22870359 0.47182006 -0.8549715 -1.1406324 -0.2641642 -0.98204476 -0.57956123
00000000: 7be0 113f f372 bf3f 6ee0 553f 68ee 88bf
00000010: 57b0 633f bbfe 2c3f 18b2 d23e bf29 863f
00000020: e5f2 823e 8c8d 6cbb d03e 6ebf 8924 e2bf
00000030: 8b39 b83d 0365 963d 9d11 babe 0e02 3abf
00000040: 7c08 bfbf b757 79bf 8799 0c3f 73c2 5c3f
00000050: 304f 653e 99cc 04bf 0363 46bd 5f83 403f
00000060: 5704 cb3d a688 91be 7562 843e 8ff8 d1be
00000070: 8073 233f 00ec 1d3d 1d96 973f df33 9d3f
00000080: 0a4e 14bf 4631 6abe 6692 f13e 6adf 5abf
00000090: 3e00 92bf 8840 87be 4967 7bbf 205e 14bf
