staticfiles/equi_weights/lstm_ventilator.pt (torch, 21584 bytes, 20 tensors)

cnn.weight f4 [1, 1, 2]
00000000: 7653 993f 3317 10bf
1.1978595 -0.562854

lstm.weight_ih_l0 f4 [40, 1]
00000000: 79f3 ba3d 0d35 cd3e a114 9dbe 61a9 ffbe
00000010: f6e4 3a3f 453f 7c3f d3cb edbe 86b5 cabe
00000020: 7555 0e3f 0109 653c b0af 893f c980 1bbf
00000030: 0969 103f 28fd f13e 2b97 ee3e 3551 c73c
00000040: 1de6 a53f dacd 1c3f 2c5e 86be 99c3 ae3f
00000050: 8f19 c8bf 4b4a 5fbf 6ec7 18bc 6585 9f3f
00000060: 609b a1bf e70a 5cbf bc38 5940 21fa 77bf
00000070: edbb 203f f2ff 173f effe 9a3e 9c96 bd3f
00000080: 1023 b13d d5a9 043f 185f 083f 9f1c d7bf
00000090: 137a 8dbe 80f3 7f3e 7efb c6be d0ec 55bf
0.0912847 0.40079537 -0.306798 -0.49933913 0.73005617 0.9853404 -0.46444568 -0.39591616
0.5559915 0.0139791975 1.075674 -0.60743386 0.5641027 0.47263455 0.46599707 0.024330715
1.296085 0.61251605 -0.26243722 1.3653442 -1.56328 -0.8722274 -0.0093248915 1.2462584
-1.2625542 -0.85954136 3.3940878 -0.9686604 0.6278675 0.59374917 0.30272624 1.4811587
0.08649266 0.51821643 0.532701 -1.680561 -0.27632198 0.24995232 -0.38863748 -0.8356447

lstm.weight_hh_l0 f4 [40, 10]
00000000: 1cd8 e4bf 8195 2cc0 dcd6 3e40 c208 403f
00000010: 13c5 a5bf ffd5 abbe 39aa c03f d291 2b40
00000020: 3d79 503f b135 f23f be7e 06c0 c5cd c83e
00000030: 412f 803f c268 973f b911 a1be 19a7 593e
00000040: dc05 8bbf 07b9 8abf ea82 2f3f 5660 f7bf
00000050: 7175 79c0 58f6 ffbf 19f7 5140 b864 033f
00000060: d80e d1bf c322 5f3c 96b0 5a40 9108 54bf
00000070: 6f11 4940 6655 a4bf 81d3 163f 08ba 1440
00000080: 0ec9 23c0 9c27 72c0 4a98 8340 a81d cbbb
00000090: df37 91bf 45d3 0940 c6e8 c9c0 9103 c2be
000000a0: 0bd0 0bc0 a44c 12c0 81fb 3d40 3b69 e23e
000000b0: aca4 43c0 6dd1 acbf b1df fd3f e6d5 5bbf
000000c0: de3c 4040 f0f4 3740 734b d03f ce5a 09bd
000000d0: 10c5 1a3f 11ad d3bf 8a68 e3bf 95b7 1140
000000e0: 6bba 263f 2fb7 ac3d fcee 383f a905 a63e
000000f0: 1115 e43e 61a9 21bf 62cf 683f a581 adbf
00000100: 72b3 e5be 6176 2a3f 5485 3cc0 2f26 0c40
00000110: 1207 fdbe 5cbd 90bf e7fb a0bf c0e8 67c0
00000120: 99bd 703f 0349 a6c0 13f1 31c0 22e9 b9bd
00000130: cb55 59c0 0a73 1040 2bef 943e 8807 58bf
00000140: 77ae 4dc0 92fc 25c0 662b 413f 30c5 d63f
00000150: 0f00 f8be e602 dc3e a4d5 2d40 7bc2 47bf
00000160: 1f10 7a3f a69c 0240 e624 dbbf 157e 16c0
00000170: f208 ec3f b62e 13c0 c8f2 bdbe daa4 d4be
00000180: 5214 67bf 281d f1be a012 a53e 9beb b6bf
00000190: 015c 703f 186e 85c0 4b24 5ec0 a779 0b3d
000001a0: 10d8 03c0 3981 80bf 1446 a43e 140d 25be
000001b0: 34b5 26c0 b82e 1c3f 78df 8fc0 d45f 283f
000001c0: aca7 073e 5029 b3be 0855 533f 9223 253f
000001d0: ea6c ed3f 452a e8bf 9441 1140 fc3e 4c40
000001e0: 33c9 e2bf 3141 c9bf ba02 9abd 8e2e 333c
000001f0: 0c39 b03f 0492 98bf 120b 5940 1c6a 61c0
00000200: 8e3a 18bf 1f92 573e f220 3f3e d7ef 1dbf
00000210: 75f7 c7bf fc16 ff3e e147 8d3f b9bb 463f
00000220: c829 05c0 a6fa 163f 99b7 983f 0fde 3f3e
00000230: 53af 683e f9d0 91bf be09 923f a907 ebbf
00000240: 140c afbf ef78 b33f f12c 08c0 4bea c4be
00000250: 1cb3 8e3f a3eb 5ec0 97d8 aebf 4fe2 af3e
00000260: 747c 843c 4cdc 91bf ffa0 773f 4297 9b3e
00000270: a3c7 693e 60d2 103f 74dc 1dbe 6bbf bd3f
00000280: 4837 8a3f 53f8 45bf 3fb6 38c0 0bdb 68bf
00000290: e174 1bbf d6f7 40bf c50f f0bf f687 ccbc
000002a0: 8ba3 f7bf 5234 e73f 84d7 2c3e 1b7b ad3f
000002b0: 0d97 e3bf 3b15 a8c0 92d2 53bf 5b04 953e
000002c0: 8a60 fdbf 19de d53f f8a6 043f 3397 9ec0
000002d0: 14f0 643f 8e69 3a40 121e 5e3e 6b56 63bf
000002e0: f523 f03f 449f 25c0 6efd 0ac0 50c9 953f
000002f0: dd72 95bf 773f 97bf 7095 5cbf b907 cd3e
00000300: 7b13 dd3f 4a52 71bd 95f8 3f40 be4a 75c0
00000310: 0235 3a3f cd76 043f 026f 79bf 3736 533f
00000320: 90b0 0abe 5e85 7e3e 5404 1cbf c2a6 e1bf
00000330: ea21 fa3f 08b5 6240 20ad e1bf 9477 0640
00000340: 15fe 30be c75f 963f 60cf eebd 869f 21c0
00000350: 5d05 2bbe 7bd9 653f a4f9 7fbe 4496 fbbf
00000360: 63cd 883f 3563 ba3d d823 89bf e0a8 b53f
00000370: bda4 16bf bf20 3b3e 03fc 113f 6b98 b2bf
00000380: e044 a13f 2720 69c0 c1ce 1b40 cded 0ac0
00000390: f944 08c0 218f b8be 47a5 033f d672 93bf
000003a0: a018 0240 5f17 2a40 b612 9bbf 7096 91bf
000003b0: a5a1 f03f 51f7 d23b 728b 993f 61d0 4b3f
000003c0: ff99 9d3e 1932 633f ace1 4040 f4f2 cbbe
000003d0: 3620 313e 94e6 37c0 daf6 0abe 7e7c 40bf
000003e0: 5d51 5d3f 5eda 3c3f d3a9 1240 d12b 533f
000003f0: 6d41 343f b1b6 b7bf c213 5540 0950 443e
-1.7878451 -2.696625 2.981864 0.75013363 -1.2950767 -0.33561704 1.5051948 2.6807752
0.81434995 1.8922635 -2.1014857 0.3921949 1.0014421 1.1828845 -0.31458834 0.21255149
-1.0861163 -1.0837716 0.68559134 -1.9326274 -3.897793 -1.9997053 3.2807066 0.5132556
-1.6332655 0.013619128 3.417028 -0.8282557 3.141689 -1.2838562 0.5891648 2.3238544
-2.5591464 -3.7836676 4.11234 -0.0061986037 -1.1345176 2.1535199 -6.3096647 -0.37893346
-2.184573 -2.2859278 2.9684756 0.4422091 -3.0569258 -1.3501412 1.983389 -0.8587326
3.003715 2.8743248 1.6273025 -0.033533864 0.60456944 -1.6537191 -1.7766278 2.27683
0.651282 0.08433377 0.7223966 0.32426193 0.44547322 -0.63149077 0.9094144 -1.3555189
-0.44863468 0.6658688 -2.9456377 2.1898305 -0.49419457 -1.1307788 -1.2576874 -3.623581
0.94039303 -5.1964126 -2.780339 -0.0907767 -3.3958614 2.2570214 0.2908872 -0.8438649
-3.2137735 -2.5935407 0.75456846 1.6778927 -0.48437545 0.4297096 2.7161646 -0.7803113
0.9768085 2.040811 -1.7120636 -2.3514454 1.844023 -2.299726 -0.3709929 -0.41532022
-0.9026538 -0.47092557 0.32240772 -1.4290651 0.93890387 -4.169689 -3.4709651 0.034051564
-2.0600624 -1.0039436 0.32084715 -0.1611827 -2.6048098 0.6100879 -4.496029 0.6577122
0.13247555 -0.34992456 0.8255162 0.645074 1.8548863 -1.81379 2.2696276 3.1913443
-1.7717651 -1.572302 -0.07520051 0.0109363925 1.3767409 -1.191956 3.3913007 -3.5221014
-0.5946435 0.21051835 0.18664911 -0.6169409 -1.5622393 0.49822223 1.1037561 0.7763019
-2.0806751 0.5897621 1.193103 0.18737052 0.22723131 -1.1391898 1.1409223 -1.8361713
-1.3675561 1.4021281 -2.127743 -0.3846 1.114841 -3.4831321 -1.3659848 0.34352347
0.016172625 -1.1395354 0.96730036 0.30388838 0.22830062 0.56571007 -0.15416127 1.4824041
1.079812 -0.7733204 -2.8861234 -0.90959233 -0.6072522 -0.7537817 -1.8754812 -0.024967175
-1.9346784 1.8062842 0.16879088 1.3553194 -1.7780472 -5.2525916 -0.8274318 0.29104885
-1.9795086 1.6708404 0.51817274 -4.955957 0.8942883 2.9126925 0.21691158 -0.8880374
1.8760973 -2.5878458 -2.1717181 1.1702061 -1.1675678 -1.1816243 -0.86165524 0.40044954
1.727157 -0.058916368 2.9995472 -3.832687 0.72737134 0.51743776 -0.9743501 0.825046
-0.13543916 0.24855563 -0.60944104 -1.7629015 1.95416 3.5422993 -1.7630959 2.1010485
-0.17284425 1.1747979 -0.116606474 -2.5253615 -0.16701265 0.89784974 -0.24997574 -1.9655232
1.0687679 0.091009535 -1.0714064 1.4192162 -0.5884512 0.1827421 0.57025164 -1.3952764
1.2599144 -3.6425874 2.4344943 -2.1707642 -2.1292098 -0.360467 0.5142407 -1.151942
2.032753 2.6576765 -1.2115085 -1.1374035 1.879933 0.006438174 1.199568 0.79614836
0.30781552 0.8874832 3.013774 -0.39833796 0.17297444 -2.8734484 -0.13570729 -0.7518996
0.86452276 0.737707 2.2916152 0.82488734 0.7041233 -1.4352628 3.329331 0.19171156

lstm.bias_ih_l0 f4 [40]
00000000: 77c2 ee3f 16bd 1b3f 9bd3 58bf 9ab8 653e
00000010: c425 8fbf 1b21 b73e 70e7 0540 3455 383f
00000020: 4513 b13f ac44 10bf c155 473f 606e 933e
00000030: 755f 44bf 9cf3 ee3f 7259 c0bf 2f59 6140
00000040: 4da8 e03d aaa4 94bf c921 0cc0 a918 b9bf
00000050: c63c 3a3f 1334 6c3f 54ef 16be 306c b7bf
00000060: 5408 8a3f fd61 853f d343 12bf 828c 903f
00000070: 4583 5ebe d174 103f db86 7d3f 13b2 863f
00000080: 80a6 89bf 72b0 1b40 db0e 35bd 2892 843e
00000090: 240d 9d3f 4b20 24bf 4166 0d40 344c 1b3d
1.8653096 0.608354 -0.84697884 0.22433701 -1.11834 0.35767445 2.0922508 0.7200501
1.3834006 -0.56354785 0.77865225 0.28795147 -0.76708156 1.8668094 -1.5027297 3.5210683
0.10969601 -1.1612751 -2.189562 -1.4460651 0.7274898 0.9226696 -0.14739734 -1.4329891
1.0783792 1.0420529 -0.5713474 1.129288 -0.21729763 0.5642825 0.990339 1.0523094
-1.0753937 2.4326444 -0.04420362 0.25892758 1.2269635 -0.64111775 2.209366 0.03791447

lstm.bias_hh_l0 f4 [40]
00000000: 7d01 f03f 556f c23e b75b 81bf aa18 053e
00000010: b970 8fbf a2e6 5c3f c66a 0f40 b943 423f
00000020: 109a ba3f 0bc3 21bf db43 743f 7419 f73e
00000030: abfd 51bf 0442 1e40 a6da 93bf 1464 6340
00000040: 35c0 fc3d 1c8a 9dbf 5b82 0fc0 7056 aabf
00000050: 1b08 423f f7a2 4f3f 979b 0fbf 97f5 97bf
00000060: cadb 673f 3055 b73f 51ae 7dbd 6308 ae3f
00000070: 445d 14bf 3298 203e b20b 943f 7fa6 863f
00000080: 0609 a5bf 785c f83f a9c2 983d bbe4 503e
00000090: fea6 aa3f 6cd2 1bbf 37f9 0f40 aa91 35be
1.8750454 0.37975565 -1.0106114 0.1299769 -1.1206275 0.8628942 2.240892 0.75884587
1.4578266 -0.63188237 0.9541604 0.48261607 -0.8202769 2.4727793 -1.1551101 3.5529833
0.12341348 -1.2307773 -2.2423313 -1.3307629 0.7579362 0.8110804 -0.56096786 -1.1871823
0.90569746 1.4322872 -0.06193382 1.359631 -0.5795481 0.15683058 1.1566069 1.051956
-1.2893379 1.9403219 0.074590035 0.20399754 1.3332212 -0.60867953 2.2495859 -0.17731348

lstm.weight_ih_l0_reverse f4 [40, 1]
00000000: 3e9e 5a3e 15cf f53e 0a0c 0c3f ec4b 2ebf
00000010: 2ac5 53bf c145 c13f 816f 613e 5b53 cfbf
00000020: edb1 00bf 54ef 8d3f 38ec 1340 1a80 ba3e
00000030: b580 01be 0a74 0f40 dc3a 9140 426d 9abe
00000040: de67 a4c0 4d72 1840 c19c cf3f 2001 55c0
00000050: 8449 823f f1e6 33bf ab87 91bf efdd ca3e
00000060: 01cf 80be 1d76 9cbf 3716 cb3f 65b0 813f
00000070: 63bb b8bf 6b0a 1cbf 66a3 70bf 67ab c4be
00000080: c221 e23e 262c 4040 d8f7 8d3f f1fb eabe
00000090: 7665 15be b3a1 ae3f 74d0 1ebf 1c1c 4dc0
0.21349427 0.48009554 0.5470587 -0.680846 -0.82722723 1.5099412 0.22015192 -1.6197313
-0.50271493 1.1088662 2.3112926 0.3642586 -0.12646754 2.2414575 4.538435 -0.30161482
-5.137679 2.3819764 1.6219712 -3.3281937 1.0178685 -0.70274264 -1.1369528 0.39622447
-0.2515793 -1.2223545 1.5866154 1.0131956 -1.4432186 -0.60953397 -0.93999326 -0.3841202
0.4416638 3.0026946 1.1091261 -0.4589534 -0.14589486 1.3643097 -0.62036824 -3.2048407

lstm.weight_hh_l0_reverse f4 [40, 10]
00000000: f1da 2ebf abb5 81bf 3d19 0fc0 a6c8 59bf
00000010: d637 b03e 7d9a 2fc0 9870 1e3f e2cf 983e
00000020: 3a1d ac3f fcf0 0dc0 9b4f e53e eb32 fbbf
00000030: 227b 193e d71c bdbf 992c c73f ed85 a43f
00000040: 7abf 283f d8c6 fd3f 047f 63bf 405f 8540
00000050: 6543 7d40 78a3 f9bf 94a0 36bf 89ac c83e
00000060: 9802 c13f 5eac a7bf 2037 3d40 df3a bcbf
00000070: e73c 90c0 b2f2 883f 4489 1640 d9b5 01c0
00000080: 28d4 4abf d1bc e7be d516 aa3f 8c8b 02bf
00000090: 657e 24bf 1126 8fbe 84bc 2d3f b84b 0240
000000a0: 4a69 fd3d 00bb 43c0 2f9a 843f 18b3 e1bf
000000b0: 4c9b bebf 36b5 5540 be13 af3e 372e 4c40
000000c0: 786d 8d3f 2ba9 13c0 f212 1540 96c1 b03f
000000d0: d044 033f 3fe6 953e ba58 b43f 5629 083f
000000e0: b4d4 543e 9af0 d23f de12 97be a9bf 72be
000000f0: ddaa f9bd 2c28 8740 f0d5 a140 8339 f53f
00000100: 9fbf f1bf 781c 5e3f e5e8 0ac0 51ea 423f
00000110: 291c 853f 762c 6640 4537 9ebf b302 5cbe
00000120: abd5 adbf 5482 49bf 4b28 38bf 631e 0640
00000130: 3f4f fabf c94f 0d40 25d8 afbe 88a8 ce3e
00000140: 121c 393f 80e6 4740 c9c8 c73e 3aa9 ec3f
00000150: 23e9 743f e97a 5ebf 7fea 95bf 31a5 ad3f
00000160: 52cd c6bf 1792 8abf c88d 2c3f 916d 53be
00000170: 71e1 28c0 b4aa 1a3e 263f d93f 1173 1ac0
00000180: 0550 88bf fd61 5d40 8070 86bf b46e f9bf
00000190: 32e0 8b3e 2494 b63f 5381 60bf 57ab 08bf
000001a0: 265f 1e40 2383 c73f b780 533f 2ec3 5a40
000001b0: 947b 113f f63a dc3f 3d88 0940 8172 2640
000001c0: 4ef9 04c0 cfbb 25c0 aa8c a43f 9c12 39bf
000001d0: f46a 1040 e0f8 5bbe 6053 41c0 0597 b8bf
000001e0: 3f11 b3bf 85f4 b83f 6602 efbf a7f3 963f
000001f0: 2b79 2840 d3e3 83bf 9462 243e a8be 9540
00000200: 21de 21c0 2405 fabf 65d7 eabe 2da1 a63f
00000210: a496 47c0 6fa7 a63f 6e6b 21c0 95f9 c1bf
00000220: 76fc e43f 24b5 8c3f c594 8b3f 598e 68bf
00000230: 30df 46be b1e7 873e 3bfd 68bf 4f61 febf
00000240: 0c87 513f 3817 9a3e 6aca 19c0 6704 a1bd
00000250: f938 05c0 61a7 33bf 09e6 ba3f b533 9fc0
00000260: 5ea9 13bd 9126 07c0 b0bd f2bf 9786 9c3f
00000270: d4e4 bd3f a969 ca3f af9e debf c9e0 f7be
00000280: 9641 b2be b397 0040 2a73 8a3f f88e 5e3f
00000290: 6c99 7c3f 2dfc 2b3f d1cd 363f 782b 6fbf
000002a0: bfe3 563e 775d ea3f ebc7 b63d a657 6640
000002b0: a705 1f40 0bdd a53f 097c 06c0 8dc6 993f
000002c0: 6a45 a63f c6b3 51c0 d95c 21bf b0f1 e93e
000002d0: 01e9 acbf 6a4d 95be aa5e 7dbf ebdf 0440
000002e0: e7f8 04bf 6435 14c0 a4fc b53f 5e14 b8be
000002f0: 7e62 9f3f 1eb9 16bf 7a46 e33f 6e4e c9be
00000300: 0b49 c9bf 29c0 3e40 ea30 bf3f 7216 693f
00000310: 9e99 4cbe 5d21 a33f 0ac7 7ebe cf4d f8bf
00000320: 38ef b13e 15b0 c7be bf69 29c0 1419 e93f
00000330: 6197 4fbd c526 f9bf 12e1 0940 9957 723e
00000340: da0d 8cbf f2d0 a73d 814c 0f3f 750b 86bf
00000350: 2c6f 4f40 fa85 e43d 3feb 68bf c22a 0a40
00000360: 3508 5abe 2f62 64c0 0cf3 c53c 7a17 4d40
00000370: 4a0c 1c40 ebe4 f93e d33e 963f e27b b83f
00000380: e4cb cf3b 93fd bb3f 9330 e53e 7b63 123f
00000390: 0cf6 39c0 426c 313f 7b3e 8bbe f062 babf
000003a0: d860 0e40 ae6b 45c0 8993 13c0 135a ccbe
000003b0: 171f a5bf 42e0 4fbf cd31 0540 27bb ac40
000003c0: 5578 0cc0 db07 2c3d 0ada 1ec0 ae2b 833d
000003d0: 39c0 8a3e c75f 56c0 dc68 8f3f b04e d5bd
000003e0: d93e 0c40 6bc6 dcbf deca 1840 af08 fabf
000003f0: b1ec a9bf a234 e13f 0535 a23f 0467 5fbf
-0.6830283 -1.0133566 -2.2359154 -0.8507179 0.344176 -2.7438042 0.61890554 0.29846102
1.3446419 -2.2178335 0.44787297 -1.9624914 0.14988378 -1.4774426 1.5560485 1.2853371
0.6591717 1.9826307 -0.88865685 4.167877 3.9572384 -1.9503012 -0.7133877 0.39194134
1.5078917 -1.3099477 2.9564896 -1.4705466 -4.5074344 1.0699065 2.352128 -2.026724
-0.79229975 -0.45261243 1.3288218 -0.5099418 -0.6425536 -0.2795873 0.67865777 2.0358715
0.12373598 -3.0582886 1.0359553 -1.763278 -1.4891143 3.3391852 0.3419475 3.1903207
1.1049032 -2.3072002 2.3292813 1.3809078 0.51276875 0.29277226 1.4089577 0.53188074
0.20784265 1.6479676 -0.29506582 -0.23705925 -0.12190793 4.223654 5.0573654 1.9158176
-1.8886603 0.8676219 -2.1704648 0.7613879 1.0399219 3.5964637 -1.2360617 -0.21485405
-1.3580831 -0.7871449 -0.7193648 2.0956047 -1.9555434 2.2079947 -0.34344593 0.40362954
0.72308457 3.1234436 0.39020374 1.8489144 0.9566824 -0.86906296 -1.1712188 1.3566037
-1.5531409 -1.0825833 0.6740384 -0.20647265 -2.6387599 0.1510418 1.6972396 -2.413273
-1.064942 3.4591057 -1.0503082 -1.9486909 0.27319485 1.4263959 -0.87697333 -0.53386444
2.4745574 1.5586895 0.8261828 3.4181628 0.5682919 1.7205493 2.1489403 2.6007388
-2.0777164 -2.589588 1.2855427 -0.7229402 2.256528 -0.21481657 -3.0207138 -1.4421088
-1.3989638 1.4449621 -1.8672607 1.1793107 2.6323955 -1.0303901 0.1605323 4.6795235
-2.5291827 -1.9532819 -0.45867458 1.3017937 -3.1185694 1.3019847 -2.522182 -1.5154291
1.7889545 1.099278 1.0904776 -0.90842205 -0.19421077 0.26543954 -0.910114 -1.9873446
0.8184669 0.3009584 -2.4029794 -0.07862168 -2.0816023 -0.70177275 1.4601451 -4.975062
-0.036050193 -2.111729 -1.8964138 1.2228574 1.4835458 1.5813495 -1.7392176 -0.48413685
-0.34815663 2.009259 1.0816395 0.86936903 0.98671603 0.67181665 0.714078 -0.93425703
0.20985316 1.8309773 0.0892485 3.5990996 2.48472 1.2958082 -2.1013205 1.2013718
1.2989933 -3.2765975 -0.630323 0.45692205 -1.3508607 -0.29160625 -0.9897257 2.0761669
-0.51942295 -2.3157587 1.4217725 -0.3595304 1.2451932 -0.58876216 1.7755883 -0.3931765
-1.5725416 2.9804785 1.4936802 0.91049874 -0.19980475 1.2744557 -0.24880615 -1.9398745
0.34752822 -0.39001527 -2.6470792 1.8210778 -0.050681476 -1.9464957 2.1543622 0.23666228
-1.0941727 0.0819415 0.5597611 -1.0472246 3.2411604 0.111583665 -0.9098396 2.1588597
-0.21292193 -3.5684927 0.024163745 3.204558 2.43825 0.48807463 1.1737922 1.4412806
0.0063414443 1.468676 0.44763622 0.57183045 -2.9056425 0.69305813 -0.27196106 -1.4561443
2.2246609 -3.0846972 -2.3058798 -0.3991247 -1.2900113 -0.81201565 2.0811646 5.3978457
-2.1948445 0.04199968 -2.482058 0.064048156 0.2709978 -3.3495958 1.1203876 -0.10415399
2.191336 -1.7248052 2.387382 -1.95339 -1.3275357 1.7594187 1.267243 -0.87266564

lstm.bias_ih_l0_reverse f4 [40]
00000000: 4e31 a23f 3a32 1040 0fe4 063f c020 833f
00000010: d6f0 09bf 8761 813e 4a13 6c3e df15 25be
00000020: 29cc da3f eb63 0a3f 4f94 893e 46fd e43f
00000030: 0fb0 1d3f 5929 89bf cb2b 413f 184a a8be
00000040: 2a30 7bbf 1b6e fb3e 41f9 0ebf 7865 bc3f
00000050: 3e8b 9a3f b73e 0abe d00c 413f dcdb d43d
00000060: 1aa2 1f3f fa99 ab3d d740 eebe a6c5 443e
00000070: 9291 b7bf e761 9a3f cab2 673f 7ef4 8bbe
00000080: 8b5e 1840 0231 5dbe b57b 923e cb54 0640
00000090: e885 aa3f 62fe 583f 055d b33f 7e60 7e3f
1.2671297 2.2530656 0.5269174 1.024437 -0.5388311 0.2526972 0.23054233 -0.16121624
1.7093555 0.5405871 0.26870963 1.7889793 0.6159677 -1.0715743 0.7545745 -0.3286903
-0.9812037 0.4910744 -0.5584908 1.4718466 1.2073743 -0.13500486 0.75410175 0.10393497
0.6235672 0.08378978 -0.46533844 0.19216022 -1.43413 1.2061127 0.90507185 -0.2733497
2.3807704 -0.21600726 0.28610006 2.0989254 1.3322115 0.8476316 1.4012762 0.99365985

lstm.bias_hh_l0_reverse f4 [40]
00000000: 2ef9 eb3f a4d8 0340 e790 c63d 2bdb 7e3f
00000010: 3db3 e8be 0f12 1f3f 7f8d 0f3f a0dd bdbd
00000020: fe25 1040 6a09 513f 53ad 6e3e abfd e83f
00000030: 16c4 483f 9217 8abf 40eb 5c3f faae 49bf
00000040: 6d7f 8fbf 47f6 673f 3988 81bc 0a54 c73f
00000050: 373e a63f 0d0d ffbe 8936 823f ed60 dd3e
00000060: 5c2e 143f 3866 573e 3cfc eabe 85f8 b03e
00000070: 63cf 73bf c89f cc3f 3d79 4e3f a203 91be
00000080: 044a 1140 0f6d 96be d0fe 9fbe 8985 0c40
00000090: 6a93 a33f 1a03 8b3f d7c3 9c3f 6ca6 6c3f
1.8435419 2.0600977 0.09695607 0.99553174 -0.45449248 0.6213693 0.5607528 -0.09270787
2.2523189 0.8165499 0.23308305 1.8202413 0.78424203 -1.0788443 0.86296463 -0.7878262
-1.1210762 0.90610164 -0.015812026 1.5572522 1.2987736 -0.49814644 1.0172893 0.4323801
0.5788324 0.21035087 -0.45895565 0.34564605 -0.9523832 1.5986261 0.80653745 -0.28323084
2.2701426 -0.2938008 -0.31249094 2.1956503 1.2779362 1.0860322 1.2247266 0.9244144

lstm.weight_ih_l1 f4 [40, 20]
00000000: f4fe bebe 5f9e 39be 098e 0fbf 1ec5 d7bf
00000010: fe38 abbe 9340 1540 3577 083f d717 8b3f
00000020: a7c0 31bf 3aee d9bf 448b d7bf 2b45 723f
00000030: f05c 37be b1c7 753f d6ea 84bf 05b9 dfbc
00000040: d4fc 55c0 78f0 e73f 8503 adbb 9484 0c3e
00000050: 9f5d 983f 03b2 5fc0 b79f 003f 986e a93f
00000060: 3c48 b9bf 9716 dfbe bf3e 043f 3bd3 8a3f
00000070: 6f5a 0040 3208 8140 c8f6 56c0 49ca 143f
00000080: b8ea 9cbf 756e 1f3f 638b 8abf 7755 a0bf
00000090: 10ff 533f aee9 8a3f 9e78 e93f 1fd5 95c0
000000a0: 993e 463f c4c2 12bf 5bb3 ec3d 54d0 f4bf
000000b0: b73c 673e c849 ebbf 38a0 edbf 0f79 0040
000000c0: d3d5 0bc0 8b97 adbd 0d32 0dbf 41dd 933f
000000d0: 76c5 2840 3d32 73bf eff7 a13f 3f49 7740
000000e0: 5da9 753e 8abf be3e c30c c43e 9bce 24c0
000000f0: c987 a6be 5528 2ec0 97ce 1dbf 8af6 233e
00000100: 3c1c 5bbf f8e0 e43e 8a62 09bf 88d5 98be
00000110: f28d 02bf c077 dc3e 91ec 78c0 3280 7f3f
00000120: 2618 8a3e f9fe 80bf f8a2 24bf 81da 6ebf
00000130: d217 60bf c111 11bf 8da4 4c40 544c a4bf
00000140: 8105 a2be 75ad 02be 966e 173f 5b35 95be
00000150: 708f bd3f 8a77 b6be 2ab0 333e 1ca4 a2be
00000160: 5a72 393d 8b43 4340 4c4a d3be 9106 7b3f
00000170: 1e18 9e3f 9c3f 97be e6b6 bc3f ab7d 7c3e
00000180: 2483 37be b9ac 8fbf 78b4 8d3f 18c9 1140
00000190: 1396 b1bf 6d79 4340 bb74 b7be 2e5d 18bf
000001a0: 5534 c03f 63d8 4f40 155c 2e3f 35eb dbbe
000001b0: eb5d 39bf 38fa 13bf 401c aabf a8c6 fa3e
000001c0: f4bf 0e3e 4098 68be dc84 36bf a7d3 69bf
000001d0: 5b98 083f 573e 93c0 f298 a53f ff52 5bbf
000001e0: 2a0f 38c0 232e 12c0 0e1e 7fbe bdcb c43f
000001f0: e8f2 ea3f f3af 5fc0 e1fc 99be 4da0 b9bc
00000200: 5ec4 3740 772d d53f 8caf 44bf a0a9 2240
00000210: d407 37bf 1423 1b3f d224 2b40 bfcb c4bf
00000220: 3a68 cbbd 50a8 75bf 6491 fa3e 2009 3d3e
00000230: a10e 013f 51b9 cf3f 7a3f bbbf d734 8b3f
00000240: 1a7b c73f 81be 2040 f41f 5f40 1d89 a7be
00000250: 87dc 3a40 9d43 f33f f5da 863f c3de d0bf
00000260: df32 d63e aa05 b43f 10c7 1abf eac7 a5bf
00000270: 4650 9b3f ce2d 2ac0 1bb2 f53e d713 1fc0
00000280: ec0d ddbf 95e0 7c3f 0264 5bbf 1366 b53f
00000290: a705 ac3f 60a4 ebbf 6cbf 383f c395 b33e
000002a0: 013e 0ac0 4c01 9d3f f1e1 36c0 557a 0140
000002b0: 9dec e43f 83a7 1dbe b4e3 01bf 3cd2 81bf
000002c0: c4d3 043f 8cf1 24c0 5ce3 0440 11cf 13bf
000002d0: 8b3f 1e3f e4bf 27bf 50fd 7bbe 0eea e83e
000002e0: 728a 23c0 7655 283f 8f5a 0d40 bdda 92bf
000002f0: 4a35 123f f53d 17bf 0d15 943f 7162 3cc0
00000300: ce78 50c0 b49a 863d 1c63 b13f f7a9 b7bf
00000310: 1ed7 bb3e c4ed 0e40 07b6 1ebf b8c8 31c0
00000320: 6fbd 1cbf 8f1c f23f eb26 3640 b9e5 cabe
00000330: 2cb3 c03e d57a 4f3e 252b 28bf f071 153f
00000340: 54ad c0be 5e11 503f 9ffc 73c0 7cad b5be
00000350: aee9 173e a3e3 9cbe bc87 cc3f cbc9 1140
00000360: a383 63bf 6192 10bf 5f23 a940 1ef9 9ebf
00000370: 56df 1b3f f876 73c0 ebaa 38bf ce8a 9d3f
00000380: 5e11 51c0 169c b8bf 306d 9fbf bd94 4abf
00000390: 1640 4dbf ab6b 893f 7714 f0bf 9b78 0bbf
000003a0: c92e 5fc0 188e 50bf ff93 a03f 603d 0bc0
000003b0: 628d 6f3f 9d7a 6340 ed07 ae3f 1e45 63c0
000003c0: 98dc c03e f6b4 3a3f 1168 5c3e 422b 31bf
000003d0: 06c3 9e3f 9059 30bf ae07 a2bf f049 2840
000003e0: 9d6a 0240 4a62 6b3e 45aa ff3f 2ff6 e23f
000003f0: c0ec 313f 367f 8cbf 67aa 36c0 3f7c 0f40
-0.3730389 -0.1812682 -0.56076103 -1.685703 -0.3344192 2.3320663 0.53306895 1.086665
-0.6943459 -1.7025826 -1.6839375 0.9463679 -0.17906547 0.9600783 -1.0384166 -0.027309904
-3.3435564 1.812026 -0.0052799606 0.1372245 1.1903571 -3.49524 0.50243706 1.3236876
-1.4475169 -0.43571922 0.5165824 1.0845712 2.0055196 4.0322504 -3.3588123 0.5812116
-1.225913 0.6227792 -1.0823787 -1.2526082 0.8281107 1.0852563 1.8239934 -4.6822658
0.77439266 -0.5732844 0.11557647 -1.9126077 0.22581755 -1.8381891 -1.856452 2.0073888
-2.1849258 -0.0847617 -0.55154496 1.1551896 2.637052 -0.9499853 1.2653788 3.8638456
0.23990388 0.37255508 0.38290986 -2.5751102 -0.3252547 -2.7212117 -0.61643356 0.16012016
-0.8558996 0.44702888 -0.53665984 -0.2985041 -0.5099784 0.43060112 -3.8894389 0.99804986
0.2697155 -1.0077811 -0.6431117 -0.9330216 -0.87536347 -0.56667715 3.1975434 -1.2835793
-0.31644824 -0.12761481 0.59153116 -0.2914227 1.4809399 -0.35638076 0.1754767 -0.3176583
0.04527507 3.0509975 -0.41267622 0.98056895 1.235111 -0.29540718 1.4743316 0.24657314
-0.1792112 -1.1224586 1.10707 2.2778988 -1.3873924 3.0542862 -0.35831246 -0.5951718
1.501597 3.2475822 0.68109256 -0.42952886 -0.7240893 -0.5780368 -1.3289871 0.48979688
0.13940412 -0.22714329 -0.7129648 -0.9133858 0.53357476 -4.60136 1.29373 -0.85673517
-2.8759255 -2.284066 -0.24913809 1.5374676 1.8355379 -3.495114 -0.30075744 -0.022659445
2.8713603 1.66545 -0.76830363 2.541603 -0.7149632 0.606004 2.6741223 -1.5374678
-0.09931989 -0.9595995 0.4893905 0.18460512 0.50412947 1.6228429 -1.4628747 1.08755
1.5584443 2.5116274 3.4863253 -0.32721797 2.91971 1.9005009 1.053557 -1.6317981
0.41835687 1.4064229 -0.60459995 -1.2951634 1.2133873 -2.6590457 0.47987446 -2.485586
-1.7269874 0.98780185 -0.85699475 1.4171776 1.3439225 -1.8409538 0.72167087 0.35075197
-2.1600344 1.2266021 -2.8575404 2.0230916 1.7884709 -0.15395932 -0.5073807 -1.0142283
0.5188563 -2.5772429 2.076377 -0.57737833 0.6181571 -0.65527177 -0.2460835 0.4549107
-2.555325 0.65755403 2.2086523 -1.1473004 0.5711256 -0.59078914 1.1568924 -2.9435084
-3.2573733 0.06572476 1.3858371 -1.4348744 0.3668756 2.233262 -0.619965 -2.777876
-0.6122655 1.8914965 2.8461254 -0.3962839 0.37636697 0.202617 -0.65690833 0.5837698
-0.3763224 0.812765 -3.8122938 -0.3548392 0.14835235 -0.30642423 1.5978923 2.2779415
-0.88872737 -0.56473356 5.2855678 -1.2419775 0.6088766 -3.8041363 -0.721358 1.2307985
-3.266685 -1.4422634 -1.2455196 -0.79133207 -0.8017591 1.0735983 -1.8756245 -0.54480904
-3.4872305 -0.8146682 1.2545165 -2.175621 0.9357511 3.5543587 1.3596169 -3.5510936
0.376683 0.72932374 0.21524073 -0.6920663 1.2403266 -0.6888666 -1.2658594 2.6295128
2.0377572 0.22986713 1.9973837 1.7731379 0.69501877 -1.0976322 -2.8541505 2.2419584

lstm.weight_hh_l1 f4 [40, 10]
00000000: 19d4 92c0 c683 2dc0 bd35 a3bf 396b 04c0
00000010: d68c 1240 c874 21c0 f6d9 f63f 7c9f b1be
00000020: e10f dbbf 863c f2bf b750 0abf 45f6 823f
00000030: a488 693f 497e 92bf 477d c5be 2625 9ebf
00000040: 4bed 92bf e1bc 97bf 703f 573f bf5d f23e
00000050: 4740 1ec0 1a76 ea3f 8ef3 403f b2ad 4e3f
00000060: b5cd f43f 13e2 04c0 0568 883e 0aae 7fbf
00000070: e1f0 173f b08f ee3f 4102 e4bf e6dc 3740
00000080: 5933 0140 f03e 59bf 5dda 87c0 c4f8 8e3e
00000090: 1853 3540 4abe 6140 6773 f73f 355d 57bf
000000a0: 9d2a 0f3f 253f 80c0 decd bc3e 4fce d73f
000000b0: 7fe0 fe3f b4e7 0b40 0af3 3ec0 1933 9e3f
000000c0: a516 61bf 3b17 29c0 4669 803f b131 d63f
000000d0: cc8a 963f b60c c93f 836d 063e a5fe 53bf
000000e0: efab 8ebf ed35 3d3f c6a7 b63f 7616 dabe
000000f0: 23af 4d3f b055 cebe ad51 cd3f 6a02 71be
00000100: 2014 ae3f 25da 653f 33e8 2abe a72c c83c
00000110: 605f 823f b994 a7be 6604 44be 3544 83c0
00000120: 8edb c6bf bfef c2bf 5426 0f3f ddff f33d
00000130: dcec a8bd 5eac 4fc0 8142 13bd 6e97 e3bf
00000140: 7baf a5bd e028 4b40 0708 0fc0 941d a43f
00000150: 6a93 74bf d12d 3e3e 7454 87bf 5095 5340
00000160: ffc9 f63f f904 5e40 38ef bdbf 37bf bebf
00000170: 8865 51c0 690a c3be 452d 5c3f 77e3 3bc0
00000180: dc21 3fbf 3497 12bf 8cc2 94bf 5e17 32c0
00000190: 764f c03f 3510 813f 991c e5be 0a83 d0bf
000001a0: 3963 19bf c2db 553f 95f9 4040 97fb b1bf
000001b0: 0b4f 993f ce1d 1440 c265 9f3e be32 db3f
000001c0: 122a 633f fdf0 d03c a897 a23f 8125 07be
000001d0: bad5 4940 6b3b 53bf 443f 843e 565d fa3f
000001e0: 9173 c6bd cac5 df3f e69f 8f3f ae16 ed3f
000001f0: defd 923f 1236 ac3f d377 5940 20df 09c0
00000200: c8c1 ac3f fd52 99bf cc45 18bf 0a71 20be
00000210: cc5e c9bf 3a5e 4640 4321 b8bf 822c 86bb
00000220: 2b40 2e40 22fa 2840 969e 653f cbb7 b33f
00000230: beaf d9bf 05f9 493f c684 6d3f 1f6e 2abf
00000240: 7c73 de3f a109 d73f b293 e43e 62fe 76c0
00000250: fcbb 1140 1d21 0f3f 18f4 df3f b39f babf
00000260: d7b5 ac3f 6ed9 b5bf 0b11 59c0 ec63 06bf
00000270: 57d4 0040 c078 19be b222 82bf 4d0c 2740
00000280: 89d3 c5be 6b2d bebf 6e4a 3240 90c1 ebbf
00000290: f17f 1c3f 13a5 3840 7313 9ebf 6c6d 013f
000002a0: cfec 0d3e 1d7e 2640 59be 4d3f 3bdd 023f
000002b0: e276 8640 2688 2ec0 2394 a0be df4e 0a40
000002c0: 32ed cfbf fed4 073d 2b7e a7bf 977b a8be
000002d0: e56a 07c0 bac5 5240 a734 b5bf ef8f a53f
000002e0: 2171 283d d47c 2bc0 34d9 5340 b1c6 98bc
000002f0: 1e18 19be 28ac f43e 6a7e 62bd 55ae bebd
00000300: 4873 6c3f 8db0 2cc0 78b9 04c0 97b0 953f
00000310: fa91 5c40 50e1 fa3f df3f 15be b498 1e3f
00000320: d1d6 b5bf 1348 6740 c597 2dbf 7eb3 773f
00000330: 9bf2 11c0 17d2 06bf c3dc 853e f5d5 55bf
00000340: cf05 be3f fcf2 c23f e034 9f3e 7dec 853f
00000350: fcbc 6f3f 6d31 64bf 5984 17bf 53ea d2bf
00000360: 6951 793f bec0 92bf 876a 41bf 650b a23f
00000370: 48ef 423e a3ff 70bf 8cbf 1bbf 715d 0c3f
00000380: 6a75 663c 5adf 5940 132a eabe 1512 f7bf
00000390: a846 463f 8f26 59bf 9344 05bf cae8 1340
000003a0: 6463 7cbf 7c6f d13e 6f1d 843f 36c7 93bf
000003b0: f4d2 a33f 7326 bb3f e068 ea3e 155f 243f
000003c0: a54e 6fc0 83b1 563f 8f82 f2bf 619f fabf
000003d0: 11b4 15c0 3fe9 113f 0c96 0ebf b100 1540
000003e0: ecdd 37bf 47a8 963f 9c01 943e ed1b 0bc0
000003f0: 9d67 5fbe fb87 bf3f 8bfc ebbf f44f 823f
-4.588391 -2.7111678 -1.2750775 -2.0690444 2.289846 -2.5227528 1.9285266 -0.3469199
-1.7114221 -1.892472 -0.5402941 1.0231405 0.9122412 -1.1444789 -0.38572142 -1.2355087
-1.1478666 -1.1854516 0.8408117 0.47337148 -2.4726732 1.8317292 0.75371635 0.8073379
1.9125277 -2.0762985 0.2664186 -0.9987494 0.5935193 1.86376 -1.7813188 2.8728576
2.018759 -0.8486166 -4.2454057 0.27924168 2.8331966 3.5272393 1.9332093 -0.841266
0.559244 -4.007708 0.36875814 1.6859835 1.9912261 2.186017 -2.983584 1.2359344
-0.8792518 -2.6420429 1.0032127 1.6733915 1.1761107 1.5707004 0.13127713 -0.8281043
-1.114622 0.7391041 1.426995 -0.4259526 0.8034536 -0.4029975 1.604055 -0.23536077
1.3599892 0.8978599 -0.1669014 0.024435354 1.0185356 -0.32730654 -0.19142303 -4.102076
-1.5535753 -1.5229415 0.5591786 0.119140364 -0.08248302 -3.2448955 -0.035952095 -1.7780588
-0.08090111 3.1743698 -2.234865 1.2821527 -0.95537436 0.18572165 -1.0572648 3.3059883
1.9280394 3.4690535 -1.4838629 -1.4902104 -3.271822 -0.3809388 0.86006576 -2.9357584
-0.7466104 -0.5726197 -1.1621871 -2.7826762 1.502425 1.0083071 -0.4474838 -1.628999
-0.59917027 0.8353845 3.0152333 -1.3904904 1.1977247 2.3143191 0.31132323 1.712486
0.8873607 0.025505537 1.2702532 -0.131979 3.1536698 -0.8251254 0.25829518 1.9559734
-0.09690011 1.7482235 1.1220672 1.8522546 1.1483724 1.3454001 3.3979385 -2.1542435
1.3496637 -1.1978451 -0.594815 -0.15668121 -1.5732055 3.0995011 -1.4385151 -0.004094661
2.7226665 2.640267 0.8969511 1.4040464 -1.7006757 0.788956 0.9278072 -0.6657428
1.7378993 1.6799814 0.44643933 -3.8592763 2.2770987 0.559099 1.7496367 -1.4579986
1.3492993 -1.4206979 -3.3916652 -0.5249622 2.0129602 -0.14987469 -1.0166838 2.6101258
-0.3863795 -1.485761 2.7857928 -1.8418446 0.61132723 2.8850753 -1.2349685 0.5055759
0.13859867 2.6014473 0.8036857 0.5111882 4.202012 -2.7270598 -0.3136302 2.161064
-1.6244261 0.03316211 -1.3085378 -0.32906792 -2.1158993 3.2933183 -1.4156693 1.293455
0.041123513 -2.679494 3.310132 -0.018649431 -0.14950606 0.47787595 -0.05529634 -0.09310595
0.92363405 -2.6982758 -2.07382 1.1694516 3.4464097 1.960001 -0.14575146 0.61951756
-1.4206182 3.613774 -0.67809707 0.9675826 -2.2804325 -0.5266432 0.2614499 -0.835296
1.4845523 1.5230403 0.31095028 1.0462795 0.9364774 -0.8913792 -0.5918632 -1.647776
0.9738985 -1.146507 -0.7555317 1.2659727 0.19036591 -0.9414007 -0.6083915 0.5483008
0.01406608 3.4042573 -0.45735225 -1.9302393 0.7745156 -0.8482446 -0.5205776 2.3110833
-0.9858916 0.40905368 1.0321482 -1.1545169 1.2798753 1.4621109 0.45783138 0.64207584
-3.739175 0.8386461 -1.8946093 -1.9579889 -2.3391154 0.5699653 -0.55697703 2.3281672
-0.71823 1.1770104 0.28907478 -2.1735795 -0.21816869 1.4963373 -1.8436445 1.018065

lstm.bias_ih_l1 f4 [40]
00000000: 2dcb 21bf 7438 c1be e65a 30bf 540e 5dbf
00000010: aa06 003f cba3 cb3f 8322 923e b49d 413f
00000020: c00b 87bf 50cd 203f 38f8 8fbf d343 c9be
00000030: 60e7 a53f ed9f 883e 3dc8 85be 9619 13bf
00000040: 70ef cbbf ccab 81bf cf0d 56be 0a63 e8bd
00000050: f053 093f dd07 563e a26a 373e ba5f 00be
00000060: 8fe7 9cbf b4b1 fb3d 0493 e43f 6dc7 5c3d
00000070: 2ee5 4c3f 2cab 7ebf 8fde 12bf 5b8a 793e
00000080: cd2a 48bf 6d4f 4e3e e8c0 ce3e d8f0 b2be
00000090: 2167 b9be ad3b 00bf cb35 a1be cebc 07bd
-0.63200647 -0.37738383 -0.688887 -0.8634999 0.5001017 1.5909361 0.28541955 0.7563126
-1.0550461 0.6281328 -1.1247625 -0.39309558 1.2961235 0.26684514 -0.26129332 -0.57460916
-1.5932446 -1.0130553 -0.20903705 -0.11347015 0.53643703 0.20901437 0.17911771 -0.12536517
-1.2258166 0.122897536 1.7857366 0.053901125 0.800372 -0.9947994 -0.5737085 0.24369185
-0.7819031 0.20147486 0.4038155 -0.34949374 -0.36211494 -0.5009106 -0.31486353 -0.033139043

lstm.bias_hh_l1 f4 [40]
00000000: 6e39 16bf 1a7c 20be 3bdc 0fbf 65d2 dabe
00000010: 8f0a cf3e 7f73 a23f a9da 213f 0978 383e
00000020: 3b14 6dbf 799f 333f 7370 9cbf 61b0 f9be
00000030: 08ce d53f 675c 013f 3a10 87be 844b 72bf
00000040: b598 98bf 8839 14bf 730b 92be 7d55 8e3e
00000050: f745 fd3e 661a a63e 3d2a b43e 3999 fdbc
00000060: 1ced 82bf 5e46 99bd 3306 ad3f 822b b23d
00000070: 114a 803f f2fd 85bf ce5b 23bf 6e89 89bd
00000080: c760 04bf bd82 df3e 7391 3f3e 936f b3be
00000090: 680e 95be 128e f4be 1114 713d bb9a 0dbe
-0.5868138 -0.15672341 -0.5619542 -0.42738643 0.40437743 1.2691497 0.63224274 0.1801454
-0.92608994 0.7016521 -1.2221817 -0.4876738 1.6703501 0.5053162 -0.26379567 -0.9464648
-1.1921602 -0.57900286 -0.2852436 0.27799597 0.4946744 0.32442015 0.35188475 -0.030956851
-1.022861 -0.074841246 1.3517517 0.08699705 1.0022603 -1.0468123 -0.6381196 -0.06715666
-0.5171017 0.43654433 0.18707828 -0.35046062 -0.29112554 -0.4776464 0.058857027 -0.13828556

lstm.weight_ih_l1_reverse f4 [40, 20]
00000000: 7e73 af3f 6105 1fc0 6226 c03d 5ad4 633f
00000010: 778b 59c0 47b5 923f cbcd 873e b168 703f
00000020: ed11 93bf e938 5f3f b8f1 f8bf 53ee 0340
00000030: 94af ac3f f2d1 bdbf 8081 8ebf 4e2d 033f
00000040: 1773 bebf 4a4a 67bf f4ab 2d40 6e18 703f
00000050: 2e1f 543f 7bdb 063f 9267 413f 5d5a f8be
00000060: 4ff3 ab3f 6a86 d0bf 7e9a 6dbf bc86 8a3f
00000070: a02a 14bd 8a19 253f 131e 043f 9235 4dc0
00000080: 6161 65be b521 f93f 0ede e1be 0e24 3b3f
00000090: 7e3c a0be cc65 513e 52c2 7a3e 4ea2 f13f
000000a0: 55d2 f03f d431 0c3e e546 18c0 a391 86be
000000b0: fcf0 2c3f 940b 19c0 95d6 3c3f 1bf0 ff3f
000000c0: cba5 d6bf 7d6e 8d3f 6b9f e63f 3c43 4fbf
000000d0: 6c0e c3be 745c acbf c7f9 d63f 1dbb c1be
000000e0: 594f 22c0 f8ad 1840 3ff8 8bbf 6f47 4040
000000f0: c3b0 50bc 878d 47bf 0a9f fcbe d846 8bbe
00000100: 96df efbe 009c 58bf 35ab 37bf 4a97 853e
00000110: 3d07 683f 5b1f 9abf 7b8c 8a3f 7873 84c0
00000120: ccac a2bf 92a0 d73e a405 c7be 70d7 26bf
00000130: b720 67bf 1f20 2b40 0cd1 d1bf 1d37 f83d
00000140: adfe a3bf bc24 31be 967b 953f f808 f53f
00000150: 56c2 a7bf 82ea efbf 892e ad3f 7469 b6be
00000160: f6e0 b8bd 33a7 04bf ffad 4540 8220 853e
00000170: 994f 323f 73b8 f63e 8847 22c0 611b 973f
00000180: e1d5 5b3f 2966 24c0 48e7 46c0 405d db3f
00000190: 9d7b ddbf 3711 91bf cdb1 bf3f 8723 b33f
000001a0: e8f5 2dbf bee0 5cc0 7774 973f 8f5a 53bf
000001b0: 2f52 1dc0 9f66 193f eb5c 2c3f bc3e 42bf
000001c0: 52bc 8f3f 70dc 2b40 cff1 9fbf a6d0 84be
000001d0: 093d 8abf 39ea 963e c242 c93e 4052 cf3f
000001e0: 630f 3d3f 1a5c 0740 55d7 ce3d ce27 38bf
000001f0: 895c 6dbf a046 c83d b9bc f2bf e887 a43e
00000200: eafb 353f c247 89be 3884 c93f ad3c 20c0
00000210: f1b7 bdbf e8f4 0bbf 3002 d03f 563d d0be
00000220: 86b6 fdbd 3986 8e3f 6297 ac3f 7959 1340
00000230: fd97 35bf fa3c 1b3e 985b e43d b93e 08c0
00000240: e2d6 1e3f 4c84 adbf 6ca1 bdbf 0001 603e
00000250: 97f2 203f 5454 eb3f 60c6 86c0 1fff 0dbe
00000260: a095 893e 8ffc 8140 5243 efbf 41c8 0a3f
00000270: 63b8 46c0 c51a e0be 85b4 2d40 0c03 29c0
00000280: ab88 93be 507d f03f 6b60 5d3f 3687 a1bd
00000290: dbea 4e40 9033 c33e 5afb e8bf 5e01 883f
000002a0: ef7d aa3f 3e92 913f 88c8 c03e 7c01 cbbe
000002b0: ad1f 573f 2dee 7dbe c018 2d3d 3d96 2fbf
000002c0: 8df2 783f d071 a7bf 91b6 e6be 80c9 94be
000002d0: 0334 a33f 4557 8cbc 3426 0d3f 565c c8be
000002e0: f7d5 3bbf c59c f93e 4cc5 afbf 03bc 7a3f
000002f0: 553e d63f abc1 acbf ce9e 91bf f953 a43e
00000300: 5840 cc3e 69ad 3840 1210 1e3e 34e0 febf
00000310: 9ecf 40bf 9ed3 3840 7369 1540 0efc 02bf
00000320: d666 62bf 4559 58be 5c8a f93f 09c8 a340
00000330: f6d1 733f ee70 06c0 6f92 5e40 36da 07c0
00000340: a002 8d3e 4527 5540 270e 433f 9b0e a73f
00000350: ea5d 7bbf 5f43 b53f 0359 08be deda 13c0
00000360: 7a5a b63f 7777 23bf 0bf6 5abf 7f16 a6bf
00000370: 5382 963d 835d 71c0 93ce 6dbf 9ab5 3b40
00000380: 3d2b 66c0 ed4f 3ac0 397a 0340 740e 5ebf
00000390: 5015 303d 9e92 e23f 4086 a1be 75d3 6dbf
000003a0: 48bb 9cbe 79be 003f c884 9d3d 8e5d d0bf
000003b0: cd9b 973f 041a 04bf 78a6 773f 8f80 97bd
000003c0: 0044 b53f ef48 8dbf f923 463d 7c4e 5e3e
000003d0: 417a db3e a557 1d3f 810b 0e3c d5c7 613e
000003e0: 3a84 1bc0 bd00 e63e e26e 7c3f eaf2 c43f
000003f0: 5a70 893d a0c5 6fbf 38a0 ebbf 0add ac3f
1.370712 -2.4847033 0.09382321 0.889959 -3.3991373 1.1461571 0.26524195 0.93909746
-1.1489846 0.87196213 -1.9448767 2.0614212 1.3491082 -1.4829695 -1.113327 0.51241004
-1.4878873 -0.9034773 2.7136202 0.93787277 0.82860076 0.5267865 0.7554866 -0.48506442
1.3433627 -1.629102 -0.9281386 1.0822368 -0.036173463 0.64492095 0.5160839 -3.2063947
-0.22400428 1.9463412 -0.44114727 0.7310189 -0.31296152 0.20448989 0.2448819 1.8877656
1.8814188 0.13690883 -2.379327 -0.26282987 0.6755521 -2.3913317 0.73764926 1.9995149
-1.6769346 1.1049343 1.80174 -0.80961967 -0.3809694 -1.3465714 1.6794976 -0.3783807
-2.536093 2.3856182 -1.0935134 3.00436 -0.012737456 -0.7795033 -0.49340087 -0.27202487
-0.4685027 -0.8461304 -0.71745616 0.26091987 0.90636045 -1.2040819 1.0824121 -4.1390953
-1.2708983 0.42114693 -0.3887149 -0.6517248 -0.90284294 2.6738355 -1.6391921 0.12119887
-1.2812096 -0.1729917 1.167834 1.9143362 -1.3106182 -1.8743441 1.3529826 -0.3562733
-0.09027283 -0.51817626 3.0887449 0.26001364 0.69652706 0.481876 -2.535616 1.180523
0.8587323 -2.5687354 -3.1078663 1.7137833 -1.7303349 -1.1333379 1.4976135 1.3995217
-0.6795335 -3.4512172 1.1832417 -0.82560056 -2.458141 0.5992221 0.6732928 -0.75876975
1.1229346 2.6853294 -1.2495669 -0.25940436 -1.0799876 0.29475573 0.39308745 1.6196976
0.73851603 2.1149964 0.10099665 -0.7193574 -0.9271932 0.09779096 -1.8963844 0.32134938
0.71087515 -0.2681256 1.5743475 -2.5037034 -1.482176 -0.5467057 1.6250668 -0.40671796
-0.12388329 1.1134712 1.3483698 2.302336 -0.7093504 0.1515998 0.111502826 -2.1288283
0.62046635 -1.3555999 -1.4814887 0.21875381 0.6287016 1.838511 -4.2117157 -0.13866852
0.26871967 4.06208 -1.869242 0.54211813 -3.105004 -0.43770424 2.714143 -2.640811
-0.28815207 1.8788242 0.8647525 -0.078871176 3.2330844 0.38125277 -1.8201706 1.0625417
1.3319682 1.1372755 0.37652993 -0.3964957 0.8403271 -0.24797888 0.04225993 -0.6858862
0.97245103 -1.3081608 -0.45061162 -0.29059982 1.2750248 -0.017131457 0.5513642 -0.39132947
-0.7337336 0.48752418 -1.3732085 0.97943133 1.6737772 -1.3496603 -1.1376588 0.32095316
0.3989284 2.885584 0.15435818 -1.9912171 -0.753168 2.887916 2.334561 -0.51165855
-0.88438165 -0.21127804 1.9495349 5.1181684 0.9524225 -2.1006427 3.4776876 -2.1226935
0.27541065 3.3305218 0.7619347 1.3051332 -0.98190176 1.4161185 -0.13315205 -2.3102336
1.4246361 -0.63854164 -0.8553168 -1.2975615 0.07349076 -3.7713325 -0.9289333 2.932959
-3.596389 -2.9111283 2.0543349 -0.86740804 0.042989075 1.7700994 -0.31547737 -0.9290078
-0.30611634 0.5029064 0.07691342 -1.6278551 1.1844422 -0.51602197 0.96738386 -0.073975675
1.4161377 -1.1037883 0.04837415 0.21709627 0.4286671 0.6146186 0.008669735 0.22048886
-2.4299455 0.44922438 0.98606694 1.5386631 0.067108825 -0.93660927 -1.840827 1.3504956

lstm.weight_hh_l1_reverse f4 [40, 10]
00000000: 672d 953f d476 85bf 84a4 713e 88c7 f0bf
00000010: d46e b0bf df4b 1bbf 2113 16c0 e533 11c0
00000020: 30ab 963f 1f05 ed3f 2e1e 67c0 d848 6dbf
00000030: f53c bc3d 0a3c 243f c851 94bf 2f3b 883f
00000040: ffa2 9cbf bcb8 d0bf 7ed2 9a3f 4bf2 b8be
00000050: b17c debe d36a 0c3e 1ef9 f63f f7dc 3bbe
00000060: 8471 afbe 4f2a 1840 187e d1bf a543 3abf
00000070: 8b93 773f 1c32 b1bf ad76 c8bf d5a1 9d3f
00000080: 817a f93f 22a9 0bc0 89df 933e bab6 f63d
00000090: 0ebc 973d 3ecd e9bf abcd 2f3f 2c26 ecbf
000000a0: 4117 36bf f9f7 9ebf 458a c4bd 97de ccbf
000000b0: c2f9 cf3e a490 633e ffd7 073f 6d9e a2be
000000c0: 0361 d33f 3fdc b7bf 415a 1b3f ce9b 20bf
000000d0: 5a81 c13e e986 78c0 a5be 933f 1e6d cd3e
000000e0: e7c2 ecbf 0e82 f4bf 34f8 053d 1f40 3d3f
000000f0: 3450 9abf 9805 9fbf f040 4040 107f 63bf
00000100: 75f3 1cbf 1f0f ab3e e6ab 18be d4c1 84c0
00000110: b0ee 983e 0723 5f3f d74a 0740 e1d0 d8bf
00000120: 20cf 64bf a7b8 483d 0698 923f 711d 51bf
00000130: 5972 683e 7655 cebe 9cc0 2dbe 815b a0bd
00000140: f342 53bf 9026 21bf 5651 49be b6e5 1240
00000150: e871 3e3f e00c 0dc0 abca cfbf 0ed6 51bf
00000160: 63cf 50be 37b7 0cbd 5b17 e0bf c801 4abf
00000170: cfdb 15bf 3197 b4bf d51a dd3f 1187 4f40
00000180: 91ea 49bf 7a69 ee3f 40cd c8bf 7951 a73e
00000190: e715 8c3f c20e c03e 7a2c 3e3f 75bf 75bf
000001a0: 64c7 463f c1c6 babf 801a 1f40 f17f 8d3f
000001b0: 9484 0d40 3db5 48be 43a6 ed3f 7a44 c23f
000001c0: 1f7c 9f3f 2814 dcbe c269 0d40 6c8d eb3e
000001d0: cb68 0bbe b6fd ca3f 32ab 40bf 5054 8dbe
000001e0: 7fd6 3240 e36b 1340 54b3 c9bf 6117 4240
000001f0: e901 5b3f 5eaf 933f 28b9 973f 7cc7 0540
00000200: 1701 88bf c3b0 4e3f c4dd 473f b890 cf3f
00000210: af5a 803d 9c89 4cbf 60f7 903e 3926 0d3f
00000220: 4ef6 493f c311 f73d b029 183f ddad 163f
00000230: bff4 6d3f d99c a03e fde1 21c0 6045 00bf
00000240: beb0 a83f df9f ca3e e06b 34bf 451d c2be
00000250: 2c05 35c0 ce5c a63f f995 29bf 07e8 5a3f
00000260: 4710 8fbf 1a61 44bf bd46 c93e b0f9 0f40
00000270: 41df dfbf 7e0f f2bf 0bbb 9dbf 16ef 413f
00000280: 6061 4abe 1fbe 23bf 1d52 083f 1b7e 5dbf
00000290: 581d 16c0 090e c1be 11a2 adbf d8fa eabe
000002a0: 53d7 0b40 1f4e bbbf 39dc 2640 4880 84be
000002b0: b9fe 99be 15b2 d83f 9219 d0bf 4b17 7b3e
000002c0: 7c52 0440 18d3 633f 9c02 8d3f 1384 a73f
000002d0: 7e86 c03e 26b8 9bbe 4a59 ce3f 2020 443e
000002e0: 7452 3fc0 2258 553f 46d3 1040 ac1d 1dbf
000002f0: bb0e fc3f a71b cbbd a12d 6f3f 4977 553f
00000300: 6073 2e40 f6fb 0240 9901 82c0 9552 ddbd
00000310: 3d36 663e 8bed 44c0 1f21 0fbf 6c8c d53d
00000320: e459 e8bf 245f 9a3f 6bd3 09c0 75c4 8dbd
00000330: f20e 3f40 3cb0 1ec0 45b6 c0bf 42f2 97bf
00000340: 12aa 04c0 0ed7 b23f d4cf 1fc0 87fd 1dbc
00000350: 89f9 9e3d 6cec bfbf 3f26 aa3f fd1c 19bf
00000360: 5925 003f 71ac a73f 3749 09c0 8e8e efbf
00000370: 3de8 883f 7dd6 b33e 3b5b 303f f497 e83f
00000380: 8dce ac3f 3bf1 3c40 9b38 7940 2cd5 9f3c
00000390: 8d51 dfbe 90d9 8d3f cedb 96be 8bd1 2240
000003a0: 88b0 22c0 3627 cf3d f58d 3440 2c23 693e
000003b0: a1bf 20c0 b25c 5bbf 35b3 05c0 b880 763f
000003c0: 497d 853f 3de5 b1bf 2529 e0be 9789 33c0
000003d0: 1e0d c03e 54c4 0e40 bd16 ebbf 6085 b13f
000003e0: 21e0 07c0 aba0 dabf 94d6 903e 90bb 2f3f
000003f0: e77c 2ebe b913 b83f 65ec 713e ee06 72bf
1.1654481 -1.0426888 0.23597914 -1.8810892 -1.3783822 -0.60662645 -2.3449175 -2.2687924
1.1770992 1.8517188 -3.611217 -0.92689276 0.09191314 0.6415411 -1.1587458 1.0643061
-1.2237242 -1.6306376 1.2095487 -0.36122355 -0.43454507 0.13712625 1.9294775 -0.1834601
-0.34266293 2.3775823 -1.6366606 -0.7275947 0.9670951 -1.3843417 -1.5661217 1.2315012
1.949051 -2.182198 0.2888148 0.12046571 0.074089155 -1.826576 0.686732 -1.8449149
-0.7112923 -1.2419425 -0.09596685 -1.6005429 0.40620238 0.22223145 0.5306396 -0.31761494
1.6513981 -1.4364089 0.6068459 -0.6273774 0.37794 -3.8832343 1.1542555 0.40122312
-1.849698 -1.910219 0.032707408 0.73925966 -1.2055726 -1.2423582 3.0039635 -0.88865757
-0.61308986 0.33409974 -0.14909324 -4.1486607 0.29869604 0.8716282 2.1139429 -1.6938745
-0.8937855 0.049004223 1.1452644 -0.8168555 0.2269987 -0.40299577 -0.16968006 -0.07829953
-0.8252403 -0.62949467 -0.19659933 2.2952704 0.7439256 -2.2039108 -1.6233724 -0.81967247
-0.20391612 -0.034354415 -1.7507128 -0.7890897 -0.58538526 -1.410864 1.7273813 3.2426188
-0.78873545 1.8625939 -1.5687637 0.32679346 1.0944184 0.3751126 0.74286616 -0.95995265
0.77647996 -1.4591905 2.4859924 1.105467 2.211217 -0.19600387 1.8566364 1.5177147
1.2459754 -0.42984128 2.20958 0.46006334 -0.13614194 1.5858676 -0.75261223 -0.27603388
2.7943418 2.30346 -1.5757852 3.032677 0.8554979 1.1537893 1.185338 2.0903006
-1.0625333 0.80738467 0.7807276 1.621604 0.062672965 -0.79897475 0.28313732 0.5513645
0.78891456 0.12063935 0.5943861 0.58859044 0.9295158 0.31369665 -2.5294182 -0.5010586
1.3178937 0.39575097 -0.70477104 -0.37912956 -2.8284407 1.2997072 -0.66244465 0.85510296
-1.1176842 -0.76710665 0.39311782 2.2496147 -1.7490007 -1.8910978 -1.2322706 0.7575544
-0.19763708 -0.63961977 0.53250295 -0.86520547 -2.345541 -0.3770602 -1.3565084 -0.45894504
2.1850173 -1.4633216 2.6071913 -0.2587912 -0.3007715 1.6929346 -1.6257803 0.24520604
2.0675344 0.8899398 1.1016421 1.3087181 0.3760261 -0.30413932 1.6120999 0.1915288
-2.9894075 0.83337605 2.262895 -0.613734 1.9691995 -0.09917384 0.93429 0.8338514
2.725792 2.0466285 -4.062695 -0.10806767 0.22481628 -3.0769985 -0.55909914 0.10427174
-1.8152432 1.2060285 -2.153529 -0.06922237 2.9852872 -2.4795065 -1.5055624 -1.1870806
-2.0728803 1.397188 -2.4970598 -0.009642965 0.07762439 -1.4994025 1.3292922 -0.5980986
0.5005699 1.30995 -2.1450937 -1.8715379 1.0695873 0.3512458 0.68889207 1.8171372
1.3500534 2.9522235 3.89408 0.019510828 -0.43616906 1.108202 -0.29464573 2.5440395
-2.5420246 0.10114901 2.8211644 0.22767323 -2.511696 -0.85688317 -2.089063 0.9629016
1.0428859 -1.3898083 -0.4378139 -2.8052728 0.37510008 2.230733 -1.8366314 1.3868828
-2.1230547 -1.7080282 0.2828871 0.6864557 -0.17039834 1.4381019 0.23625334 -0.94541824

lstm.bias_ih_l1_reverse f4 [40]
00000000: cd34 e2bf 5b02 e53f c91c 943f 0e6d 883f
00000010: 3359 983f 6021 cf3e 7b63 d2bf 2ce3 c2be
00000020: f478 cc3f 41ac 743e 4ed2 943e 87e9 20bf
00000030: 50d0 853f 44de 63be 4ccb b7bf 8e3e 95bd
00000040: 4760 1dbf 2529 a13f 48c3 ce3f 76cf 7cbf
00000050: 6c96 48be 2fd7 873f c992 babe 9d28 423f
00000060: 1e6d 373f 87b1 553e d4ef debe c44d 8e3d
00000070: efca 9e3f ca89 3cbf 49f5 df3e 7c4f f73e
00000080: 805c ae3f f817 ac3f 4d07 2c3f 0d84 4bbf
00000090: 02b6 0240 8f35 03bf 65b9 93be f7d4 fdbe
-1.7672364 1.7891344 1.1571285 1.0658281 1.1902221 0.4045515 -1.6436609 -0.38063943
1.5974412 0.23893835 0.290667 -0.62856334 1.0454197 -0.22252756 -1.4358916 -0.07287322
-0.6147503 1.2590681 1.6153345 -0.9875406 -0.19588631 1.0612544 -0.36440113 0.7584322
0.71650875 0.20868503 -0.4354235 0.06948426 1.240568 -0.7364775 0.43741825 0.4830283
1.3621979 1.3444815 0.6719864 -0.7949837 2.0423589 -0.512536 -0.28852382 -0.49576542

lstm.bias_hh_l1_reverse f4 [40]
00000000: 1c5b d8bf 6b96 ce3f fc79 bf3f b269 8d3f
00000010: 6221 b33f d748 b33e 261f eebf 4171 febe
00000020: 8075 e33f 7a6d ad3e 50c2 5c3e e84b 1fbf
00000030: 1b1e 3a3f 7cf4 13bf 5b38 7dbf 3956 c4be
00000040: e8e5 e1bd 3783 be3f 4205 933f 1d1f 50bf
00000050: cdb5 0d3e 59b0 b43f 1f06 81be 3f12 5f3f
00000060: f591 423f a383 ebbb dc98 a9be 9070 b43e
00000070: 1823 a83f 4a8e 6fbf f00b 5dbd 311c 4d3f
00000080: 8e2f 9a3f 3006 bf3f 75ca 633f 77a3 c4be
00000090: ff7f ea3f 993b b8be 3ca5 26bf b4e2 23be
-1.6902804 1.6139654 1.4959102 1.1047881 1.3994563 0.3501651 -1.8603256 -0.4969578
1.7770233 0.33872586 0.215585 -0.622252 0.7270219 -0.5779493 -0.98914117 -0.38347033
-0.11030179 1.4883794 1.148598 -0.81297475 0.13838883 1.4116317 -0.25199983 0.87137216
0.7600396 -0.007187323 -0.33124435 0.35242128 1.313571 -0.9357649 -0.053966463 0.8012114
1.2045763 1.4923763 0.889808 -0.38405964 1.8320311 -0.3598297 -0.6509588 -0.16004449
