staticfiles/equi_weights/lstm_microscope.pt (torch, 21586 bytes, 20 tensors)

cnn.weight f4 [1, 1, 2]
000000 b4 87 13 3d d3 33 d6 3f
       0.03601809 1.6734565

lstm.weight_ih_l0 f4 [40, 1]
000000 c5 e4 00 be 66 3f a0 be 32 e7 12 c0 f1 97 4a 3f
       -0.12587269 -0.3129837 -2.295361 0.79138094
000010 92 61 b1 bf b8 51 66 3f 40 df 8e 3e f4 d5 96 be
       -1.3857901 0.8996844 0.279047 -0.29460108
000020 e7 a3 a2 3e c4 e6 b7 3d b5 60 62 bf 6e 81 67 c0
       0.31765673 0.08979562 -0.88428813 -3.6172748
000030 fa 65 97 3f 52 e8 dc bf 64 97 0a c0 3c 31 1a bf
       1.1827996 -1.7258399 -2.1654902 -0.60231376
000040 5c 9f 65 c0 48 04 ee be d6 d7 14 40 2b 0f 88 be
       -3.5878515 -0.4648764 2.3256736 -0.26574072
000050 85 77 96 3f 67 01 9c bf 19 7d ab 3e fe 17 a7 3f
       1.1755224 -1.2187928 0.3349388 1.3054197
000060 c5 72 1b 3f 0e 39 8e 3f c9 f1 95 3f 61 8c db 3f
       0.60722 1.1111162 1.1714412 1.7152215
000070 43 79 e1 bf b5 3c 2f 3e 6e 64 cf be 8b 7a fa bf
       -1.7615131 0.17113002 -0.4050631 -1.9568647
000080 24 ce 10 c0 1b 5c 22 bf 61 f3 4e c0 af 99 44 3f
       -2.2625818 -0.6342179 -3.2336047 0.76797
000090 d8 a9 61 bf b1 36 b6 3f 27 c2 a5 3e 0e 15 6f 3e
       -0.88149786 1.423544 0.3237469 0.23347875

lstm.weight_hh_l0 f4 [40, 10]
000000 3d f6 29 be a9 04 f2 3f 5f 65 6b 3f 58 2c af bf
       -0.16597839 1.8907672 0.91951555 -1.3685408
000010 27 c3 57 40 43 98 8b bf 16 05 a7 bf ea 61 92 40
       3.3712862 -1.0905842 -1.3048427 4.5744524
000020 93 eb dd be 75 8c 51 3f 95 da a6 bf 8b 96 46 bf
       -0.4334379 0.81854945 -1.3035456 -0.7757346
000030 a8 cc 21 3f 15 05 24 c0 19 19 99 be 9a 5e 88 3f
       0.63202906 -2.5628102 -0.2990196 1.065387
000040 88 d5 5c c0 28 b1 72 3f 8b 7b fc be 93 6f e4 bf
       -3.450533 0.9480157 -0.49313006 -1.784655
000050 d3 6d 30 c0 75 a1 0e 3f 15 09 e3 3e 6d f2 e9 3f
       -2.7567031 0.55715114 0.44342867 1.8277107
000060 22 c3 83 bf a9 c1 94 40 43 74 09 40 dc ed e7 3f
       -1.0293925 4.64864 2.147721 1.8119464
000070 c2 93 e9 3e e7 1a a1 bf fd 14 84 bf 2e d7 73 bf
       0.45620543 -1.2586335 -1.0318905 -0.95250213
000080 8e 98 a0 bf 72 da c6 bf 81 12 03 c0 94 4f 57 3f
       -1.2546556 -1.5535414 -2.0480044 0.841058
000090 f9 55 08 3e de c2 00 c0 e4 44 40 40 a9 20 80 bf
       0.13314046 -2.0118937 3.0042048 -1.0009967
0000a0 37 9c ba bf 6b a8 00 40 0c 70 1a 40 31 ca 6e 3f
       -1.4578923 2.0102794 2.4130888 0.9327727
0000b0 eb a9 d2 bf be 28 d4 bd bc 42 a1 3f 1f 0a 2a 40
       -1.6458105 -0.103593335 1.2598491 2.6568677
0000c0 40 8a 3a 40 12 43 26 3f c0 5c cb bf 01 9b c0 bf
       2.914688 0.6494609 -1.588768 -1.5047303
0000d0 76 6a c6 3f 40 9b 0f 3f b3 19 9f 3f f3 c6 20 bf
       1.5501239 0.5609627 1.2429718 -0.6280357
0000e0 9f e2 ca 3e 9a 37 48 be f7 a0 e9 bc ae f3 64 bf
       0.39626023 -0.1955246 -0.028519137 -0.89434326
0000f0 72 45 b9 3e 4d e4 19 40 dd de 06 40 9a d7 de 3e
       0.36185795 2.4045594 2.1073525 0.43523866
000100 ae 33 bd 3f 66 1f 81 c0 a0 68 3c bf 7a 43 52 c0
       1.4781396 -4.035083 -0.73597145 -3.2853684
000110 e5 6c 7c be 06 f1 63 40 c9 03 38 be 15 63 b4 c0
       -0.24650915 3.561586 -0.17970194 -5.637095
000120 d1 0b 99 c0 64 80 86 40 51 15 84 c0 13 4b 71 3c
       -4.7826924 4.2031727 -4.127602 0.014727372
000130 19 50 43 3f b8 86 17 c0 6c cd 22 bf ef 47 8d bf
       0.76294094 -2.3675976 -0.635947 -1.1037577
000140 f8 f1 a6 3f 5f 83 e0 be 4f 8e 64 bf 06 76 2e 3f
       1.3042593 -0.43850228 -0.89279646 0.6814884
000150 c0 f3 d1 bc d8 d1 76 40 ff aa b4 3f fd 62 66 40
       -0.025628924 3.8565578 1.4114684 3.5997918
000160 40 b9 69 c0 b6 68 11 c0 c8 a3 34 3f 57 3e 8e bf
       -3.6519318 -2.272016 0.7056241 -1.1112775
000170 12 d3 38 3f 1e 75 a0 3f 52 f9 40 bf 53 bf be bf
       0.7219707 1.2535741 -0.7538043 -1.4902138
000180 d8 fd c8 3f bd 35 e5 bf c4 b6 2a bf c0 84 2b 40
       1.5702467 -1.7907025 -0.6668513 2.6799774
000190 4b bb 29 40 11 00 b3 3f 18 d5 86 3f 8a 03 42 3f
       2.6520565 1.3984395 1.0533781 0.7578665
0001a0 06 5e 78 3f 2c a8 a7 3f 6e ae 18 40 7c 3a 54 c0
       0.9701847 1.3098197 2.3856463 -3.3160696
0001b0 15 27 8c 3e 5b e0 3f 3f 52 b5 68 bf 1c ac b3 be
       0.27373567 0.74951714 -0.9090167 -0.35092247
0001c0 98 6b fb 3e 4e d2 d4 be 36 64 57 bf 98 c5 d3 bf
       0.49105525 -0.415667 -0.84137285 -1.6544676
0001d0 1c 63 b7 be 7f fb 62 be cb 2d a3 3f 45 d8 5a bf
       -0.35817802 -0.2216625 1.274835 -0.8548625
0001e0 ad 75 0b bf 1c fa 45 c0 72 b7 1b c0 1d 3f c6 3e
       -0.54476434 -3.0933905 -2.4330716 0.38720027
0001f0 75 96 9d be bb 30 c4 3e 63 26 25 40 c5 7b 27 40
       -0.30778852 0.38318428 2.580468 2.6169293
000200 5f 36 aa be 67 fd b8 3f fc a6 79 bf f8 1d 99 bf
       -0.33244607 1.4452332 -0.9752042 -1.1962271
000210 40 e4 d5 bf 9e 2a c0 be 8b 15 05 c0 7f 09 8e 3e
       -1.6710281 -0.37532514 -2.0794399 0.2774162
000220 af 8f aa bf fe 6c 6f c0 be 00 28 c0 ce ce 0d be
       -1.3325099 -3.7410274 -2.6250453 -0.13848421
000230 b3 b6 03 3e b9 a2 99 3e b0 fb 03 3f 66 98 8a bf
       0.12862663 0.3000696 0.5155592 -1.0827758
000240 c9 18 7e 40 6c 3f f2 3c d0 49 a8 3f c4 2e ee 3e
       3.9702628 0.029571258 1.3147526 0.46520054
000250 c9 88 1b c0 92 15 23 40 eb 73 3e 3f 72 a9 8d bf
       -2.4302237 2.5481915 0.74395627 -1.1067336
000260 24 0b ee be 99 e2 0a c0 4c f7 90 bf e8 5b 4a c0
       -0.46492875 -2.1700804 -1.1325469 -3.1618595
000270 7d b4 31 c0 23 43 b3 bf f5 55 18 bf af da 9f 3f
       -2.7766411 -1.4004864 -0.5950616 1.2488612
000280 c8 41 1f bf 65 95 1a c0 d1 a2 70 bf b0 db 1e c0
       -0.6220975 -2.4153683 -0.9399844 -2.4821587
000290 89 d3 87 be 6a ba f4 3f 3e 98 94 bf 9c 16 36 c0
       -0.26528576 1.9119389 -1.1608961 -2.84513
0002a0 4a 0a 11 c0 01 0f 80 bd 9b 66 85 bf 12 65 e7 3f
       -2.266253 -0.06252862 -1.0421938 1.8077719
0002b0 50 8c 40 40 45 03 f3 bf 8e 29 1d 40 58 83 92 40
       3.008564 -1.8985373 2.4556613 4.578533
0002c0 54 a3 a6 bf 3f f2 d2 3f bc 87 f7 bf 32 fe 47 c0
       -1.3018594 1.6480178 -1.9338298 -3.1248899
0002d0 a5 fd b3 3e db 91 33 bb c2 5a e6 3f b2 5e b7 be
       0.35154453 -0.002740017 1.7996447 -0.35814434
0002e0 66 f7 19 c0 31 56 da bf 29 f3 50 3f 73 8f a6 bf
       -2.405725 -1.7057554 0.8162103 -1.3012527
0002f0 38 af cc 3e 53 0c da be 26 9b f3 bf 31 eb 1e be
       0.3997743 -0.42587528 -1.9031723 -0.15519406
000300 b2 80 2e 3f b9 f2 74 bf 8a 99 35 c0 e8 73 35 c0
       0.68165123 -0.95682865 -2.8374963 -2.8351994
000310 fc 63 69 b9 2f 13 c5 bf 57 c1 a4 3e 52 c4 25 40
       -0.00022257859 -1.5396479 0.32178757 2.5901074
000320 e9 a4 cf bf e1 c2 1c 40 67 30 0c 3f a9 2c 62 bf
       -1.6222202 2.4493945 0.54761356 -0.88349396
000330 b3 16 5e 40 e2 d8 cd 3f c6 1a 20 be a5 4e 13 3f
       3.4701355 1.6081812 -0.15635213 0.5754188
000340 22 55 91 bc 59 13 4c bf ce 04 a9 bf 98 c1 9b bf
       -0.01774079 -0.7971702 -1.3204591 -1.2168455
000350 22 5b 03 bf e5 e7 53 c0 84 32 89 bf 90 0d 09 40
       -0.5131093 -3.3110287 -1.0718541 2.1414528
000360 01 c1 85 c0 6e c3 bc bf 93 26 88 3d 59 ab f2 bf
       -4.17981 -1.474714 0.066479824 -1.8958541
000370 10 07 e8 bf 67 39 d5 bf 4c c4 19 c0 55 57 26 c0
       -1.8127155 -1.6658143 -2.402606 -2.5990803
000380 cc fa ea bf 89 a4 20 3f 71 d2 1c c0 c9 fd 00 bf
       -1.8357787 0.6275106 -2.4503443 -0.50387245
000390 68 25 cd 3c 0c b7 26 c0 85 fb 67 3f 23 d8 0f bf
       0.02504225 -2.6049223 0.90618163 -0.56189173
0003a0 4c 3a 54 3e d7 2d c6 bf 0e 3a 5b 3d aa ad 59 3c
       0.20725363 -1.5482739 0.053522162 0.013286034
0003b0 43 91 58 bf 78 9a b0 bf 8d 91 0f c0 85 81 10 bf
       -0.8459665 -1.379714 -2.2432587 -0.5644763
0003c0 f2 9e 2b bf 37 19 72 3e de a0 0f bc 36 07 f8 bf
       -0.67039406 0.23642431 -0.008766381 -1.9377201
0003d0 12 8c 27 3b aa 5a 73 3e 93 a7 76 c0 f3 d3 19 40
       0.0025565666 0.23765054 -3.853978 2.4035614
0003e0 39 4b d6 3f d0 4d b2 be 47 56 97 3f d8 cb f1 3e
       1.6741706 -0.3482499 1.1823205 0.47225833
0003f0 9f 86 76 3f 6a 8c 39 be 2a cd be bf bf 38 b0 bf
       0.96299165 -0.1811997 -1.4906361 -1.3767318

lstm.bias_ih_l0 f4 [40]
000000 39 08 cf 3d 1a 0c 52 bf 90 63 04 3f 65 88 6b be
       0.1010899 -0.82049716 0.5171442 -0.23001249
000010 9e 83 83 bf 3a 64 9f bf 69 f3 52 be 58 77 1d bf
       -1.0274541 -1.2452462 -0.20600666 -0.6151023
000020 1b 1c b4 3e 81 7c f3 bf 6e ec 8a 3e 41 9b d5 be
       0.35177693 -1.902237 0.27133507 -0.41720012
000030 e2 40 ce be 9e 9b e4 bf 10 89 64 bf da e4 28 c0
       -0.40283877 -1.7859991 -0.8927164 -2.638968
000040 1a 7a ac bf 68 63 d5 bf 43 47 67 bf 70 87 11 c0
       -1.3474762 -1.6670961 -0.9034311 -2.2738914
000050 93 e0 9e be ca 21 8e be c2 c1 3b bf 39 23 38 bf
       -0.31030712 -0.27760154 -0.73342526 -0.71928746
000060 e1 ce 91 bd 7a 4c aa bf 54 b8 dd bd 69 20 9c bf
       -0.07119537 -1.3304589 -0.108261734 -1.2197391
000070 e8 06 86 3f 52 f7 81 3f e5 bc c3 3f 02 08 d3 be
       1.0470858 1.0153601 1.5292021 -0.41217047
000080 ad b4 a2 bc 1c 12 6b 3f 27 27 59 bf a2 d4 c9 bf
       -0.019861544 0.9182451 -0.84825367 -1.5768015
000090 99 a4 da 3e c8 06 ab 3c df 3f 7c 3f c1 ee c3 bf
       0.42703703 0.020877257 0.9853496 -1.5307237

lstm.bias_hh_l0 f4 [40]
000000 93 63 8b 3d f7 d9 4d bf 5d 15 9a 3e d1 3d db be
       0.06806102 -0.8041071 0.30094424 -0.428206
000010 5f 04 51 bf 79 0c d0 bf bb 39 47 bf 85 9b b6 be
       -0.81647295 -1.6253806 -0.77822465 -0.35665527
000020 49 07 cd 3e bc d4 c0 bf 4a 47 02 3e 81 d8 47 bf
       0.4004462 -1.5064921 0.12722507 -0.78064734
000030 aa ed 34 bf 72 70 ce bf 2d 39 33 bf ea 57 2b c0
       -0.70675147 -1.6128066 -0.7000912 -2.6772408
000040 9f 3f a8 bf c6 c7 f2 bf 4b 74 ba bf d0 1d 24 c0
       -1.3144416 -1.8967216 -1.456674 -2.5643196
000050 9a 2c a8 3d 06 fd 0c ba 4c ac 3f bf 90 af a7 be
       0.08211632 -0.00053782796 -0.7487228 -0.3275113
000060 98 ce 0b 3e 76 2a 76 bf c9 9b 1e bf 8a 07 8a bf
       0.13653028 -0.9615854 -0.6195646 -1.0783551
000070 98 39 bb 3f f1 00 96 3f 35 dd d7 3f 9c 92 d2 be
       1.4626951 1.1719037 1.6864382 -0.4112748
000080 ee 03 d0 bd b3 46 ae 3f 49 93 68 bf 26 02 c5 bf
       -0.101569995 1.3615326 -0.9084974 -1.5391281
000090 3c d8 37 3f 79 e8 f6 bd 8c 8f 0a 3f 71 bb f4 bf
       0.7181432 -0.120560594 0.54125285 -1.9119703

lstm.weight_ih_l0_reverse f4 [40, 1]
000000 31 84 e2 be a4 db cd bd aa da d4 bd b7 55 e3 be
       -0.4424148 -0.10051659 -0.10393269 -0.44401333
000010 83 8c e6 3f 88 1d 26 3f 0b a2 f3 3f e3 e6 cb 3d
       1.8011631 0.6488881 1.9033827 0.099561475
000020 e6 58 57 be 00 66 8d 3e aa 49 8e bf ad bf 2c bf
       -0.21030006 0.27616882 -1.111623 -0.67479974
000030 c1 e6 e7 be dc e1 bd 3f cd 6c 28 3f e1 8a 76 3e
       -0.4529324 1.4834552 0.65791017 0.24076416
000040 4b 4f 47 bf bd 8d d5 3f 3d 9f 14 3f 6f d8 bb 3f
       -0.77855366 1.668388 0.5805548 1.4675425
000050 e1 7d 54 be 4d 16 1e bf ac 3a e5 3e 54 8a f1 bf
       -0.20751144 -0.6175278 0.44771326 -1.8870339
000060 ed 46 fd 3f 73 10 4d bf b6 69 fc 3f 2a 3e 7a bf
       1.978727 -0.80103225 1.971976 -0.97751105
000070 83 b5 96 3c cd c7 04 40 06 01 bb 3e 06 49 5c be
       0.018397098 2.0746949 0.36524218 -0.21512231
000080 ee ad b5 3e 01 cb ac 3f 1e 5f de bf 6a 0b 18 bf
       0.3548426 1.3499452 -1.7372777 -0.59392416
000090 10 b7 88 bf 86 ec 9b 3e 09 ca 2f be cc 43 0d bf
       -1.0680866 0.3045389 -0.17166914 -0.55181575

lstm.weight_hh_l0_reverse f4 [40, 10]
000000 d7 6a 24 c0 b3 29 6e 3f 0d 4a 2f c0 54 4a 0d 3f
       -2.569021 0.9303238 -2.7388947 0.5519154
000010 b4 20 da 3f 12 4c 05 40 99 c1 b9 bf 1b 8e 3f 40
       1.704123 2.082768 -1.4512206 2.9930484
000020 cd 32 9d c0 00 8d 8b c0 29 c7 0b 3f ec 0f 68 bd
       -4.9124513 -4.360962 0.5460077 -0.05665581
000030 2e 0a 77 3e e2 38 23 c0 0f a5 00 40 2e 44 bf bf
       0.24124977 -2.5503469 2.0100744 -1.4942682
000040 44 d7 13 40 f9 22 e5 3e 92 65 b6 3f ba 44 6f 40
       2.3100138 0.44753245 1.4249747 3.7385697
000050 b3 67 2e c0 76 27 85 3e 91 30 05 40 1c e2 4d 40
       -2.7250793 0.2600667 2.0810893 3.2169256
000060 46 62 c5 3f 1c cb 1e 3f 4e 42 06 bf b5 cd 3c bf
       1.5420616 0.6202867 -0.5244492 -0.73751384
000070 72 85 d2 bf ce 74 50 40 b1 5f 93 3e a8 9c 95 3f
       -1.6446974 3.2571292 0.28783944 1.1688433
000080 39 d6 e7 3e 4c fa af 3f 36 a0 ba bf d2 c4 f7 bf
       0.45280626 1.374826 -1.4580142 -1.935694
000090 e0 9f bf 3f 1e 91 9a c0 b7 91 93 3f c5 fe 90 3f
       1.4970665 -4.8302145 1.1528844 1.132775
0000a0 90 4f bd 3e 66 03 fd be bf 08 01 c0 96 30 7f 3f
       0.36974764 -0.49416655 -2.0161588 0.9968351
0000b0 ad bc a5 40 f5 31 d6 be a3 c9 19 3f 04 1e 83 3f
       5.1792817 -0.4183499 0.600733 1.0243535
0000c0 93 19 39 3f e0 99 88 3e cb 22 4c 3f ba 30 6d 3e
       0.7230465 0.26679897 0.7974059 0.23163119
0000d0 a9 a1 07 3f 71 60 45 40 b4 74 62 c0 b8 1a 67 3f
       0.5298105 3.0840113 -3.538373 0.90275145
0000e0 c1 a0 db bf 35 10 62 3f 55 e9 3f bd 67 9e 09 c0
       -1.7158433 0.8830598 -0.046853382 -2.150293
0000f0 e2 13 31 3f e0 5a 0b 40 97 bc 72 be eb ab 9f 3f
       0.69170964 2.1774216 -0.23704754 1.247434
000100 0d 12 d8 3f e2 c9 55 bc f9 80 89 3f ae a0 8e 3f
       1.6880509 -0.013048621 1.0742484 1.1142786
000110 6b 79 5e 3f 1d 56 69 3f d7 72 13 3f cc 57 43 40
       0.8690402 0.91147023 0.57597107 3.0522337
000120 83 84 e5 bc ab 87 ca 3e c2 ec f1 bf 8a 7e c6 bf
       -0.028017288 0.3955663 -1.8900378 -1.5507367
000130 25 8c 60 3f aa 78 87 3e 7d 1b 1a 40 f9 30 21 40
       0.87713844 0.26459247 2.4079278 2.518614
000140 df b3 34 3f 1d 09 95 3f 80 97 8b 3f b0 2c be 3e
       0.7058696 1.1643406 1.0905609 0.3714347
000150 00 51 97 c0 7f 1c b3 bf 57 c7 37 c0 c1 d1 ef bf
       -4.7286377 -1.3993071 -2.8715417 -1.8735887
000160 66 b1 9c be cd df e0 bf d1 71 76 bd a7 fd 34 be
       -0.30604094 -1.7568299 -0.060167138 -0.17674886
000170 ba 65 97 be a5 c3 11 c0 8d 02 82 3f f5 89 16 3f
       -0.295698 -2.2775662 1.0157028 0.58804256
000180 c3 e4 c8 3f 5b 50 45 be 35 30 5c bf 07 34 db bf
       1.5694813 -0.19268934 -0.8601106 -1.7125252
000190 d6 b0 a9 bf 2b 13 23 3f a9 21 77 c0 49 fe 21 3f
       -1.3257091 0.63701123 -3.8614295 0.63278633
0001a0 c5 54 6f bf 66 83 03 40 fe 2c 24 bf 18 3a 8d 40
       -0.93488723 2.054895 -0.6413115 4.4133415
0001b0 94 ae 29 c0 d0 43 dc bf e1 a8 2c 3d cb 5b 4c be
       -2.6512804 -1.7208195 0.042153243 -0.19956891
0001c0 74 0f 13 40 8a 99 24 40 83 73 f6 bf 11 b9 12 40
       2.2978182 2.5718713 -1.9254001 2.2925456
0001d0 36 1e 05 c0 8c cd 16 3f 32 68 d4 bf fe 9b 72 c0
       -2.079969 0.5890739 -1.6594298 -3.790771
0001e0 55 d1 d3 bf db 83 b3 bf 88 87 20 bf d3 d7 8e bf
       -1.6548258 -1.4024614 -0.62706804 -1.1159614
0001f0 61 60 e8 3f bf 70 2f 3f e6 8f 99 bc 5f 12 b7 bf
       1.8154413 0.6853141 -0.018745374 -1.4302481
000200 c6 80 17 c0 37 07 3f bf 45 62 80 c0 3d d5 f1 3d
       -2.3672347 -0.74620384 -4.011996 0.1180825
000210 15 5d 3f 40 72 6b 26 be b6 14 72 3f b2 56 ac 3f
       2.9900563 -0.16251925 0.9456285 1.3463957
000220 99 d1 70 bf ca 3b 1a 40 0f b3 5b 3e e4 52 79 3f
       -0.9406982 2.4098992 0.21455024 0.97392106
000230 e6 33 89 3f 52 41 9a 3e f7 52 53 3f f0 b5 17 c0
       1.0718963 0.3012796 0.8254847 -2.3704796
000240 85 1c d8 be 17 12 22 c0 07 ab 79 3f 69 af 77 be
       -0.4220926 -2.532354 0.9752659 -0.24188007
000250 8c 08 35 3f ba 5f 76 3f 74 40 aa 3e a7 24 93 bf
       0.70716166 0.9623982 0.332523 -1.149556
000260 72 f1 05 40 13 7c d2 3e ca 8c 1e c0 77 cd 37 40
       2.0928617 0.41110286 -2.477343 2.8719156
000270 b9 68 39 c0 1f 1a 1e be 69 f5 a5 bd a3 49 d6 bf
       -2.8970168 -0.15439652 -0.08103449 -1.6741222
000280 ef c4 b0 be af 43 0a c0 d2 9a b2 3e ca ac 10 40
       -0.34525248 -2.160381 0.34883744 2.2605462
000290 fc b5 ba bf 7d 48 dd bf 7b 61 05 c0 9e a1 05 3e
       -1.4586787 -1.7287747 -2.0840747 0.13049933
0002a0 1b 2b 39 bf 98 f7 e1 bf d1 06 7e bf dc 20 11 40
       -0.723314 -1.7653685 -0.9922915 2.2676306
0002b0 d5 50 00 40 58 83 71 3f 6d cb 81 3f 22 e0 0f bc
       2.0049336 0.9434104 1.0140206 -0.008781465
0002c0 84 a6 36 c0 98 be df 3f 17 c4 9e bd 56 fb 48 3e
       -2.8539133 1.748004 -0.07752245 0.19627127
0002d0 a4 3f aa 3e 41 b8 48 be 00 0c 7b 3f 06 47 10 bf
       0.3325168 -0.19601537 0.98065186 -0.56358373
0002e0 7b a5 58 c0 d8 88 34 3f dc ea b0 bf 15 cd 3a c0
       -3.3851001 0.70521307 -1.3821673 -2.9187672
0002f0 ad 4f a6 bf 3a 94 a2 bf 22 15 81 bf d0 fc 5e be
       -1.2993065 -1.2701485 -1.0084574 -0.21776128
000300 12 bf 32 40 8d 44 4f 40 37 42 7d 3e 80 63 5a 3f
       2.792912 3.238559 0.2473229 0.85308075
000310 e0 97 77 bf f9 4a 26 be 98 b7 07 3f 14 a3 6f bf
       -0.9671612 -0.16239537 0.53014517 -0.9360821
000320 04 a0 76 3f d8 3b 60 bf 7a 1e 7e c0 bc bd 2c bd
       0.96337914 -0.87591314 -3.9706101 -0.042173132
000330 a7 27 6e 40 a0 6c e8 bf fd 5a 78 3f cb f0 2a 40
       3.7211702 -1.815815 0.9701384 2.6709468
000340 f8 04 a6 bf 07 c2 7c bf 31 6f 4a be 29 c9 11 c0
       -1.2970266 -0.9873356 -0.19768979 -2.2779028
000350 ee b0 99 bf 93 6b e1 bf 5e 0c c0 bf 3e 86 74 bf
       -1.200712 -1.7610954 -1.5003774 -0.9551734
000360 b1 a1 38 3e 7a a6 d4 bc 7b 58 03 3f 16 dd 7b 3f
       0.1803043 -0.025958288 0.51306885 0.98384225
000370 12 c2 45 bf 9c 9d 68 bf 98 c3 b8 3f dd 48 2f 3f
       -0.7724925 -0.9086549 1.443469 0.68470556
000380 b7 2a 9c be 6d 3d 21 40 cd d0 66 bf ac 33 03 40
       -0.3050134 2.5193741 -0.90162355 2.0500288
000390 52 0b 02 c0 e5 5e 19 3f d8 56 78 3f 03 9c 14 c0
       -2.031941 0.5991042 0.97007513 -2.3220222
0003a0 c0 12 eb 3e e8 41 df bf ea f1 0b be 3c 67 63 3f
       0.45912743 -1.7441988 -0.13666502 0.888294
0003b0 57 f3 20 bf d6 90 6e bf a2 02 e6 be cb 8f ac 3c
       -0.6287131 -0.9318975 -0.44923884 0.02106466
0003c0 ac 0b 23 3d 31 58 c0 bf 1a 76 3b bf a8 f4 55 bf
       0.039806053 -1.5026914 -0.73227084 -0.8357644
0003d0 42 44 04 c0 3a dc cd bf 26 b7 02 bf d0 79 09 c0
       -2.0666661 -1.6082833 -0.5106071 -2.1480598
0003e0 69 36 43 3f 78 75 98 3f 06 0f d4 be cc 80 d5 3f
       0.762549 1.1910849 -0.41417712 1.6679931
0003f0 2b 63 08 bf 7f 44 8e bf 62 ec e5 3f 70 3c 9d bd
       -0.5327632 -1.1114653 1.7962763 -0.07677543

lstm.bias_ih_l0_reverse f4 [40]
000000 4d 1f 2f bf 93 72 9c 3e 2d 12 b7 bf 2b 09 db 3f
       -0.68407136 0.30556163 -1.4302422 1.7112173
000010 5f 04 b3 3e 1a 3d 38 3f 9f 75 9b 3d 17 ce 0a bf
       0.34964272 0.71968234 0.07590794 -0.5422072
000020 fb c0 64 be 16 2d 74 bf 7e 23 a8 3f 71 3f df bf
       -0.22339241 -0.95381296 1.3135831 -1.7441236
000030 30 b6 64 bf 46 71 a4 bf 3c 93 1e 3e ac c6 1a bf
       -0.89340496 -1.2847068 0.15485853 -0.604594
000040 ce 40 fb bd d2 02 82 bf 14 48 27 3f 0c 34 ad be
       -0.1226822 -1.0157111 0.6534436 -0.3382877
000050 46 33 a6 3f 23 81 53 3f bb a8 a4 bf a7 98 9f 3d
       1.2984397 0.8261892 -1.2863992 0.07792788
000060 0b 80 87 3e 5f 94 f4 bf b6 88 04 3f b4 bf 9e be
       0.26464877 -1.9107779 0.51771104 -0.31005633
000070 1e 69 59 3f 8e cf 97 3e fb 4e 5d bf d4 18 5d 3f
       0.8492602 0.2965054 -0.8644864 0.8636601
000080 39 1d 81 3f b5 a6 f7 3f f2 c7 62 3e 34 8a a2 3f
       1.0087043 1.934775 0.22146586 1.2698426
000090 51 6c ba 3f 2c d8 03 bf 31 1a 40 bf 1a 9c 40 3f
       1.4564306 -0.5150173 -0.75039965 0.7523819

lstm.bias_hh_l0_reverse f4 [40]
000000 4c 7f 5c bf 90 34 df bc 23 43 b7 bf eb 98 fa 3f
       -0.8613174 -0.027246743 -1.4317364 1.9577917
000010 eb 3f 6f 3f c6 dc a5 3e de 92 ee 3e 37 b4 10 bf
       0.93456906 0.32395 0.46596426 -0.56524986
000020 62 33 b8 be 9b e8 93 bf 35 41 86 3f 7a 71 d2 bf
       -0.35976702 -1.155536 1.048865 -1.644088
000030 6c 39 89 bf df 89 a5 bf de 66 18 3d 24 85 4d bf
       -1.0720649 -1.29327 0.037207477 -0.8028128
000040 43 1b 29 be f7 b9 a3 bf 03 f6 fd 3e 18 44 a4 be
       -0.16514306 -1.2791127 0.49601755 -0.320832
000050 b8 05 6b 3f b9 27 ff 3e dd ad b5 bf 85 dd ca 3e
       0.918056 0.49834993 -1.4193684 0.3962213
000060 f7 63 73 bd 89 47 05 c0 29 47 06 3f e7 0a 1e be
       -0.059421506 -2.0824912 0.5245233 -0.15433846
000070 cb cf 54 3f be a1 10 be 4d 5d 7a bf b9 a1 1b 3f
       0.83129567 -0.141242 -0.97798616 0.60793644
000080 f5 a3 93 3f 94 43 b9 3f b4 2d 93 3e 05 df 8e 3f
       1.1534411 1.4473748 0.28745806 1.116181
000090 db 02 e6 3f 9f 3b 74 bf 73 f5 5f bf 82 e9 68 3f
       1.7969621 -0.95403475 -0.874839 0.90981305

lstm.weight_ih_l1 f4 [40, 20]
000000 81 6b a1 3f 19 76 2a bf 8b b8 cf 3f 2a c2 d4 3f
       1.2610933 -0.6658645 1.6228193 1.6621754
000010 85 3a 80 3f 4b 35 06 40 4a 57 fa 3f f2 bd 36 3f
       1.0017859 2.0970027 1.9557889 0.71383584
000020 21 88 2d c0 2f 7b 84 bd 7b a3 08 40 74 27 9d bf
       -2.7114336 -0.06468808 2.134978 -1.2277665
000030 9f 37 12 40 3f d2 1e c0 a7 78 82 bf a8 52 63 3d
       2.2846448 -2.4815824 -1.019307 0.05549875
000040 dd d8 81 3f 79 31 36 bf 17 24 50 bf 5e 7b 89 3f
       1.0144306 -0.7116924 -0.8130507 1.0740774
000050 a7 4a c5 3e 08 90 f4 3e 67 e1 64 3f c7 c0 f8 3f
       0.38533518 0.47766137 0.89406437 1.9433831
000060 8b 52 e7 3f cb 51 61 bf 45 42 81 3e 43 1b 39 40
       1.8072065 -0.8801543 0.25245872 2.892289
000070 0e e9 f5 bf 2b ee 6c be fa a9 d1 be 6d ed c6 3f
       -1.9211748 -0.23137729 -0.40949994 1.5541207
000080 78 0d 28 3f 85 b5 2a c0 27 c8 e4 3f 7f 96 7b bf
       0.6564555 -2.667329 1.7873582 -0.98276514
000090 63 81 23 40 31 9c 6d be 1d 40 b4 3f e4 44 12 40
       2.5547721 -0.23204114 1.4082066 2.2854548
0000a0 78 9f 54 bf 86 d9 11 3e f7 4b 02 3f 28 c8 00 3f
       -0.8305583 0.14243135 0.50897163 0.50305414
0000b0 e3 11 36 40 42 ef 0a c0 bf 3b 84 40 b2 4f 35 c0
       2.8448417 -2.1708531 4.132293 -2.8329892
0000c0 7b 05 2f 3f 72 e4 05 40 1b 74 36 3f 84 83 2e 40
       0.6836774 2.0920682 0.7127091 2.726777
0000d0 17 6d 05 c0 1a 57 b9 3e 93 01 0c 3f 6a ed a2 bf
       -2.0847833 0.36199266 0.546899 -1.2728703
0000e0 07 2d 08 40 b4 cb 18 40 4d 71 d1 3f 69 1d 2f 40
       2.1277483 2.387433 1.6362702 2.73617
0000f0 68 5f c2 3f b0 25 1f 3f 8a 66 df bf 86 bb 5b 3f
       1.5185366 0.6216688 -1.7453167 0.85833013
000100 a4 be 4a 40 ec 32 f5 be ac da 25 40 25 34 1a c0
       3.1678858 -0.47890413 2.5914717 -2.4094326
000110 71 d4 64 40 a1 cf 4c 3f bf bd 51 bf 5a cc dc 3f
       3.5754664 0.80004317 -0.81930155 1.7249863
000120 3d 54 0f be 2d 1a ae 3f 83 19 b7 3d c2 cc 5f 3f
       -0.13996978 1.3601738 0.08940413 0.8742181
000130 d3 f7 c6 3f d2 e5 72 3f c2 68 48 bf d5 f7 1f c0
       1.554438 0.9488193 -0.7828485 -2.4995015
000140 bd 18 f9 3e 23 38 bf bf 19 1d 18 bf 2d 2b bb bf
       0.48651686 -1.4939007 -0.594194 -1.4622551
000150 d4 16 42 bf 31 a6 02 40 d5 f8 ab 3f 2a 90 1d c0
       -0.7581608 2.0413935 1.3435313 -2.461924
000160 12 c5 3f c0 e1 74 1b bf 49 26 25 bf 65 06 be 3f
       -2.9964032 -0.6072522 -0.64511544 1.4845701
000170 4c a0 fc 3e 48 75 80 bf ee 3e 85 bf 10 d8 27 3f
       0.49341047 -1.0035791 -1.040983 0.6556406
000180 ec dc d6 3f 08 c8 05 3f 18 0c d3 3e fd 6f 7e 3f
       1.678617 0.5225835 0.41220164 0.9938963
000190 4a 7b 3d 40 b7 2a 00 bf 11 c4 d2 be 84 33 f9 3f
       2.96065 -0.5006518 -0.41165212 1.9468846
0001a0 39 b4 c2 3f 29 36 86 3f 6a bf 4f 3e 1e 27 37 3f
       1.521125 1.0485278 0.20287862 0.71544063
0001b0 d8 d5 87 bf d1 ff a4 be 3c 48 da 3e c6 78 3f bf
       -1.0612135 -0.32226422 0.42633235 -0.7479366
0001c0 74 3d 05 bd d7 bd 2c c0 5d ab 99 3e 86 4e 4d bf
       -0.03252931 -2.699087 0.30013552 -0.8019794
0001d0 79 51 8e 3f b2 35 86 bf 07 40 f8 3f aa ce 1b 40
       1.1118613 -1.0485137 1.939454 2.4344888
0001e0 68 a6 1e bf 6b 55 1d bf 85 1e 92 3f ba c2 06 40
       -0.61972666 -0.6145846 1.1415564 2.1056352
0001f0 c1 b8 e9 be 86 bc 4d 3f e3 17 81 40 91 0c 35 3f
       -0.4564877 0.8036579 4.034166 0.707223
000200 73 59 d0 bf 65 27 d7 be bd 17 81 3e d4 ff c4 bf
       -1.6277298 -0.42022243 0.25213423 -1.5390573
000210 05 f2 2c 40 5b 14 51 bf 1e de eb bf cf 76 52 3e
       2.7022717 -0.81671685 -1.842716 0.20553134
000220 0b 09 90 bf b1 a0 cf bf 15 cb b9 be f5 19 b7 3e
       -1.125276 -1.6220914 -0.36287752 0.3576199
000230 c3 74 5b bf 79 c1 c5 bf 41 c4 bc bf 77 1d 05 40
       -0.8572504 -1.5449668 -1.4747392 2.0799234
000240 f5 90 b9 c0 86 7d d8 3f 7e cd c7 bf 38 f6 48 be
       -5.798945 1.6913307 -1.5609586 -0.19625175
000250 8a 4b 68 40 6c ff de be 20 12 e4 3f d2 61 05 bf
       3.6296105 -0.43554246 1.7818031 -0.52102387
000260 56 ec b1 bf 26 ee 1f 3f 0b fd 43 c0 e2 3e 8c 3f
       -1.3900249 0.6247276 -3.0623195 1.095669
000270 14 6f cf bf 17 59 c7 bf 16 6e 78 bf 9e 81 78 bf
       -1.6205773 -1.5574063 -0.9704298 -0.9707278
000280 19 7d 2d c0 e5 79 fa 3f 84 08 a2 3f af fd 9c 3e
       -2.7107604 1.9568449 1.2658849 0.30662295
000290 93 d5 60 3f e7 3b 0a 40 65 9d 14 c0 61 5e 50 3f
       0.8782589 2.1599061 -2.3221066 0.8139401
0002a0 b8 bd 0b bf ca ca 03 be a5 76 8b be a4 ea ba bf
       -0.5458636 -0.12870327 -0.27238956 -1.4602857
0002b0 c0 6f 1f 40 31 cc 7a 3f 15 cd 60 bf 0d 3c 98 bf
       2.4911957 0.9796782 -0.8781293 -1.1893326
0002c0 49 c7 80 bf f6 2d 1d c0 16 91 b9 3f c8 cf d3 be
       -1.0060817 -2.4559302 1.4497402 -0.41369462
0002d0 c5 0f 8a c0 62 c8 d8 3e d2 77 bc be 00 d3 5c 3f
       -4.314425 0.4234038 -0.36810166 0.8625946
0002e0 e5 c3 06 40 1b 21 99 3e 8b ac d1 3e 5e 86 2d bf
       2.1057065 0.2990807 0.40951952 -0.67783153
0002f0 79 1b e5 3e 44 cd 2a 40 23 b2 85 bf ab 95 35 bf
       0.44747522 2.6687784 -1.0444988 -0.709315
000300 b3 16 69 3f 41 fb b0 be 20 c2 11 bf 3e 48 c2 be
       0.9105026 -0.34566692 -0.56936836 -0.3794574
000310 90 4d 02 3f 78 8f 26 bf 04 da a3 3f 63 89 4d bd
       0.508996 -0.65062666 1.2800908 -0.05017985
000320 7e de df bf 5a 6e 9a bf 73 ea 83 3f 00 79 c2 be
       -1.7489774 -1.2064927 1.0305923 -0.3798294
000330 f3 ab 74 3f 9d 1e aa bf 0d f4 83 3e 71 a3 0e c0
       0.95574874 -1.3290592 0.25772133 -2.2287257
000340 e9 df 1f bf e2 00 c2 3f 55 69 6a bf bb b5 ca be
       -0.62451035 1.515652 -0.91566974 -0.39591774
000350 6b f9 1c be 63 a1 58 3e 20 a9 fa bf 17 56 f1 3f
       -0.1532952 0.21155314 -1.9582863 1.8854398
000360 d3 8c 64 bf 2f a6 aa 3f b8 cd 19 c0 df f4 9c bf
       -0.8927738 1.3331965 -2.403181 -1.2262229
000370 90 89 b9 bf b9 29 eb 3e 48 53 3c bf e7 18 22 bf
       -1.4495106 0.4593027 -0.7356458 -0.6331925
000380 9b 7f f9 be 30 49 ad 3f 24 bd da 3e ba 8c 8f bf
       -0.48730168 1.353796 0.42722428 -1.1214821
000390 67 66 0a bf fb ad b4 be 33 36 68 bf b7 2d cb 3f
       -0.54062504 -0.35288987 -0.907077 1.5873326
0003a0 6b 4e cc 3f f2 ce b7 bc ff 3f 53 bf ee 32 68 bf
       1.5961431 -0.022437546 -0.82519525 -0.9070271
0003b0 21 ef ab bf bc 9e 02 bf 39 27 aa bf 15 b2 98 bd
       -1.3432351 -0.5102346 -1.329322 -0.074558415
0003c0 6f 5c 05 40 f5 eb 4d 3f be 7c 12 be 6d f1 cb bf
       2.0837667 0.80438167 -0.14305398 -1.5933052
0003d0 9f 19 7f bf e7 c4 e5 3f db 6a ca be d4 bb 37 c0
       -0.9964847 1.7950715 -0.3953465 -2.870839
0003e0 16 d9 10 40 54 3e 76 bf 74 3f e1 bf 47 ca 69 bf
       2.2632499 -0.96188855 -1.7597489 -0.91324276
0003f0 e2 5c f5 3f 49 1c 93 40 cb 70 12 bf 99 db d8 be
       1.916897 4.597203 -0.5720336 -0.4235504

lstm.weight_hh_l1 f4 [40, 10]
000000 8d cc 47 bf d6 23 66 bf 47 ac fd bf 56 23 08 c0
       -0.78046495 -0.8989843 -1.98182 -2.1271567
000010 6d 62 55 40 1f 3b 7f 40 a9 a5 36 be 16 3c 35 c0
       3.3341324 3.9879835 -0.17836632 -2.8317924
000020 b4 1a 30 be 44 8b c5 be 80 e4 84 bd ef e7 0b bf
       -0.17197686 -0.38582814 -0.064888954 -0.5465078
000030 9e 6d 9a 3f 70 3e 8c 3f e6 6c 72 bd 1c ec be be
       1.2064703 1.0956554 -0.059185885 -0.37289512
000040 d7 5d d0 bf 07 70 de be 12 65 77 40 e9 2d ff bd
       -1.6278638 -0.43444845 3.8655438 -0.124599285
000050 a4 2c c1 be e6 bc 9b 3f 04 a8 32 3f 8a f9 01 3f
       -0.3772937 1.2167022 0.6978762 0.5077139
000060 92 43 7d 3f 5a dd 0d 40 66 5c 32 3f 47 ca a9 3f
       0.9893123 2.2166352 0.6967224 1.3264855
000070 b8 f1 4f 3e 30 25 49 bf 66 f3 c6 3f 32 ee 46 bf
       0.20307052 -0.7857237 1.5543029 -0.7770721
000080 32 fd df bf f2 60 d8 be db 98 44 bf 08 bf 08 40
       -1.7499144 -0.42261463 -0.7679574 2.1366596
000090 ef c4 ba 3f 27 e1 83 bf 58 da ce bc 2e 35 ce bf
       1.4591349 -1.0303086 -0.025250599 -1.6109979
0000a0 5f d3 6b 40 08 ce 0c 40 60 91 aa bf 0d ad 8c 3f
       3.684776 2.2000751 -1.3325615 1.0990311
0000b0 fc 79 0d c0 28 3a 23 40 9f 41 4f 40 fd 70 1a 3d
       -2.2105703 2.5504246 3.2383802 0.03770541
0000c0 63 05 41 bf 6f 19 c9 bf 31 bf 69 3d cf 93 b9 3e
       -0.75398844 -1.5710887 0.0570671 0.36245582
0000d0 0d dd d5 be 1d a9 28 3f 2a 25 2b 3e 1b 8f a8 bf
       -0.4177021 0.65883046 0.16713396 -1.3168672
0000e0 79 0f ba 3f 08 c1 7a 3f 57 fe 00 40 c0 82 f6 bf
       1.4535972 0.9795079 2.0155237 -1.9258652
0000f0 5f 2b e4 3e 88 1a 9a 40 22 37 01 c0 85 a8 ae 3f
       0.4456434 4.8157387 -2.01899 1.3645178
000100 37 b3 9e 3f ab a3 9f bf 8a 96 f1 3f 8b 7a 0b 40
       1.2398442 -1.2471823 1.8874066 2.1793544
000110 b2 cb ff be 88 ed 98 be 07 1c 49 bf 9d 67 2f 3f
       -0.49960095 -0.29868722 -0.7855839 0.68517476
000120 57 b7 2c 40 45 a9 b0 3f 6b 1c 48 40 21 dd 07 40
       2.6986902 1.3801657 3.1267345 2.1228716
000130 ad b9 8d 3e a9 5a 5e bd d1 48 d3 3f 52 fb cc 3f
       0.27680722 -0.05428568 1.6506597 1.6014197
000140 09 05 65 3d 55 5b e0 bf 63 28 37 40 42 af e9 bd
       0.055913005 -1.7527872 2.86184 -0.11410381
000150 e0 4c 5f 40 51 9f 51 c0 e9 cc d7 bf 12 f5 52 40
       3.489067 -3.275349 -1.6859409 3.296208
000160 50 e8 ac 3f 66 fa 0a c0 43 25 28 3f 38 25 4b c0
       1.3508396 -2.171533 0.65681857 -3.1741467
000170 48 c5 d3 bf 08 87 cf be fd 25 9f 3e 41 dc 1d c0
       -1.654458 -0.40532708 0.3108367 -2.4665682
000180 b2 c3 59 c0 aa d2 34 40 82 96 8e 3f 94 79 ad 3f
       -3.4025693 2.825358 1.1139681 1.3552728
000190 bd 02 06 3f b6 34 54 40 fc 22 95 be 86 ba 30 3e
       0.5234793 3.3157172 -0.29128253 0.17258653
0001a0 f5 1d d0 be 34 2f 30 bf f4 1b 32 40 9c e2 e7 3f
       -0.40647855 -0.68822026 2.7829561 1.8116031
0001b0 1b 09 8a bf ed 75 05 bd c9 ef d0 3f 10 fa 3a c0
       -1.0784029 -0.032583166 1.6323177 -2.9215126
0001c0 cd 74 00 c0 aa 16 e9 bf 07 4e 37 3f 45 a2 4b c0
       -2.007129 -1.8210042 0.71603435 -3.1817791
0001d0 20 90 b6 bf 67 8b 01 40 20 0d 1a bd 84 d1 1e 3e
       -1.4262733 2.0241334 -0.037610173 0.15509611
0001e0 64 2f e5 3e 6b d0 96 3f 1d aa 00 40 66 e3 5f 40
       0.4476272 1.1782354 2.010383 3.4982543
0001f0 c7 80 f0 3e dd c9 a7 3f 53 94 f9 3e a9 89 8f 3c
       0.4697325 1.3108479 0.48745975 0.017521696
000200 42 94 40 c0 a7 9a dc 3f ed 3b a2 bf 6f 06 31 40
       -3.009049 1.7234696 -1.2674538 2.7660177
000210 fa b1 0d 40 dc 36 1c c0 68 10 ec bf 69 3e 81 40
       2.2139878 -2.4408484 -1.8442507 4.0388684
000220 62 95 06 bf 84 ed b2 3e 84 5b 1a bf 5c 3d d1 3f
       -0.5257169 0.34946835 -0.6029589 1.634685
000230 08 1c ab 3f 39 4a b9 3f 83 e5 d6 bf 49 cc b8 3e
       1.336793 1.4475776 -1.6788791 0.36093357
000240 7f a0 14 40 7f 7f f8 3e 87 7c 4b 40 d1 91 23 c0
       2.322296 0.48534772 3.1794755 -2.555775
000250 79 b3 01 c0 14 60 95 3f 59 d4 2a 40 80 e8 aa 3f
       -2.0265791 1.1669946 2.6692107 1.3352203
000260 97 df 29 c0 24 d5 ac 3f 1a 40 fd 3d 0b 48 f5 bf
       -2.6542718 1.3502545 0.12365742 -1.9162611
000270 5b c9 1f 40 94 4b 13 be c7 bc e5 3d ed 29 08 3f
       2.4966648 -0.143843 0.11217647 0.53188974
000280 c6 4e 0d be e9 39 a8 3f 13 35 f8 3f 52 b4 87 bf
       -0.13799581 1.3142673 1.9391197 -1.0601904
000290 c8 fc 85 40 8d f8 d5 bd 07 9c 60 bf d4 db 2b 40
       4.187107 -0.10447798 -0.8773808 2.6852922
0002a0 25 c0 ec 3e cc a0 47 bf cc 60 ac 3e c8 4b 0f 3f
       0.46240345 -0.7797973 0.336676 0.5597501
0002b0 46 d9 6b 3f 6c f7 2d c0 84 51 42 c0 6f f0 04 40
       0.9212841 -2.7182264 -3.0362253 2.077175
0002c0 dd 70 b4 be 44 e9 33 3d 86 5f ec 3e f5 df 2e 3f
       -0.35242358 0.04392363 0.4616663 0.6831048
0002d0 b4 16 32 3b fa 2a a2 bf 92 c2 ec bf ec 44 e0 3e
       0.0027174177 -1.2669365 -1.8496878 0.43802583
0002e0 3f 77 51 bf 23 90 9b 3f e2 71 d7 bf ed 8d 07 bf
       -0.8182258 1.2153362 -1.6831629 -0.52950937
0002f0 3f 44 b2 3e c3 8a f5 bd 46 aa 24 3f ef f6 d0 bf
       0.34817693 -0.11989357 0.64322317 -1.6325358
000300 fb 99 46 c0 66 d9 af bf 89 10 c7 3f e1 c4 83 bc
       -3.1031482 -1.373822 1.5551921 -0.01608509
000310 89 58 82 3f 8d 68 a7 bf 8f 8c fe 3f a1 a8 6b bf
       1.0183269 -1.3078781 1.9886645 -0.9205418
000320 42 ab 4e c0 72 e9 82 bf 35 97 c2 bf 54 df ca 3f
       -3.2292027 -1.0227492 -1.5202395 1.5849404
000330 1b c3 f1 bf eb 51 fa be 24 02 27 c0 1c ca 1d 3f
       -1.8887666 -0.48890623 -2.6095057 0.6163652
000340 7b 08 5f 40 27 20 fd 3c c8 9d 2e 3e 3d 18 b1 be
       3.4848926 0.03089912 0.17052376 -0.34588805
000350 9a 0d c9 3d 7d 56 07 c0 df 52 29 bf 86 c3 f1 3f
       0.098170474 -2.1146538 -0.66142076 1.8887794
000360 40 f1 9e 3f 47 5e 32 c0 d8 9d ea bf 6a 75 c2 3e
       1.2417374 -2.7870042 -1.832942 0.37980205
000370 05 25 b6 3f 92 4c 89 bf c0 b0 6e be 80 a2 0b 3f
       1.4230047 -1.0726492 -0.23309612 0.5454483
000380 43 4f 00 c0 55 df 87 40 0c 7f 10 c0 32 61 2b 3e
       -2.0048378 4.246012 -2.2577543 0.16736296
000390 b1 df 57 3c e0 c9 fb 3f 32 58 4c 3b c1 43 46 3e
       0.013175891 1.9670982 0.0031180498 0.19361784
0003a0 2b 84 a4 bf e5 91 7e c0 64 f8 4b bf 6d fe 0f 40
       -1.2852834 -3.9776547 -0.7967589 2.249904
0003b0 9a ef 12 bf 78 e8 09 c0 39 c1 0f 3f 6b 00 13 be
       -0.5739685 -2.1548138 0.5615421 -0.14355628
0003c0 2e e1 22 40 bb 92 22 40 bd 09 ac 3f 4f 02 1f 3f
       2.5449939 2.5402057 1.3440472 0.621129
0003d0 e5 a1 a6 c0 da cb 58 3f a6 5f 83 be b4 74 cc 3f
       -5.2072625 0.8468605 -0.2565891 1.5973115
0003e0 57 4f 26 bf 31 4a 5f be 83 8e 26 3f 81 5a 0f 40
       -0.64964813 -0.21805646 0.65061206 2.239899
0003f0 be d9 fd 3f 46 cb 61 40 00 18 69 40 d9 95 ff 3f
       1.9832075 3.5280318 3.6420898 1.9967605

lstm.bias_ih_l1 f4 [40]
000000 8e 2a 7a bd 7b 55 1e bf d8 3a cf 3e ca 5c bc be
       -0.06107574 -0.6184918 0.40474582 -0.36789542
000010 2e e9 a4 3e 39 dd a2 be 5f 7b 20 bf c9 3f 51 be
       0.32209152 -0.31809404 -0.6268825 -0.20434488
000020 97 62 93 be ea 7e c4 bf 61 cd 4f c0 31 ab 4c 3f
       -0.28786156 -1.5351231 -3.2469103 0.7994872
000030 82 63 b1 3d 8f 6d 4e bf a0 bc c8 be b1 81 fe 3e
       0.08661558 -0.80635923 -0.3920641 0.49708322
000040 1c 20 8a bf ba ac 07 be ba 39 0b c0 02 63 e1 3e
       -1.0791049 -0.13249484 -2.1753983 0.4402085
000050 14 48 b8 3e 60 a5 62 bf f5 ab 5d 3f f1 40 16 3d
       0.3599249 -0.8853359 0.8659051 0.036683027
000060 ab 10 d6 3d 6e fb ed 3e 2a 89 57 bd 06 b8 bf 3b
       0.10452398 0.46480888 -0.052621044 0.0058507947
000070 bc cc 47 be ca 25 f0 3e 5e 76 cd be 82 17 4d bf
       -0.19511694 0.4690383 -0.4012937 -0.80113995
000080 5e 9a 9f 3e a8 aa 42 3f 2d 07 59 bf 5b ef 3b bf
       0.3117246 0.7604165 -0.84776574 -0.734121
000090 1d 86 1b be 22 0a 95 bf cb 09 01 be 6a a8 96 bf
       -0.15187879 -1.1643717 -0.12601392 -1.1770146

lstm.bias_hh_l1 f4 [40]
000000 21 b5 53 be ca cb e4 be a6 b5 b2 3e d7 d2 e0 be
       -0.20674564 -0.4468673 0.34904212 -0.43910858
000010 f7 d4 5c 3e 7e 28 c3 bc bc 35 27 bf c4 e2 a4 3d
       0.21565615 -0.02382302 -0.6531637 0.080510646
000020 5e 56 98 be 0d 85 76 bf 7f e1 56 c0 f6 33 93 3e
       -0.29753393 -0.9629677 -3.3575132 0.2875058
000030 d0 16 f0 3e 22 06 56 bf c2 8e 1b be 0b 59 1d 3f
       0.46892405 -0.8360311 -0.15191177 0.61463994
000040 f0 58 5b bf f3 66 27 be 2b cc 17 c0 02 94 36 3f
       -0.8568258 -0.16347866 -2.3718364 0.7131959
000050 16 83 9c 3d 93 67 5f bf 8c 64 52 3f 15 08 fa 3e
       0.0764219 -0.87267417 0.8218467 0.4883429
000060 6e 6f 5c 3e 78 1e 30 3f 57 db ad 3b 33 ef 02 3e
       0.21526882 0.6879649 0.0053056884 0.1278656
000070 8f e4 ae 3e e7 b6 cf 3e 9a 1c 8e be 55 ae 5a bf
       0.3415875 0.4056923 -0.27756196 -0.8542226
000080 b0 5f cc 3e cc 6f e7 3e 5e 14 70 bf 5f 56 65 bf
       0.39916754 0.45202482 -0.9378108 -0.89584917
000090 bb 1d ec 3e 33 87 b8 bf f2 af 35 3e 89 b0 a8 bf
       0.46116433 -1.441626 0.17742899 -1.3178874

lstm.weight_ih_l1_reverse f4 [40, 20]
000000 76 e7 be 3f d6 30 81 3e b8 18 6b 3e 6e 5f 91 3f
       1.4914386 0.2523257 0.22958648 1.1357248
000010 ac 0a cb 3f fe c1 3c c0 df 8d 0c bf 16 3d 0c 3f
       1.5862632 -2.9493403 -0.5490398 0.5478071
000020 94 43 b7 be 72 d7 7c 40 ec c0 60 3f e9 62 8c 3e
       -0.35793746 3.9506497 0.87794375 0.27419212
000030 8a ca 0e c0 2f 56 79 bf bd 95 26 bf 47 60 80 bf
       -2.231112 -0.9739713 -0.6507223 -1.0029382
000040 39 3a 4b bf f6 56 9b bf aa 51 0a 40 75 c1 91 3e
       -0.79385716 -1.2135913 2.1612344 0.28467909
000050 48 64 ea 3f 9e 65 36 c0 20 de 83 3e 1a 26 1b 40
       1.8311853 -2.8499522 0.25755405 2.4242005
000060 54 1d e8 bc 32 96 5b 3f e9 aa 31 40 98 d4 0e 40
       -0.028334297 0.85776055 2.7760565 2.2317257
000070 d6 78 fc be 58 dc cf be 5f 11 0b 3f 88 59 13 c0
       -0.4931094 -0.40597796 0.5432338 -2.3023396
000080 ca 35 52 bf ba c7 3d c0 ca 20 f4 3f 8d 90 fd 3f
       -0.82113326 -2.9653153 1.9072506 1.9809738
000090 8c 50 44 40 0d 21 1f 3f 6b cd 0e 3f 70 d0 9b bf
       3.0674162 0.62159806 0.5578219 -1.2172985
0000a0 2b b2 21 3f af ba e6 bd 81 a6 1f bf 38 42 04 3f
       0.6316249 -0.11266076 -0.6236344 0.5166354
0000b0 20 fb 83 bf db 38 f0 bf a4 66 8b 3e 2c e3 03 c0
       -1.0311012 -1.8767351 0.27226746 -2.0607405
0000c0 b5 d3 83 3d c3 64 e8 3f 39 ac 13 3f ac bc e2 bf
       0.06436864 1.815575 0.57684666 -1.7713828
0000d0 40 fc fa bc f4 d5 07 3f f5 78 01 3e df f5 99 3f
       -0.03063786 0.5306084 0.12643798 1.2028159
0000e0 38 44 c9 bf df e6 d5 3d 37 a0 5f c0 91 80 53 be
       -1.5723944 0.10444426 -3.4941537 -0.20654513
0000f0 9c e2 82 bf c0 c8 95 3f 81 66 b2 40 04 a5 cf bf
       -1.0225406 1.1701889 5.5750127 -1.6222234
000100 b7 98 e4 3f 4b 22 29 c0 f5 d5 e2 bf 9e 57 a8 3e
       1.7859105 -2.642718 -1.7721545 0.32879347
000110 5a 9e fe 3e b4 87 a2 3f e5 c6 44 40 8b ca 7b 3f
       0.49730188 1.2697663 3.0746396 0.9835593
000120 8e c9 29 bf 59 c6 91 bf 68 06 86 3e b9 5a f5 3f
       -0.66323173 -1.1388656 0.26176763 1.9168311
000130 2e e7 b0 3f 59 f9 e8 3f 79 f8 44 c0 83 4a d9 bf
       1.382055 1.8201095 -3.0776656 -1.6975864
000140 39 43 e5 3e e2 38 d6 bf cc 6c 2d 3f bf a8 8d 3f
       0.4477785 -1.6736109 0.67744136 1.1067122
000150 cb f9 b5 be 90 da 4c 3f 58 b8 28 3e cf 70 bf 3f
       -0.3554214 0.80021 0.16476572 1.4956301
000160 1f d7 e3 bf e8 30 80 3e 04 78 ce 3f c5 59 c4 bf
       -1.7800025 0.25037313 1.6130376 -1.5339895
000170 e2 ad 02 3f 57 e4 a2 3f 66 aa ae bf e8 69 4f 40
       0.51046574 1.2725934 -1.3645751 3.240839
000180 89 3c 87 c0 c2 f5 95 3d 67 48 96 c0 fc 8e e3 be
       -4.2261395 0.07322265 -4.696338 -0.44445026
000190 e5 0d c8 bf ed ff d8 3f 02 bc 80 be 52 b7 8f bf
       -1.562924 1.6953102 -0.2514344 -1.122782
0001a0 b7 62 f1 3f 31 48 27 c0 74 f4 83 3f 24 88 fb be
       1.885825 -2.6137812 1.0308976 -0.49127305
0001b0 df d0 06 40 42 51 11 40 25 00 41 bf 48 3e 29 bf
       2.1064985 2.2705846 -0.75390846 -0.6611066
0001c0 1f 16 34 c0 0b 97 3e c0 08 e7 0a 3f 92 04 43 bf
       -2.8138502 -2.977969 0.54258776 -0.7617885
0001d0 3b 24 54 3e 45 d7 14 40 5f 6c d9 3f 11 3a 1f 3f
       0.20716946 2.325639 1.6986197 0.6219798
0001e0 20 32 ed bf 70 9c 2b bf c1 6d 83 3e c2 66 68 bf
       -1.8530922 -0.6703558 0.25669673 -0.90781796
0001f0 b7 b3 48 bf 4c 5b 0b bf ef 1c 01 3f 32 c0 3c 3f
       -0.78399223 -0.5443618 0.50434774 0.73730767
000200 f7 e6 16 40 70 86 3b bf be d7 a6 be 8e dc 65 bf
       2.357847 -0.7325201 -0.32586473 -0.89789665
000210 ef 84 c9 bf 68 2a 59 bf 8f 84 87 c0 42 44 36 3f
       -1.5743693 -0.8483033 -4.2349315 0.71197903
000220 3f a2 24 c0 77 c2 64 3f 58 7e 12 bf 68 63 ea bf
       -2.5724027 0.8935923 -0.57224035 -1.8311586
000230 55 93 dc 3f 93 50 5d 40 ef e3 f8 be 87 df 81 bf
       1.7232462 3.4580429 -0.486114 -1.014634
000240 b9 95 aa bd 47 66 15 3f 87 b2 c0 be f4 54 f9 3f
       -0.083293386 0.5835919 -0.37636206 1.9479051
000250 30 95 8e bf c4 67 29 be ef fe 29 40 bc 23 03 bf
       -1.1139278 -0.1654349 2.656185 -0.512264
000260 79 18 01 3f 59 53 f0 be b4 8b 4c 3f e8 5d da bf
       0.5042797 -0.4693859 0.7990067 -1.7059908
000270 cc ac 4f 40 6d c2 c8 bf 39 01 dc 3e 62 d2 06 40
       3.2449217 -1.5684334 0.42969683 2.1065907
000280 70 b5 fd 3f 80 5f 7d bf 23 2c 7d bf f9 0d bd 3f
       1.9820995 -0.98973846 -0.9889547 1.4769889
000290 6c 16 7b 3e 14 f9 da bf 1e 02 ff 3f 13 3e aa 3c
       0.24520272 -1.7107263 1.9922521 0.020781552
0002a0 a8 fa a1 3f f1 64 42 c0 c8 bb 29 bd 9f 8b 9c bc
       1.2654619 -3.037411 -0.041438848 -0.019109545
0002b0 b5 82 12 c0 0b 43 8d be 4c 63 ed 3e c2 a7 80 bd
       -2.2892277 -0.27590212 0.4636482 -0.06281997
0002c0 7b 03 38 3c 96 ed 21 3f 7e 0d 0e 3f c2 6f 48 be
       0.011231299 0.6325315 0.5548934 -0.19573882
0002d0 d6 2e 08 40 14 d3 93 bf 22 d8 f2 3e 42 82 3c 3c
       2.1278586 -1.1548791 0.4743052 0.011505665
0002e0 fc 50 8c bd 44 fb b5 3f 98 1f 55 3f de 3a 36 be
       -0.06851384 1.4217305 0.83251333 -0.17795894
0002f0 bf cc 68 3e b6 e1 96 bf b3 e7 a2 3e f4 ee f9 3f
       0.22734354 -1.1787632 0.31817397 1.9526048
000300 de e8 c2 bf 9d d7 21 3e 10 f1 95 bf a9 67 80 3f
       -1.5227315 0.15804906 -1.1714191 1.0031635
000310 15 55 8f 3f d9 24 c0 bf 37 37 62 c0 2f 65 8c be
       1.119784 -1.5011245 -3.53462 -0.27420947
000320 e0 0b 2b 40 4b 86 09 40 62 25 80 3f cf 38 4b 3f
       2.6725998 2.1488216 1.0011408 0.7938356
000330 1d 4a d9 3f f1 53 38 bf f6 b9 74 3f 72 75 f8 3e
       1.6975743 -0.72003084 0.95596254 0.48527104
000340 39 6d f0 3e 88 08 18 40 77 e3 61 3e 2e f6 04 40
       0.4695833 2.3755207 0.22059427 2.0775256
000350 2a d6 a0 bf fa 79 13 c0 e6 32 01 3f 39 ce 40 3f
       -1.2565358 -2.3043199 0.5046829 0.7531467
000360 f6 84 39 40 ef 85 df 3f ab 85 f9 be f2 83 ce 3f
       2.8987403 1.7462748 -0.48734793 1.6134017
000370 c7 1a 02 40 8b d0 9e 3f 59 8f 4c 3f ab 78 fb be
       2.0328844 1.2407392 0.7990623 -0.491155
000380 8e 32 a2 3f e0 5f 55 bf 95 8f 16 be 55 37 b2 3f
       1.2671678 -0.8334942 -0.1470321 1.3923136
000390 89 53 91 bf fc ec c7 3f 2c 98 11 bc 9b 7d 2d be
       -1.1353618 1.5619197 -0.008886378 -0.16942446
0003a0 ad 52 f8 3d 16 d8 d0 bf 72 5d 91 3f 5a 16 78 40
       0.12125144 -1.6315944 1.1356642 3.8763642
0003b0 53 02 96 3f ed b9 74 40 7f fe 36 c0 1c 83 e1 be
       1.1719459 3.823848 -2.8592832 -0.4404534
0003c0 ab fb 1b 40 4a 57 bb 3f 82 0f 92 40 46 b5 c0 bf
       2.4372356 1.4636014 4.564393 -1.505532
0003d0 5f 07 77 40 66 89 83 3f 5b c7 42 3b b5 7b 1f 40
       3.859825 1.0276306 0.0029720876 2.4919255
0003e0 4d c2 8f 3f 54 10 2c bf 37 da b6 bf b6 e1 92 3f
       1.1231171 -0.67212415 -1.4285344 1.1475132
0003f0 5d 15 b5 bd 5b 8f a0 3e 98 6b 25 c0 9e 9f 79 3f
       -0.08841965 0.31359372 -2.584692 0.9750918

lstm.weight_hh_l1_reverse f4 [40, 10]
000000 6e 0f ee 3f cb 3b 24 bf 3e 4b 23 3f 81 5f 81 3f
       1.8598459 -0.64153737 0.63786685 1.010727
000010 a4 ce d4 3e 0e a4 b7 3f 20 8c b5 bf c1 2b 2e 3f
       0.41563904 1.434694 -1.4183388 0.68035513
000020 4f 8f c8 3f d1 df aa bf 72 72 74 3e 49 d3 b3 bf
       1.5668734 -1.3349553 0.23871782 -1.4048854
000030 fb 16 fc 3f 3a 0e fa bf 9c 28 a4 3f f3 64 07 c0
       1.9694513 -1.9535592 1.2824893 -2.1155365
000040 07 f8 c6 3f 36 5f 2c bf 95 e8 c8 3f 6c b0 43 be
       1.5544442 -0.6733278 1.5695978 -0.19110268
000050 53 5a a3 bd 7d 53 ff 3e 2e b0 5a 40 69 54 5f 3f
       -0.07976212 0.49868384 3.4170032 0.87238175
000060 3a 8d ce 3e 3a 00 db 3e ef 0e 32 bf a5 76 d9 be
       0.40342122 0.4277361 -0.69554037 -0.4247333
000070 8f 19 6e 40 c6 41 c5 bf 7b 9d 23 bf 96 a5 bd 3f
       3.72031 -1.5410697 -0.6391217 1.4816158
000080 e2 01 fc 3f 24 bf 88 3f a2 5b 86 bf e3 3c 5d be
       1.9688075 1.0683331 -1.0496714 -0.21605258
000090 26 19 1e 40 81 9e 58 bf 00 d0 a4 3f 36 47 01 3f
       2.470285 -0.8461686 1.2875977 0.50499284
0000a0 b0 34 36 3e e6 ab 0c bf 47 cb a9 3f 45 13 b9 3f
       0.17793536 -0.54949796 1.326516 1.4459006
0000b0 31 d0 99 bf f0 53 a4 bf 32 09 24 bf b0 7b 40 bf
       -1.201666 -1.2838116 -0.6407653 -0.7518873
0000c0 4c 6b 64 3f ff 45 07 40 44 0a 46 40 f8 07 0f 3c
       0.8922622 2.1136472 3.0943766 0.008729927
0000d0 26 c1 d3 3f df bc 2a c0 05 d3 06 40 16 d7 a8 3f
       1.6543319 -2.6677778 2.1066296 1.3190639
0000e0 ba d8 58 3f f4 f1 35 3e cb 00 71 bf c4 d5 13 be
       0.847057 0.17768079 -0.94141835 -0.14437014
0000f0 51 87 4d be fe b1 c1 3e 79 0d a9 bf 01 70 42 3f
       -0.2007115 0.3783111 -1.3207237 0.75952154
000100 d8 47 81 3f a2 c3 24 bf e5 29 d0 be 73 a2 07 bf
       1.010005 -0.6436101 -0.40656963 -0.5298225
000110 10 f1 c5 bd 6b bb 5f 3f ea f1 d8 bf 91 02 9e 3f
       -0.0966512 0.8739535 -1.6948826 1.2344533
000120 c9 9c b8 3f be 73 0f 3f c9 f3 39 be 4f 43 8a 3f
       1.4422847 0.56035984 -0.18159403 1.0801791
000130 1a 7f 06 bf 2f be 9d 3f c3 c5 c8 3d 1a a5 e6 bf
       -0.5253769 1.2323664 0.09803345 -1.8019135
000140 24 86 40 40 f3 34 96 bf ce d4 a7 3f 9b fc 10 c0
       3.0081873 -1.1734909 1.3111818 -2.2654178
000150 74 16 2e 40 56 00 c6 bd 88 0c 31 40 0d fc e0 bf
       2.7201204 -0.09668033 2.7663898 -1.757692
000160 7f 29 78 3f a7 c3 0f 40 17 7d 70 3f 63 64 3c c0
       0.9693832 2.2463167 0.9394087 -2.943627
000170 49 91 d6 bf 86 0b 27 3d 74 3d 2b 3f eb 78 42 c0
       -1.6763088 0.040782474 0.66890645 -3.0386302
000180 d3 4a 15 bf 79 5f 2b c0 44 da 32 bf b0 08 a3 3f
       -0.583173 -2.6777022 -0.69864297 1.2737026
000190 60 93 80 3f cb d8 b3 be 0b f7 28 40 a5 e7 b8 bd
       1.0044975 -0.35126337 2.6400783 -0.09028558
0001a0 73 07 ad bf ef d5 e6 3f 3c 02 de bf 8e 1b 6a bf
       -1.3517898 1.8034037 -1.7344432 -0.91448295
0001b0 3a d0 00 c0 1d 00 05 3f 52 44 a6 3f 87 45 c0 be
       -2.0127091 0.519533 1.29896 -0.37553045
0001c0 53 92 23 3f 2f fe 6d 3e 63 ac 67 c0 27 4a 29 3e
       0.6389515 0.23241495 -3.6198967 0.16532193
0001d0 42 cf 68 bf 42 4c cf 3f d1 7a 21 3f b8 06 e1 bf
       -0.9094125 1.6195147 0.6307803 -1.7580175
0001e0 c9 c1 2c bf f2 6d 7f bf a8 75 f3 bf d5 8a ac 3f
       -0.6748319 -0.9977714 -1.9020281 1.3479868
0001f0 bd 3f 31 c0 c2 55 9b 3e 05 73 3d c0 b2 5d 3b 40
       -2.7695153 0.30338866 -2.9601452 2.9275937
000200 09 95 61 3f 94 82 31 bf bb 6c 51 bf 0a 88 bc be
       0.88118035 -0.6933987 -0.81806535 -0.3682254
000210 d6 42 c9 3f b4 9d 0f be 4f d5 3b 3e 05 b2 41 3e
       1.5723522 -0.14025003 0.1834309 0.18915565
000220 03 73 bb 3f 53 2c 49 3f 44 25 37 c0 29 70 46 bf
       1.4644474 0.7858326 -2.8616495 -0.7751489
000230 87 0b e0 3d 6a 3b 89 bf fe 95 58 bf 05 e3 97 bf
       0.10939699 -1.0721257 -0.8460387 -1.1866156
000240 e9 5e a9 3f a8 40 82 bf 76 de e1 3e 4f 78 02 40
       1.3232089 -1.0175982 0.44115037 2.038593
000250 ed 92 1f 40 1f 13 3e 3f c8 65 25 40 2c ec f3 bf
       2.4933426 0.74247926 2.5843372 -1.9056449
000260 e7 98 37 c0 2f ff 8f bf 81 da ae 3e 8d 37 74 3f
       -2.8687074 -1.1249751 0.3415108 0.95397264
000270 dd ca c3 bf 32 4c 08 c0 3b cb 3b 3e 53 ce 04 bf
       -1.5296284 -2.1296506 0.18339245 -0.51877326
000280 4e cd 39 bf d7 7a 10 3e f0 9e 7a be 21 ef d4 3f
       -0.72578895 0.1410936 -0.24474692 1.6635476
000290 33 33 7b bf 2e 01 32 c0 be af 1b c0 71 55 56 bd
       -0.98125 -2.781322 -2.4326015 -0.052327577
0002a0 33 fe b5 3f 41 39 01 c0 78 c9 5f bf dc 0f 89 bd
       1.42182 -2.0191195 -0.8741679 -0.06692478
0002b0 4d 1a 93 be 4c 07 d9 3f 57 ec 79 3f 27 c1 cb bf
       -0.28731003 1.6955352 0.9762625 -1.591832
0002c0 4b b0 0e 3f 82 e7 b9 bf eb 62 27 c0 75 c5 92 3f
       0.5573775 -1.4523776 -2.6154125 1.1466509
0002d0 e6 4f 90 40 6f 50 ff 3e ae 60 b0 3c 89 88 91 bf
       4.509753 0.49866053 0.021530475 -1.1369792
0002e0 02 97 26 40 5e 0c 37 3f cd 4c fd bf 4d 38 21 bf
       2.6029668 0.71503246 -1.9789063 -0.62976533
0002f0 bc ba 80 bf fa 4c 23 3f 53 49 b1 3f 89 2a 10 40
       -1.0056987 0.6378933 1.3850502 2.2525961
000300 14 f1 ea 3f b9 50 ac bf 5f 65 30 3f 81 5c 65 40
       1.8354821 -1.3462135 0.6890468 3.583771
000310 af 7a a9 bf 17 9a 8a 40 ac 2d d2 3f 1e 41 e0 bf
       -1.3240565 4.33131 1.6420188 -1.7519872
000320 c8 77 42 3f 97 53 0f bf fb 71 34 c0 a4 71 5f bf
       0.7596402 -0.5598692 -2.8194568 -0.87282777
000330 6e cd 06 40 72 ec ea 3d 46 2a 6b 3f 4c 0a b9 3f
       2.1062884 0.114708796 0.9186138 1.4456267
000340 04 20 79 3f f3 6d bf bd 61 4c c3 bf a9 c5 06 c0
       0.97314477 -0.09347143 -1.5257684 -2.1058142
000350 0f 9c 98 bf 78 4d cc bd 81 99 dd bf 74 b8 3b 3f
       -1.1922625 -0.099757135 -1.7312471 0.7332833
000360 d1 29 36 3f 95 4b c6 bf 18 ec aa be d6 05 e1 3c
       0.71157557 -1.5491816 -0.3338325 0.027468603
000370 b2 44 fe be 76 d8 9a bf 6b be 49 c0 c7 5c 22 3e
       -0.49661785 -1.2097309 -3.1522472 0.15855704
000380 e1 e0 30 c0 bc 53 1c c0 66 77 35 c0 32 24 31 3f
       -2.7637255 -2.4426107 -2.8354125 0.69195855
000390 e0 83 03 40 d6 45 18 c0 04 61 03 40 99 9e 42 c0
       2.054924 -2.3792624 2.0527964 -3.04093
0003a0 0a b1 c7 be 79 a4 9a bf 24 3f 1f be c3 ea f5 3f
       -0.39002258 -1.2081443 -0.1555143 1.9212269
0003b0 dc a1 14 c0 7d 8e 1c bf 32 35 33 c0 6b b1 c7 3e
       -2.322379 -0.6115492 -2.8001218 0.39002547
0003c0 f2 5f 23 c0 e0 b4 5e 3f 9a 12 0f c0 eb 8b 3e 3d
       -2.552731 0.86994743 -2.2355103 0.046520155
0003d0 92 63 5f bf e1 c4 5f c0 a5 7b 02 c0 2d e6 b3 3f
       -0.8726131 -3.4963915 -2.0387967 1.4054619
0003e0 e2 3f 63 3f 8d 8b e8 bf 9c b7 08 bf 12 4a d6 3f
       0.8876935 -1.8167588 -0.53405166 1.6741354
0003f0 2e 25 a8 bd 71 02 09 40 29 ca e3 3f 39 14 d9 bd
       -0.082102165 2.140774 1.7796069 -0.1059956

lstm.bias_ih_l1_reverse f4 [40]
000000 ae d2 81 bf 59 20 3e 3f 78 02 83 bf 17 2e 42 bf
       -1.0142419 0.7426811 -1.0235128 -0.7585158
000010 25 85 a2 bc b8 3d cd 3e 43 0c 57 be 9a 7e d6 3f
       -0.019838879 0.4008615 -0.21000771 1.6757386
000020 68 9b a5 3f cc fd 67 3f ea f7 c9 3e ef 0a 7c 3f
       1.2938051 0.9062164 0.39446956 0.98454183
000030 b7 ef 5a bf 94 7d c8 3d 5c 3a 35 bf a4 71 14 be
       -0.85522026 0.09789577 -0.70792174 -0.14496475
000040 90 fb c9 bd 16 4c 69 bf a2 e1 40 3f 54 e0 02 bf
       -0.09862435 -0.9113172 0.7534429 -0.5112355
000050 a9 c3 ba be 7d 62 e7 3f 86 f1 2e 3f b2 20 12 bf
       -0.36477402 1.8076931 0.68337286 -0.5708114
000060 a3 8f 8d 3e 82 9f 89 bf 6c 2d aa 3f 93 16 08 be
       0.2764865 -1.0751803 1.3295112 -0.13289861
000070 00 7a b1 3e a4 03 3a 3f 90 6c f3 3e c7 f1 5d 3f
       0.3466339 0.72661805 0.47543764 0.8669705
000080 36 45 6c bf b0 a8 17 3f 0e ec 01 3f 27 cc d3 be
       -0.9229311 0.5924177 0.50750816 -0.41366693
000090 20 c5 70 3e 56 46 78 3f ac 22 05 3f 59 dd 00 3f
       0.23512697 0.96982324 0.5200603 0.5033775
